results/ppo/Avoid Obstacle/Avoid Obstacle-499944.pt (torch, 437023 bytes, 30 tensors)

network_body._body_endoder.seq_layers.0.weight f4 [128, 6]
00000000: 8f7a 4ebf b9e4 08bf 42af 17bd 9329 3dbf
00000010: b634 1cbf d9a4 b53d 1a39 5c3f b866 033e
00000020: 12ce 4bbf 3e54 efbe b3ae a83e c082 d03e
00000030: 7f91 183e 76e9 b73d 9dd0 33be ee4c 8c3e
00000040: 7296 173e 695b 253f 0ffb be3e 9ec3 d1be
00000050: a27e 883e 7327 3b3e eb50 c3bd 0940 a3be
00000060: 0c1f f03e a7e3 0abf c66e 163f 2efb 6ebe
00000070: 4516 433e 62ab 5abf 43f4 343d fa7d bf3e
00000080: 98b8 18bf 91b5 ac3e a926 e8bd d126 ee3e
00000090: 0d1a 183d 27fb 04bf c82f 0b3f 805c a7be
000000a0: eb9d 2f3f b060 93be 9dda 8cbe 0980 8ebb
000000b0: a442 753d d382 173e d04f 423e b220 ed3e
000000c0: ef2c 37be 8192 89be 734e 00bd a51f eebe
000000d0: fb01 913c a506 8fbc 9cf4 fcbe e16b d5be
000000e0: 2b46 c0bd 12a4 e6bd 6577 373d 6e89 ab3f
000000f0: f53b 113c 9656 cdbe 3aba 4c3e 68c4 76be
00000100: 1f3f e33e 8dd6 b7be c849 76be a643 873e
00000110: 3e43 643e f031 00bf 9a31 b33e 77b0 a03e
00000120: 595c 22be 06d1 14bf e63b c1be 435b 5e3e
00000130: a6b5 5c3c 3940 5b3e 35d9 273f 310f 033f
00000140: 1c81 8d3e 0c2b b5bd 41cc 2b3e 6eda 33bf
00000150: 3606 1bbf 51db 883d 4460 203e 51ad f83e
00000160: 0fef 2c3e dd18 66bf 64b8 a03e 73ee 033e
00000170: 5158 743e fb13 b8be 4698 f9bd da03 00bf
00000180: 9de4 3dbf 5bb0 003f 16bf c83e 14a5 1dbf
00000190: ce45 a2be ba66 e23e 68f7 e93e 2a07 64be
000001a0: fdd3 94be 8b1b 25be 9c7d 003f 4628 373e
000001b0: 34ea 89be 52c6 513e 677d efbe 0523 21bb
000001c0: bfba 903e 8c10 e13d 1b9a 623e 9f8f 893e
000001d0: 2d42 74be 077a 2b3f 30f9 3a3d bb79 273d
000001e0: 7b15 12be 3877 e73e 8923 e8bd 284e ef3d
000001f0: 9fdf 193f d6a5 033f 6ce0 53be 5661 2fbf
00000200: 1866 d6bc 8eb2 703f 89ca 753e 964b efbe
00000210: 1fdb 14be e10d d9be 15c5 a73e 40dc 3f3d
00000220: c9c9 343e fa29 b93e c992 b7be 021b e4be
00000230: afd4 253f e0f1 a8be 2149 8fbe a4fc e73c
00000240: 5fd2 473e af70 563f 25cd 953e 7313 e23e
00000250: 9cf0 f6be fb3e 0e3f 174e 613d 2a18 d2bd
00000260: ce07 e0be a0a3 f13e 8681 1dbf a766 06bf
00000270: b603 17bf 50c4 3ebf 4de0 51bb cb19 a23d
00000280: 49fa 47bd ab5c 6d3f 9401 043f 77fe b3be
00000290: 8065 d1bd b169 c93d 3c1b a2be b20f a1be
000002a0: 267f ddbe 0961 c73e 3660 00be 9a1d 1dbd
000002b0: 2152 023e 8d5e 5cbe ee33 df3e 87a2 16bf
000002c0: f339 d83e 2c35 63be bff1 21be 17b6 5f3e
000002d0: 1f22 e83e 818e dfbe f48a 5cbe db3b 493f
000002e0: b328 94be 192f e43e aefe 81be df3e 17bf
000002f0: 74bc d5be d6c6 7fbe 449c c4be 4a7a 14be
00000300: beae 84be 600f 30be 963e 7a3f 1284 9f3e
00000310: 9f0e 683f 32b0 e2bd 539a 113f 34b2 bebe
00000320: e00a 85bd 2158 983e 0e76 a0bb 8f0c 8fbf
00000330: 5ff4 8cbf ae96 4c3d e350 3f3e e9a3 2e3e
00000340: aca4 32be 4428 07bd 91d0 cc3d 9d39 69be
00000350: 202f 433d c8f3 17bc 76a9 d53e 963f 2ebf
00000360: f420 75be e2bc dcbb b810 a53c c09d 8a3e
00000370: d4d6 4ebd 4168 c23e 45a0 943d 3aa8 2e3f
00000380: b8d7 173e 6362 43bc 2547 5dbe d79b 623f
00000390: 72bb 273f 9450 27be b28e 223e 3cfa 81bd
000003a0: 65ea 743c 9c35 d23e ed68 30be 0e49 8fbe
000003b0: 2f2e db3e 3fbe aebe 4881 0f3f a891 273d
000003c0: cf8d 8bbe 02c8 623d 2629 30be 1e4f b73e
000003d0: 3583 0b3e 6f98 9c3c b4f1 55bf a065 833e
000003e0: 274d 42be 2b66 d1be c836 453d 6250 3d3f
000003f0: 7e43 4b3f 66bc ad3e aaa6 fbbe d416 cbbe
-0.8065576 -0.53474003 -0.037032373 -0.7389156 -0.6101793 0.08869333 0.8602463 0.12832153
-0.79611313 -0.4674396 0.32945785 0.40724754 0.14899252 0.08980076 -0.17560048 0.27402443
0.14803484 0.64592606 0.37300918 -0.40969557 0.26659113 0.18276767 -0.09536918 -0.31884792
0.46898687 -0.5425362 0.58762777 -0.23338005 0.19051464 -0.8541776 0.04417826 0.374008
-0.5965667 0.33732274 -0.11335499 0.4651399 0.03713422 -0.5194573 0.54369783 -0.3268776
0.6860034 -0.28784704 -0.2751054 -0.004348759 0.059878007 0.14795999 0.18975759 0.46314007
-0.17888235 -0.26869586 -0.031324815 -0.46508518 0.01770114 -0.017459223 -0.49405372 -0.41683868
-0.093883835 -0.11261763 0.044791598 1.3401315 0.0088643925 -0.40105122 0.19992915 -0.2409836
0.44384095 -0.35905877 -0.24051583 0.264188 0.22291276 -0.500762 0.3499878 0.31384632
-0.1585554 -0.58131444 -0.3774101 0.21714501 0.013471043 0.21411218 0.65565807 0.51195055
0.27637565 -0.08846101 0.16777135 -0.7025517 -0.6055635 0.06682456 0.15661722 0.4856973
0.16888069 -0.8988169 0.3139068 0.1288393 0.23861815 -0.35952744 -0.12187247 -0.50005877
-0.7417696 0.502691 0.39208287 -0.61580014 -0.31693882 0.44219 0.45696568 -0.22268358
-0.29067984 -0.16123788 0.50191665 0.17886457 -0.26936495 0.2048581 -0.46775362 -0.0024587524
0.28267476 0.10989484 0.22129099 0.26867387 -0.23853369 0.66983074 0.0456478 0.040887576
-0.14266007 0.45208144 -0.11334903 0.11684829 0.60106844 0.5142492 -0.20691079 -0.685079
-0.026171729 0.9402245 0.24003042 -0.46737355 -0.14536713 -0.423934 0.3276755 0.046840906
0.176551 0.36164838 -0.35854176 -0.44551855 0.64777654 -0.32997036 -0.2798548 0.02831871
0.19513844 0.8376569 0.29258075 0.44155464 -0.48230445 0.5556485 0.055006113 -0.10258515
-0.43755955 0.47195148 -0.6152576 -0.52500385 -0.5899004 -0.745183 -0.0032024563 0.07915076
-0.048822675 0.92719525 0.5156491 -0.3515508 -0.10224438 0.09834612 -0.31661403 -0.31457287
-0.4326107 0.3894122 -0.12536702 -0.03835831 0.12726642 -0.21520443 0.43594307 -0.5884175
0.42231712 -0.22188252 -0.15814875 0.21846806 0.45338532 -0.4366341 -0.21537381 0.7860696
-0.289373 0.44567183 -0.25389618 -0.5908031 -0.4174534 -0.24978194 -0.3840047 -0.14499775
-0.25914568 -0.17193365 0.9775175 0.3115545 0.9064731 -0.11068763 0.56876105 -0.37245333
-0.06496215 0.29754737 -0.0048968857 -1.1175708 -1.1012076 0.049948387 0.186832 0.17054714
-0.1744563 -0.032997385 0.100007184 -0.22775884 0.047652364 -0.009274431 0.4173085 -0.68065774
-0.23938352 -0.006736384 0.020149574 0.2707348 -0.050497845 0.37970164 0.072571315 0.68225443
0.14828384 -0.011925313 -0.2160917 0.8851904 0.65520394 -0.16339332 0.15874746 -0.063465565
0.014948462 0.41056526 -0.17227526 -0.27985424 0.42808673 -0.3412952 0.5605664 0.040910393
-0.2725663 0.055366524 -0.17203197 0.3580255 0.1362427 0.019115655 -0.83571935 0.2566347
-0.18974744 -0.4089826 0.048147947 0.7395078 0.7939986 0.339328 -0.49150592 -0.39665854

network_body._body_endoder.seq_layers.0.bias f4 [128]
00000000: 27fd 633d 754c 023d 7e35 3b3b 5afc 553c
00000010: daf3 893d 1fb2 2e3d b407 8e3b df3d a2bc
00000020: 5253 a4bc 188e 26bc 8df1 553d e8ac ac3c
00000030: b3c1 97bc 33e6 1abc 648d de3b 814a d13d
00000040: 7aed 79bb 64fe 9e3c 7128 e73c 55ca 4ebb
00000050: d6e2 e7ba dd40 a63c 7878 d23b 698f bd3c
00000060: a868 80bc 6500 803c 075d 80bc d2fa 5bbb
00000070: 04d4 4c3d 882e 4c3d 6584 a5bb f51e 27bd
00000080: a30c 383c 903a 5ebc 4b20 653d 5ccf 7fbb
00000090: 6b8a f5bb b652 50bc 21e9 94bc 31bd 913b
000000a0: e54c e4bc ecb3 293c bd7c 7b3d 5349 4fbb
000000b0: 7429 ecbc d2ff 35bd 6e57 7a3a aac8 07bd
000000c0: 964c 163c 2a88 793d a21e dfbc 0de6 a83c
000000d0: 4ff0 153d f406 e23b 95a9 c43b e2e8 c3bb
000000e0: abfa 6fbc bb11 af3c 86c6 523d 14f1 afbc
000000f0: 53ef c23c 068a 7dbc 2d43 dc3c 37f8 163d
00000100: ae41 223d ac3a 673d 2b09 813b bcc7 7a3d
00000110: c9e0 0b3d e2a7 133d f94b 5ebb 833b d93c
00000120: 5652 af3c 30d4 ab3c 381f e73b e0de 273d
00000130: 199f 95bc 1a63 543b 8595 83bb 9c9c 56bb
00000140: a343 123d 2459 f73b 6aa2 493c 95ee 4c3b
00000150: 4250 1fbd 0b93 443d ecb3 0c3d fd06 823c
00000160: bda6 b1bb 9d03 43bc 7601 9a3c 287f b83c
00000170: 5a21 373c b12f b1bc 1774 0a3d 8594 a0ba
00000180: b79f ca3c 1f0f 443c 3f4b 033d bc14 8e3b
00000190: 49b4 483c 861f 04bd 1fdc 51bc 03b4 72bc
000001a0: 0508 d6bb 768a 563b 9061 cf3c 0687 2b3c
000001b0: 2537 9ebc bdfe 9a3d e58c fb3c 1131 bfba
000001c0: 3bb0 623b 12f9 003d 1e1a 8a3c d1fa 59bc
000001d0: 18e5 bc3c 76fd b8bb fd7d 363c 878c 7a3c
000001e0: 9a6a 5e3d 3ad5 373d 4bd3 183c 1f76 d03c
000001f0: 493a 433d 69f1 b03c e449 b7bb e5b1 9f3c
0.055661347 0.031811196 0.002856582 0.013060654 0.06735964 0.04265034 0.0043344144 -0.019804893
-0.020059261 -0.010165714 0.052232314 0.021078542 -0.01852498 -0.009454298 0.0067917574 0.102192886
-0.0038135932 0.019408412 0.028217526 -0.0031553705 -0.0017691504 0.020294601 0.0064230524 0.023139672
-0.015674904 0.015625188 -0.015669359 -0.0033566249 0.05000688 0.049849063 -0.005051183 -0.040801007
0.011233482 -0.013563767 0.055939 -0.0039033508 -0.0074933073 -0.012715032 -0.01817757 0.004447602
-0.027868697 0.010357838 0.061398257 -0.0031629398 -0.02882836 -0.044433422 0.0009549771 -0.033150353
0.009173533 0.06092087 -0.027236287 0.02061751 0.03660613 0.0068978015 0.006001661 -0.0059786895
-0.014647166 0.02137076 0.051458858 -0.02147726 0.02379576 -0.015474802 0.0268875 0.03685781
0.03961342 0.05645244 0.0039378605 0.061225638 0.03414992 0.036048777 -0.0033919795 0.026517635
0.021401566 0.020975202 0.007053282 0.040984035 -0.01826434 0.0032407702 -0.004015627 -0.0032747155
0.035709035 0.007548468 0.012306789 0.0031270136 -0.0388949 0.047991794 0.034351274 0.015872473
-0.005421488 -0.011902717 0.018799525 0.02252157 0.011177385 -0.021629186 0.03380212 -0.0012251294
0.024734361 0.011966496 0.032054182 0.004335968 0.012250015 -0.032256626 -0.012808829 -0.014813426
-0.0065317177 0.0032736338 0.025315076 0.010469204 -0.019313404 0.07568119 0.030706832 -0.0014586766
0.0034589905 0.031487532 0.016858157 -0.013304428 0.02305846 -0.0056454493 0.011138436 0.015292293
0.054300882 0.044881083 0.00932772 0.02544695 0.047663007 0.021599488 -0.0055935252 0.019494006

network_body._body_endoder.seq_layers.2.weight f4 [128, 128]
00000000: c314 22bd 7e81 923d bc7b df3d 1bff e2bc
00000010: e590 3bbc 8cf7 c43d 10cb 863d f0c9 c53d
00000020: 27bf fa3c 9abc 693c eec1 d43a 11a9 873d
00000030: c567 f9bd e835 8ebc b607 92bd 74b1 88bd
00000040: 64be 28bc b6b7 a53d 3451 1ebe 24d5 473e
00000050: e8ab 6bbe a48b a83c 3501 1f3d 36b4 d93b
00000060: 9d1a 5e3d d4a5 333d bfca 063e 108a 303d
00000070: 4695 ec3c 7bdb 363e 6ef5 70be 3246 943d
00000080: 1245 e33d a6d0 4c3c 2fea 4fbe d440 ee3b
00000090: ae87 c3bd e9ec a2bd 3512 fb3c 0a7e 063e
000000a0: 14d1 60bd f9ce a7bc 1865 b5bc afd8 98bc
000000b0: 787f 6e3e 183f f23d 5025 6abd a6d2 423d
000000c0: 1375 7d3d b92a e53c 756f 943d 24e2 d9bd
000000d0: 82c4 e43d 4e20 3b3c ff1f 47bd 82d9 b4bd
000000e0: bfb5 1b3c 4751 7bbd c43e 863d 2ce8 d6bd
000000f0: ab82 c1bd 7682 b3bc 2cf0 cfbc d1a9 0bbe
00000100: 48b2 40be 94dc 503c 5e79 fcbd 031a c3bd
00000110: a446 06be babc 433d 103b 573c be76 56bd
00000120: 957f 61bc b28a 403e 6ed9 08be 1415 053e
00000130: 09a5 223e 07e1 ed3c 86e6 9d3d 197e eabd
00000140: 6db9 ff3d 482c a1bd b83a b9bd 05be bd3d
00000150: ba13 27be 1964 533d 5323 b63d bd7f 273e
00000160: a3dd 1a3d 32ed c33c e32f 483b 834a 10bc
00000170: 6ff5 813d edbb 53bc e630 cc3d 3148 173c
00000180: 6705 4d3e 9fbf 773d 05d2 ecbd 37e1 d0bd
00000190: 2ab5 dbbd 1121 c23c a7d0 8c3c b0a7 26be
000001a0: fabb 363d 3cb3 1cbe 6f05 b9bd 86bb 933d
000001b0: 8b5e 0d3e 17a5 52bb 62e2 3bbe 2c29 e9bc
000001c0: 45d3 a4bd 7af9 893d 6ba8 46be ae8c 383c
000001d0: 0b72 ac3c ffb5 1bbe 7d8a 28bd 8c97 3fbc
000001e0: 514e c63a bbf3 473d 50c1 a3bd 6abc da3d
000001f0: ae46 1dbd 1cb0 123e 6889 e83c 3de1 29bd
00000200: 4670 b2bc 9cc9 f63c 4e6e 2fbd ba2e 09be
00000210: dab4 81bd 48f2 b9bd 168e bcbc 7dce c43c
00000220: 98d4 22b9 6f74 d2bd 259e 6d3d 0289 b63d
00000230: c3de dc39 40b2 b73c 7d61 4ebd 987c 8ebc
00000240: 4d6a 3b3e 747a 92bd e38d 0fbe 8959 30bb
00000250: 2ddd 2abd fcd2 6c3d 3367 833c cf89 5f3d
00000260: 2f96 24be 2b66 383d 4718 813d 9f2a 523d
00000270: db37 96bd f7ba 53bc ea93 833d 7ab0 8bbe
00000280: d113 9b3d caf5 0bbe 579a 1e3e ab62 8c3b
00000290: 6938 9e3d a9bd 153b 646b 7c3d eb02 9c3d
000002a0: f838 bbbd d35f e1bd 08ee d3bc 365b 833d
000002b0: 38a4 9d3d 5215 b4bd 97ca fbbd 9cb7 a8bd
000002c0: 54cd d3bc aab1 183e 8314 c23d 70d2 c93c
000002d0: a3a0 9d3c 762f e5bd 74d5 57bd 34df 99bd
000002e0: a73a d1bd a59a 60b9 8516 c73c 87fc 58bd
000002f0: 44e8 c8bd c19e 483d 4e2e 353d 160c 77bd
00000300: 425e 933c 7021 573d e855 04bc d979 003e
00000310: 94e0 8cbd d88c 46bd 54e9 e63d 2bb0 bf3d
00000320: 9b23 0ebe 8ced bbbd eb95 2cbc 153a 303e
00000330: aaa7 91bd b941 b73c 8e4f 063d 4187 ad3d
00000340: 0cfe ae3d e00b 13be 094c 743d 67ed 21bd
00000350: 0898 9d3c 2b2c a4bd 6042 ed3d a110 87bd
00000360: bc47 223e 7cbc f03d 97cb 153e 2ba4 99bb
00000370: cd9c 3f3d d578 273e 01fa 6f3d 63ac 6bbd
00000380: dc54 56bc d3ac 003e 53ff 973d 3a3b be3c
00000390: a0c2 713c 4974 483d 504f 903d 628a dc3d
000003a0: 4f0a c5bc 07ab 553e ad92 77be e44a 04be
000003b0: ff3d fbbd 486b 463c b727 0b3e 20d5 5e3d
000003c0: e1fb 633d 3ce1 a33d 98a1 353d 100b 93bd
000003d0: 1f30 b73d 151f 7cba 62ca c0bd ab5e bd3d
000003e0: 0a44 f83c 1a11 8cbb e542 77bd d90c 4bbd
000003f0: 31cb a3bc f9d1 bfbd c94b bc3c ff8f a7bc
-0.03957058 0.07153605 0.10912272 -0.027709534 -0.01144812 0.09617528 0.065817 0.09657657
0.030608727 0.0142661575 0.0016232112 0.06624044 -0.121779956 -0.017359689 -0.07130377 -0.066744715
-0.010299299 0.08091681 -0.15460664 0.195149 -0.23014796 0.020574398 0.03881951 0.0066437973
0.0542246 0.043859318 0.13163279 0.043100417 0.028879773 0.17857163 -0.23531124 0.07239951
0.110971585 0.012500918 -0.20304178 0.0072709117 -0.09547363 -0.07955343 0.03064833 0.13134018
-0.054886892 -0.020484434 -0.022142932 -0.01865801 0.23290813 0.118284404 -0.05716449 0.04756417
0.06187923 0.027974473 0.07247821 -0.10638836 0.111702934 0.011421276 -0.0486145 -0.08830549
0.009503781 -0.06135681 0.0655494 -0.10493502 -0.09448751 -0.021912795 -0.025383078 -0.13638999
-0.18818009 0.012747902 -0.123278365 -0.09526446 -0.13112885 0.047787406 0.01313664 -0.052359335
-0.013763328 0.18802908 -0.13364193 0.12996322 0.15883268 0.029037965 0.077099845 -0.114498325
0.12486539 -0.07869774 -0.09044403 0.09264759 -0.16316119 0.051609132 0.08893456 0.16357322
0.037809025 0.023916814 0.003054612 -0.0088068275 0.06345641 -0.012923223 0.09970264 0.00923352
0.20021592 0.06048548 -0.115634955 -0.10199206 -0.10727914 0.023697408 0.017189337 -0.16274905
0.044612862 -0.15302747 -0.090342395 0.07213502 0.13805597 -0.0032141858 -0.18348077 -0.028462015
-0.08048109 0.06737037 -0.19400184 0.011264009 0.021050474 -0.15206145 -0.041147698 -0.011693846
0.0015129541 0.048816424 -0.07995856 0.106804684 -0.038397484 0.14324993 0.028385833 -0.04147457
-0.021782052 0.030125432 -0.042829804 -0.13396731 -0.06333323 -0.090794146 -0.02301697 0.024024243
-0.00015528721 -0.10276114 0.058012147 0.08912851 0.0004212764 0.022423863 -0.05038594 -0.017393395
0.1830227 -0.07152262 -0.14018969 -0.0026908836 -0.041714836 0.057818398 0.01604042 0.054574784
-0.16072915 0.04501931 0.06303459 0.051310178 -0.07334872 -0.012922994 0.06424697 -0.27283078
0.07572139 -0.1366798 0.15488563 0.004284223 0.07725603 0.0022848642 0.061625853 0.07617744
-0.09141725 -0.11004605 -0.025870338 0.064138815 0.07697338 -0.08793129 -0.122945 -0.08238146
-0.025854744 0.14911523 0.094765685 0.024636477 0.019241637 -0.11190693 -0.0526938 -0.07513276
-0.10216265 -0.00021419914 0.02430273 -0.052975204 -0.09809926 0.048979525 0.044233613 -0.06031426
0.017989282 0.052522123 -0.008077122 0.12546481 -0.068787724 -0.048474163 0.112749726 0.09359773
-0.1388077 -0.09176168 -0.01053379 0.17209657 -0.071120575 0.022370206 0.032790713 0.08473063
0.08544549 -0.14359999 0.059642825 -0.039533045 0.019237533 -0.08016237 0.11584926 -0.065949686
0.15847677 0.117547005 0.14628445 -0.00468876 0.046780396 0.16354688 0.05858803 -0.057537448
-0.0130817555 0.12565927 0.07421746 0.0232216 0.014755875 0.048939023 0.07046378 0.10768582
-0.024052767 0.20866023 -0.24177046 -0.12919194 -0.12267684 0.012110539 0.13589369 0.05440247
0.055660132 0.080019444 0.04434356 -0.071798444 0.08944725 -0.00096176687 -0.094136015 0.09246572
0.030305881 -0.0042744996 -0.06036653 -0.0495728 -0.01999435 -0.09366221 0.022985356 -0.020454405

network_body._body_endoder.seq_layers.2.bias f4 [128]
00000000: 14f9 383c 9878 ae3c c81e 5c3c e9a0 0ebc
00000010: 64c5 d23c 9418 463c f9fc ee3c 118f 86bb
00000020: 3121 0c3d c8f1 54b9 02ec 24bc 5e6d a43b
00000030: 2f4b e73c 2b37 163d 7fe0 dfbb 9f75 8f3c
00000040: b24b 93bc 860c 963c 01dc 4c3c e605 f03c
00000050: 4eca 353c cb95 b53c 8169 0ebc 8b4e 29bc
00000060: 938a bbba deb7 d6bb 1758 413d 3d21 ff3c
00000070: a0fc c83a 55ad b93b efd1 17bc 9150 cd3c
00000080: 42a4 123c a30f c13a c673 52bc 2675 b6ba
00000090: a69e 083c 2228 2abb ee5b 173d c265 b23c
000000a0: d0b0 593c 643b 38bc 6d68 16bc 87f9 973c
000000b0: d737 4b3c 90e7 bcba ad3d 3dbb 1573 3fbb
000000c0: 1311 df3c 3d44 24ba 7310 d9bb 5e50 3cbb
000000d0: f933 213d 1cbc c73c ec62 8a3b 4e45 973c
000000e0: 1285 05bb 6710 8a3c 241d 8b3c 5274 c33c
000000f0: 1f4e a83c 19b6 ac3c e6b2 28bc 442d 16bc
00000100: 3e1c 20bc 7358 57bc ac60 313c 73db c5ba
00000110: 333a 0ebc 1635 383c 0e46 42bc 0b8c 433c
00000120: d3b0 f3bb 6b6a ab39 8204 803c 89e7 8f3c
00000130: b4c2 35bb ea89 adbb 5299 43bc baa6 cbbb
00000140: 09f9 52bc ca50 3cbc 8f71 8bbc aa32 c53c
00000150: 77b3 ebbb daae 713c 2e76 a83c 195b 373c
00000160: 10e7 09bb 476e 68b9 f58b 0a3c 3c0b 2abb
00000170: dccf ae3c 0134 863c 580a 0f3d ec13 b73c
00000180: bf3b 8b3c 7719 41bc c62b ccbb 7bc2 133d
00000190: cfb4 383b 7953 e63c 910a 833c 0dcf a03c
000001a0: ec8a c33c b1c9 a33b 7945 8d3c e325 973c
000001b0: 0931 873b 8ebb 29bc 9880 83bc 79ca 963c
000001c0: 6b11 c23c 6911 47bc 4ae3 2c3b 07e5 e2bb
000001d0: db81 eb3b 4333 b33c 3b01 583c ca5d f539
000001e0: 03bd 303d ccfa 44bc f569 ad3c 129e cb3c
000001f0: bf4a 36bc 5f09 5bbc 337e 83bc 9b4b 1a3d
0.011289854 0.021297738 0.013435073 -0.008705356 0.025728889 0.012090821 0.029173361 -0.0041064103
0.03421134 -0.00020307966 -0.010066034 0.0050179204 0.028234093 0.036673706 -0.006832182 0.01751214
-0.01798043 0.018316519 0.012503625 0.029299688 0.0110955965 0.022166153 -0.008692146 -0.0103336675
-0.0014308266 -0.0065526804 0.04720315 0.031143779 0.0015334077 0.0056664147 -0.009266361 0.025062831
0.008950295 0.0014729392 -0.012844985 -0.0013920411 0.008338606 -0.0025963862 0.036952905 0.021777038
0.013286784 -0.011244629 -0.0091801705 0.018551601 0.01240345 -0.0014412273 -0.0028875873 -0.0029212881
0.027229821 -0.0006266272 -0.0066242754 -0.0028734426 0.039356206 0.02438169 0.004223218 0.018465664
-0.0020373506 0.016853524 0.016981669 0.023859177 0.020545064 0.021082925 -0.010296559 -0.009166066
-0.009772358 -0.0131436465 0.010826271 -0.0015095308 -0.008680868 0.011243125 -0.011857523 0.011935244
-0.0074368506 0.0003269495 0.01562715 0.01756646 -0.002773446 -0.0052959817 -0.01193841 -0.0062149437
-0.012876757 -0.011493871 -0.017021922 0.02407201 -0.0071930247 0.0147511605 0.020564165 0.011191153
-0.0021042265 -0.00022166326 0.00845622 -0.0025946638 0.02133935 0.01638222 0.034921974 0.022348367
0.016996263 -0.011785856 -0.006230804 0.036074143 0.0028183942 0.028115975 0.01599625 0.01962998
0.023869954 0.0049984087 0.017245041 0.018450683 0.0041257185 -0.010359658 -0.01605253 0.018407093
0.023689946 -0.012150147 0.0026380592 -0.006924275 0.007187111 0.02187503 0.013183887 0.0004679992
0.043149006 -0.012022685 0.021168688 0.024855647 -0.011126219 -0.013368933 -0.016051387 0.03766976

action_model._continuous_distribution.mu.weight f4 [1, 128]
00000000: eaf7 213d d011 573d 3024 013d 2302 36bd
00000010: cb58 213d 1915 853c ba56 933d 7dde 6bbc
00000020: dc23 8d3d 2b86 06bb a6d9 88bc 07ad 99bd
00000030: 819c 2e3d 7c3e 433c 1c26 19bc 73f0 afbd
00000040: 1d3e 99bc 2b75 883c 55d5 f1bd f3e3 883d
00000050: 23d6 5c3c 45c3 b63c 34fa 94bc 6d09 bdbb
00000060: b8b2 56bd 8328 1cbd 1b13 a13d b66d 733d
00000070: 47da 8fbd 8e06 c0bd acd4 ecbb 7fb6 193d
00000080: 3d63 d33c f6a4 a4bd 1872 cbbc 7aea bebd
00000090: 4024 8fbd 57b6 73bd 614e af3c 8ebc 103d
000000a0: f98d 393d 5afc 8dbc 0681 0dbd d708 4f3d
000000b0: e689 113d b5c7 83bd 4b33 62bd 7a2f 1bbd
000000c0: ce1d 903c 7fea c53b d74b f4bc 7fb3 54bd
000000d0: 3f04 8b3d 9829 b23d 4883 b8bd c2e2 f43c
000000e0: 29fb 49bd 845f 573c 0a20 9ebd 3360 5c3d
000000f0: a6c0 203d 31ec 2b3d 7e42 58bb 08ee a7bc
00000100: dd86 99ba 5d10 47bd 09de c53c c7f2 a0bd
00000110: 3502 afbc 93fc 383d 1ff7 fdbc 5b60 c73c
00000120: b23f cbbc 3158 afbd da81 6a3c eaa7 053d
00000130: 40c7 b2bc 6fc3 7ebd f865 0ebd cf80 97bd
00000140: 5593 7ebc 6642 f2bc 1d6e f0bc e7cf 4f3d
00000150: fe55 8fbb 69d7 053d 15e4 fb3c 2609 bc3c
00000160: 5084 88bd 9419 53bd fd80 abbd 1e00 dbbc
00000170: 68d2 a53d a0e3 263d 9a48 b43d 2ff2 033d
00000180: 4071 bd3c f8bc 12bb 21ce 29bd e995 773d
00000190: 8c7d 84bd 11b2 9f3d 2b02 813d 1c04 7e3d
000001a0: 7467 163d 1776 abbd b62d 4d3d bf27 2c3d
000001b0: a3f0 cabd bc31 fcbc 69c5 01bd 1534 0e3d
000001c0: 443a 7dbd c908 14bd a8cb e43b 707c 3bbd
000001d0: bc40 99bd f605 f93c 55a9 d33c 2986 afbc
000001e0: 752d 573d ae13 66bc 3c7e 853d 7ece 773d
000001f0: b141 42bc 9607 0ebd 7777 5abd 3cdf 0b3d
0.03954307 0.05250722 0.03152865 -0.04443563 0.03939132 0.016245412 0.07194276 -0.014396307
0.06891605 -0.0020526748 -0.016705345 -0.075037055 0.042629723 0.011916753 -0.009347465 -0.08590784
-0.018706376 0.016657433 -0.11808268 0.06684103 0.013478789 0.022309909 -0.018185712 -0.005768946
-0.052416533 -0.038124572 0.07864972 0.0594308 -0.07024055 -0.0937625 -0.007227501 0.037527557
0.025804156 -0.08039276 -0.024834678 -0.093220666 -0.06989336 -0.059500065 0.021399679 0.03533607
0.04530141 -0.017332245 -0.034546874 0.05054554 0.0355319 -0.064345755 -0.055224698 -0.037887074
0.017592337 0.006039917 -0.02982132 -0.051928993 0.06787919 0.0869934 -0.09009415 0.029893283
-0.04931179 0.013145331 -0.07720955 0.05380268 0.039246224 0.041973297 -0.0032998617 -0.020499244
-0.0011713166 -0.04859959 0.024153726 -0.07858806 -0.021363357 0.04516275 -0.031001626 0.024337938
-0.024810646 -0.08561743 0.014313186 0.03263084 -0.021823525 -0.0621981 -0.034765214 -0.07397615
-0.015538056 -0.029572677 -0.029349381 0.05073538 -0.0043742647 0.032676134 0.030748406 0.022953581
-0.066658616 -0.051538065 -0.08374212 -0.026733454 0.080967724 0.040744424 0.0880291 0.032213386
0.02312529 -0.0022390466 -0.041456345 0.0604457 -0.06469259 0.07797635 0.06299242 0.062015638
0.036719754 -0.08372133 0.05009242 0.042030092 -0.09909179 -0.030785434 -0.031682406 0.034717638
-0.061823145 -0.03614119 0.0069822855 -0.04577297 -0.0748305 0.03039835 0.02583758 -0.021426277
0.052533586 -0.014042778 0.06518218 0.06049966 -0.011856482 -0.034675203 -0.053336587 0.03414844

exp_avg f4 [128, 6]
00000000: 9888 14b9 0000 0000 e430 85ba 0000 0000
00000010: 0400 0000 2789 a7b8 b265 1fbb 0000 0000
00000020: f9de 52bb 0000 0000 0400 0080 f95d 2abb
00000030: 78c4 57ba 0000 0000 16ce 37b9 0000 0000
00000040: 0400 0000 1dc0 59ba de01 95ba 0000 0000
00000050: ed29 6f3a 0000 0000 0400 0080 130d 00bb
00000060: f82e ccb9 0000 0000 11b5 ba38 0000 0000
00000070: 0400 0080 52ff 61ba 39d5 a3b9 0000 0000
00000080: c482 beb9 0000 0000 0400 0000 e792 55b9
00000090: 807f 8339 0000 0000 0eff 30ba 0000 0000
000000a0: 0400 0080 b726 6d39 6859 813a 0000 0000
000000b0: e460 183a 0000 0000 0400 0080 c6da 833a
000000c0: 435b 9c39 0000 0000 13b9 81b9 0000 0000
000000d0: 0400 0080 a2e9 e339 d00a 08bb 0000 0000
000000e0: 12b6 d9b9 0000 0000 0400 0080 ae1e c4ba
000000f0: 8328 2db9 0000 0000 7775 b2ba 0000 0000
00000100: 0400 0000 48e6 9e38 3dd1 703a 0000 0000
00000110: 7927 f0ba 0000 0000 0400 0000 37af 8e3a
00000120: 9d1a cdb8 0000 0000 5504 0039 0000 0000
00000130: 0400 0080 80e6 f135 6f7e 17ba 0000 0000
00000140: bf06 183b 0000 0000 0400 0080 f087 01bb
00000150: 3312 4738 0000 0000 1785 9539 0000 0000
00000160: 0400 0000 48d6 e0b8 452c 98b9 0000 0000
00000170: f41d 1fb8 0000 0000 0400 0000 96ac 27ba
00000180: 53e0 903a 0000 0000 da77 a1ba 0000 0000
00000190: 0400 0080 621f a03a 0a3d 2abb 0000 0000
000001a0: 3993 e0ba 0000 0000 0400 0000 4369 39bb
000001b0: 447c 6337 0000 0000 d6df 5e37 0000 0000
000001c0: 0400 0000 d492 0636 fc45 9cba 0000 0000
000001d0: 1c38 fb38 0000 0000 0400 0080 8476 bbba
000001e0: 9f23 093a 0000 0000 264a 8f39 0000 0000
000001f0: 0400 0000 e794 9639 c25b 22b9 0000 0000
00000200: bc30 70ba 0000 0000 0400 0080 e4ee 7639
00000210: 6230 77b8 0000 0000 da73 88ba 0000 0000
00000220: 0400 0080 c541 93b8 e97f 803a 0000 0000
00000230: 30f1 5ebb 0000 0000 0400 0080 84f0 d73a
00000240: d856 f439 0000 0000 9c59 25b9 0000 0000
00000250: 0400 0080 141b 1e3a d0d1 5139 0000 0000
00000260: 83d2 2e3a 0000 0000 0400 0000 38a6 7ab9
00000270: 55db c03a 0000 0000 0e75 a83a 0000 0000
00000280: 0400 0000 b6c5 ac3a 60bc 8aba 0000 0000
00000290: 3e34 093b 0000 0000 0400 0080 4cbb 29bb
000002a0: 0abf edb8 0000 0000 be51 1cba 0000 0000
000002b0: 0400 0000 8ff9 ac38 38ef c0ba 0000 0000
000002c0: f923 99ba 0000 0000 0400 0080 69b0 e5ba
000002d0: 4192 9eba 0000 0000 058c 98b9 0000 0000
000002e0: 0400 0000 4f57 92ba b282 9838 0000 0000
000002f0: 5ceb 0639 0000 0000 0400 0000 98c0 41b7
00000300: 7edf fd3a 0000 0000 666c 85bb 0000 0000
00000310: 0400 0000 df32 3b3b 3828 133a 0000 0000
00000320: 9d04 813b 0000 0000 0400 0000 62cd c1ba
00000330: dae3 82ba 0000 0000 d328 a1bb 0000 0000
00000340: 0400 0080 fc95 ceb9 8228 1439 0000 0000
00000350: f62d 983a 0000 0000 0400 0000 a008 c6b9
00000360: 3baa 4e3a 0000 0000 8890 2338 0000 0000
00000370: 0400 0000 16db 343a faf8 cdb9 0000 0000
00000380: 9ab1 db39 0000 0000 0400 0080 2e97 9eb9
00000390: 9d8b 08bb 0000 0000 c18b 4f3a 0000 0000
000003a0: 0400 0080 bba1 10bb f81f 8139 0000 0000
000003b0: dbcb 2bba 0000 0000 0400 0080 0db0 a039
000003c0: db14 ff38 0000 0000 86dc 3c39 0000 0000
000003d0: 0400 0000 a125 f438 3fb1 0e3a 0000 0000
000003e0: c3c1 2639 0000 0000 0400 0080 1921 0c39
000003f0: 5aa2 3ebb 0000 0000 3dd6 3ebb 0000 0000
-0.00014165265 0.0 -0.0010161665 0.0 6e-45 -7.988727e-05 -0.002432209 0.0
-0.003217636 0.0 -6e-45 -0.0025995953 -0.0008230875 0.0 -0.00017529013 0.0
6e-45 -0.000830652 -0.0011368354 0.0 0.0009123374 0.0 -6e-45 -0.0019539043
-0.00038944907 0.0 8.9028974e-05 0.0 -6e-45 -0.00086211145 -0.00031248646 0.0
-0.00036337052 0.0 6e-45 -0.00020367988 0.00025081262 0.0 -0.00067518733 0.0
-6e-45 0.00022616504 0.0009868564 0.0 0.00058127777 0.0 -6e-45 0.0010059706
0.00029822634 0.0 -0.00024742688 0.0 -6e-45 0.00043470884 -0.0020758398 0.0
-0.00041525118 0.0 -6e-45 -0.0014962757 -0.00016513657 0.0 -0.001361533 0.0
6e-45 7.57692e-05 0.00091864524 0.0 -0.0018322311 0.0 6e-45 0.0010885958
-9.780119e-05 0.0 0.00012208645 0.0 -6e-45 1.8022984e-06 -0.0005779033 0.0
0.002319738 0.0 -6e-45 -0.0019764863 4.7462247e-05 0.0 0.00028518654 0.0
6e-45 -0.00010721065 -0.00029024683 0.0 -3.793645e-05 0.0 6e-45 -0.0006396262
0.0011053182 0.0 -0.0012319044 0.0 -6e-45 0.0012216384 -0.0025976324 0.0
-0.001713372 0.0 6e-45 -0.00282915 1.3559187e-05 0.0 1.3284347e-05 0.0
6e-45 2.0053021e-06 -0.0011922712 0.0 0.00011979064 0.0 -6e-45 -0.0014302288
0.0005231443 0.0 0.0002733033 0.0 6e-45 0.0002872117 -0.00015483706 0.0
-0.00091625354 0.0 -6e-45 0.00023549382 -5.893445e-05 0.0 -0.0010410503 0.0
-6e-45 -7.021757e-05 0.0009803745 0.0 -0.003401827 0.0 -6e-45 0.0016474877
0.0004660401 0.0 -0.00015769008 0.0 -6e-45 0.00060312566 0.00020009954 0.0
0.0006668942 0.0 6e-45 -0.00023903779 0.0014713804 0.0 0.0012852268 0.0
6e-45 0.0013181481 -0.0010584705 0.0 0.002093568 0.0 -6e-45 -0.002589899
-0.000113366244 0.0 -0.0005963108 0.0 6e-45 8.248083e-05 -0.001471973 0.0
-0.0011683694 0.0 -6e-45 -0.0017523888 -0.001209803 0.0 -0.00029096022 0.0
6e-45 -0.0011164936 7.272269e-05 0.0 0.00012866914 0.0 6e-45 -1.1548538e-05
0.0019368974 0.0 -0.00407176 0.0 6e-45 0.0028564257 0.0005613598 0.0
0.0039373175 0.0 6e-45 -0.001478594 -0.0009986118 0.0 -0.0049181967 0.0
-6e-45 -0.0003940313 0.0001412947 0.0 0.0011610377 0.0 6e-45 -0.0003777193
0.00078836427 0.0 3.8996834e-05 0.0 6e-45 0.00068991014 -0.0003928615 0.0
0.00041903259 0.0 -6e-45 -0.00030248746 -0.002083517 0.0 0.00079172483 0.0
-6e-45 -0.0022069055 0.00024628616 0.0 -0.0006553509 0.0 -6e-45 0.00030648746
0.00012163232 0.0 0.00018011229 0.0 6e-45 0.000116418356 0.0005443282 0.0
0.00015903176 0.0 -6e-45 0.0001336377 -0.0029088468 0.0 -0.0029119395 0.0

exp_avg_sq f4 [128, 6]
00000000: 0996 bf33 0000 0000 b800 9d35 0000 0000
00000010: 7798 8b2a 56c0 0f35 cd6b b336 0000 0000
00000020: e2f7 c437 0000 0000 7b7e 9628 5f07 c937
00000030: 7cab 1b36 0000 0000 5b31 4937 0000 0000
00000040: 6c6d cc2b 7cc5 ae36 13a1 c236 0000 0000
00000050: 23fb 0a38 0000 0000 ce71 e928 3479 7337
00000060: 6ec5 ea34 0000 0000 ccee 3d36 0000 0000
00000070: a99e 1a2a 8bdc 8a35 9d8d 2d34 0000 0000
00000080: faf6 6235 0000 0000 2258 4a29 c967 4435
00000090: b709 9b35 0000 0000 038a e636 0000 0000
000000a0: 7a26 5128 a39c 6f36 fcb6 d935 0000 0000
000000b0: 332e 0737 0000 0000 67f3 a02c 029f f836
000000c0: 998a b934 0000 0000 8b27 0936 0000 0000
000000d0: 948f f52a ba67 bd35 a013 a337 0000 0000
000000e0: a223 db38 0000 0000 bf8d e229 c99e 8d38
000000f0: c2c0 e134 0000 0000 95c3 6a36 0000 0000
00000100: 72a5 b22a b850 8135 d5f6 1937 0000 0000
00000110: 90ec 6738 0000 0000 a019 052b 0b13 1738
00000120: 7187 1d34 0000 0000 c7f6 7535 0000 0000
00000130: 0b7e 8a29 447c 6335 ee6c cd36 0000 0000
00000140: fd03 3838 0000 0000 6ce4 402b 0d71 3137
00000150: 3e8a 1832 0000 0000 0880 2d34 0000 0000
00000160: a8a9 5f2b f4ba 7333 3fa9 2c34 0000 0000
00000170: c47b b035 0000 0000 c6cb 1928 df50 2e35
00000180: fd5b ee36 0000 0000 077e 2438 0000 0000
00000190: 3be6 8d2a 7db9 ef37 d67b 4437 0000 0000
000001a0: 0f48 6a38 0000 0000 0dc6 272a de38 3838
000001b0: 801c df2f 0000 0000 a690 7b31 0000 0000
000001c0: 3d64 8c27 57e0 9331 6961 a536 0000 0000
000001d0: 169e da37 0000 0000 0814 9429 186e 8737
000001e0: 012a 9735 0000 0000 d628 d336 0000 0000
000001f0: 8e9b 182b 1896 0937 563c d633 0000 0000
00000200: 9f8a fb35 0000 0000 1cd4 862a 87b7 8035
00000210: 2dde e934 0000 0000 36e3 5936 0000 0000
00000220: f163 292c 7727 0436 7dcd 8137 0000 0000
00000230: e59c ce38 0000 0000 ff3f f72a b15e 4838
00000240: db30 8a35 0000 0000 3b9f b936 0000 0000
00000250: 4f95 fc2a d124 6236 e2f9 d133 0000 0000
00000260: 1707 e335 0000 0000 58b2 f129 8111 dd35
00000270: 6f08 8636 0000 0000 5feb a337 0000 0000
00000280: 3f30 e62b 5118 c437 045e 1837 0000 0000
00000290: c2e8 7d38 0000 0000 01b8 512a d076 a037
000002a0: 40f2 0533 0000 0000 1965 2935 0000 0000
000002b0: 9c84 4427 721a a434 6ede 3e36 0000 0000
000002c0: 8640 5137 0000 0000 9c6b 8529 a1c0 1437
000002d0: eead 9336 0000 0000 8be5 ba37 0000 0000
000002e0: 88a9 652b 3a33 4437 bdf2 0c32 0000 0000
000002f0: 6ef3 6c33 0000 0000 6802 e227 da7c 6033
00000300: 5013 2538 0000 0000 68bc 7f39 0000 0000
00000310: 5433 3e2c b91d 0d39 d38c 3736 0000 0000
00000320: 45fe 2438 0000 0000 f22e ed28 e5be 6a37
00000330: 6c87 c635 0000 0000 719a bf37 0000 0000
00000340: 4181 302a 140d 2537 2b72 9234 0000 0000
00000350: cf9e 5736 0000 0000 a193 4329 654f 8835
00000360: b0e1 1a36 0000 0000 0085 4e37 0000 0000
00000370: 0bff 9429 d1b3 4737 43c1 0b36 0000 0000
00000380: 41ae 5137 0000 0000 8f40 1c2b 65b8 a536
00000390: e382 ab37 0000 0000 fbe8 e938 0000 0000
000003a0: c3a5 dc2a bfef 7638 8cd2 4e35 0000 0000
000003b0: 5850 9f36 0000 0000 96a9 372b e461 4636
000003c0: 8c56 0032 0000 0000 98c1 5433 0000 0000
000003d0: 48f0 5028 27ad fe32 ae33 8d35 0000 0000
000003e0: b8ba c236 0000 0000 f63f 7429 14f7 0537
000003f0: 45a6 2c37 0000 0000 c0fb 3d38 0000 0000
8.921422e-08 0.0 1.1697621e-06 0.0 2.4797154e-13 5.3551537e-07 5.3471654e-06 0.0
2.348045e-05 0.0 1.6708198e-14 2.39645e-05 2.3196617e-06 0.0 1.1992025e-05 0.0
1.4525442e-12 5.2085943e-06 5.800402e-06 0.0 3.3135653e-05 0.0 2.5917551e-14 1.45121485e-05
4.3729545e-07 0.0 2.8302193e-06 0.0 1.3732994e-13 1.0345988e-06 1.6163399e-07 0.0
8.455096e-07 0.0 4.4929453e-14 7.3166717e-07 1.1551227e-06 0.0 6.870601e-06 0.0
1.1610174e-14 3.570495e-06 1.6221015e-06 0.0 8.057384e-06 0.0 4.5744966e-12 7.409487e-06
3.4559778e-07 0.0 2.0437608e-06 0.0 4.362037e-13 1.4111786e-06 1.9440253e-05 0.0
0.00010449371 0.0 1.0061005e-13 6.75298e-05 4.2049766e-07 0.0 3.498256e-06 0.0
3.1733952e-13 9.634741e-07 9.176981e-06 0.0 5.5295008e-05 0.0 4.7286654e-13 3.601894e-05
1.4671038e-07 0.0 9.162872e-07 0.0 6.150296e-14 8.474492e-07 6.122157e-06 0.0
4.3872733e-05 0.0 6.85291e-13 1.0576344e-05 8.878997e-09 0.0 1.6158458e-07 0.0
7.946096e-13 5.674788e-08 1.608032e-07 0.0 1.3149042e-06 0.0 8.5373925e-15 6.4937734e-07
7.1036616e-06 0.0 3.921802e-05 0.0 2.5206386e-13 2.8577395e-05 1.1711343e-05 0.0
5.5857057e-05 0.0 1.4901292e-13 4.392198e-05 4.0583714e-10 0.0 3.660753e-09 0.0
3.8966484e-15 4.3037676e-09 4.9287232e-06 0.0 2.606124e-05 0.0 6.575995e-14 1.614452e-05
1.1262601e-06 0.0 6.293044e-06 0.0 5.4217123e-13 8.200783e-06 9.9761266e-08 0.0
1.8741301e-06 0.0 2.3950362e-13 9.590157e-07 4.3561286e-07 0.0 3.2467774e-06 0.0
2.4071823e-12 1.9692504e-06 1.5473686e-05 0.0 9.852069e-05 0.0 4.392042e-13 4.7771904e-05
1.029602e-06 0.0 5.5319665e-06 0.0 4.4867796e-13 3.3698054e-06 9.777774e-08 0.0
1.6914881e-06 0.0 1.0733488e-13 1.6470877e-06 3.994493e-06 0.0 1.9540717e-05 0.0
1.6355874e-12 2.3376344e-05 9.081796e-06 0.0 6.0536673e-05 0.0 1.8626768e-13 1.9128813e-05
3.11868e-08 0.0 6.310452e-07 0.0 2.7272352e-15 3.0566622e-07 2.8441677e-06 0.0
1.2472394e-05 0.0 5.925054e-14 8.866337e-06 4.4011895e-06 0.0 2.2279817e-05 0.0
8.1592415e-13 1.16944375e-05 8.204265e-09 0.0 5.516943e-08 0.0 6.273021e-15 5.2267616e-08
3.935705e-05 0.0 0.00024388882 0.0 2.7029117e-12 0.0001345788 2.7351095e-06 0.0
3.9337454e-05 0.0 2.6332645e-14 1.3991933e-05 1.4791563e-06 0.0 2.2840892e-05 0.0
1.5676784e-13 9.837811e-06 2.7277687e-07 0.0 3.2129935e-06 0.0 4.3426746e-14 1.0155896e-06
2.3079156e-06 0.0 1.2309523e-05 0.0 6.616763e-14 1.1903191e-05 2.0825107e-06 0.0
1.2497942e-05 0.0 5.5511926e-13 4.9388495e-06 2.0445737e-05 0.0 0.00011153702 0.0
3.919487e-13 5.887425e-05 7.7047366e-07 0.0 4.7479225e-06 0.0 6.525001e-13 2.956128e-06
7.470259e-09 0.0 4.953617e-08 0.0 1.1598422e-14 2.9648232e-08 1.0520359e-06 0.0
5.8033875e-06 0.0 5.423436e-14 7.984945e-06 1.02907115e-05 0.0 4.5295572e-05 0.0

exp_avg f4 [128]
00000000: 78cb e0b9 45f3 b1ba fa1b 9bb8 66d3 c939
00000010: f28e 1d38 c5c4 20b9 315d 95b9 f196 8039
00000020: 08f1 dab8 38b9 37b9 2199 16ba 5fa9 4aba
00000030: c90f 5838 d04a 803a aa5a fc38 a246 86b7
00000040: 8342 08ba d283 3dba 6214 bc36 18ff 5338
00000050: fcd6 f138 39b1 cab9 ae4c e6b9 0b23 bcba
00000060: 2089 8bb8 8487 9339 7e28 0e3a 5f91 673a
00000070: 3eea 83b9 8e3b 01ba 6cbb 00b9 4eb6 6338
00000080: ee2f e1ba 7cc0 d93a e1ff 07bb e86b 003a
00000090: fc07 8a37 4765 3939 0225 af39 cdf9 90b9
000000a0: 7260 9f38 41b9 8c38 380b a1ba bfde a4b9
000000b0: 7983 5639 7184 dab6 9303 823a 6065 6037
000000c0: ccdf 32ba 5759 5fb8 5893 3537 5899 5139
000000d0: b2a5 cfb8 aa85 c7b9 3c88 13b9 c833 82b6
000000e0: d843 ec39 2ce9 81b8 828b d9b8 4c3a 2e38
000000f0: 5e5b 61ba 6e35 9cb9 a675 90b8 c056 1c3a
00000100: 5864 12bb 7577 c638 93b2 5938 4a1e a3ba
00000110: 9df7 d0b9 7522 bab9 739e 003a 5511 fdba
00000120: 1484 c738 6e93 8bba dab1 0a3a 282e 91ba
00000130: b753 2239 fe2f aab9 9995 8f37 851c 143a
00000140: bafb 17bb 23d9 ba3a a6ab 1d3a e6df 1d3a
00000150: a6eb 03b7 c15d 4bbb 0384 91ba 9cb6 7fba
00000160: 7b2f d6b9 f545 0339 167b b239 f574 4139
00000170: ce7d aab9 712d 13ba 2c38 dfba df0f ddb9
00000180: 5c35 b7ba f976 90b9 be53 023a 705e 5939
00000190: 7cd9 463a 9a52 3537 40df 5ab6 ae7f 7039
000001a0: eb06 d637 603a a738 d7fd d0b9 6cf5 36ba
000001b0: 1a2e 82b7 d0cd abb9 fccf 1bba 7add 8238
000001c0: 5f30 83ba 7bf7 a5b9 ae89 82b8 129e 5b3a
000001d0: 983e 09b9 00d2 d9b5 7071 70b9 7db9 abba
000001e0: a28f f038 3b00 9738 fa7d 3738 7864 38bb
000001f0: 9484 9fb8 f7f0 69b9 893f 4a3a 6805 21ba
-0.00042876205 -0.0013576528 -7.396187e-05 0.00038495212 3.7564845e-05 -0.00015332091 -0.00028488928 0.00024526523
-0.000104399456 -0.0001752124 -0.0005744864 -0.0007730927 5.1513114e-05 0.0009787921 0.00012033184 -1.6006936e-05
-0.00051978993 -0.00072294206 5.6052095e-06 5.0543895e-05 0.000115318195 -0.00038660484 -0.0004392615 -0.0014353705
-6.653578e-05 0.00028138992 0.0005422904 0.00088336127 -0.0002516079 -0.0004929834 -0.00012276851 5.4290802e-05
-0.0017180422 0.0016613151 -0.002075188 0.0004898892 1.64546e-05 0.00017680704 0.00033406174 -0.00027651936
7.599675e-05 6.7102264e-05 -0.0012286669 -0.00031446476 0.00020457608 -6.5123245e-06 0.0009919278 1.3375044e-05
-0.00068235095 -5.3250547e-05 1.0822747e-05 0.00019988918 -9.901392e-05 -0.00038055825 -0.00014069764 -3.88033e-06
0.00045063975 -6.194631e-05 -0.00010373352 4.1539126e-05 -0.00085966836 -0.00029794447 -6.888369e-05 0.00059638545
-0.0022337642 9.463626e-05 5.1903142e-05 -0.001244494 -0.00039857338 -0.00035502357 0.0004906423 -0.0019307534
9.513661e-05 -0.0010648796 0.0005290784 -0.0011076378 0.0001548071 -0.00032460684 1.711659e-05 0.00056500017
-0.0023190812 0.0014255386 0.00060146523 0.0006022438 -7.863075e-06 -0.0031031223 -0.0011101965 -0.0009754689
-0.00040852636 0.00012519195 0.00034042512 0.00018449484 -0.0003251866 -0.0005614376 -0.001703029 -0.0004216423
-0.0013977694 -0.00027554462 0.0004971585 0.00020729913 0.0007585508 1.0807673e-05 -3.261448e-06 0.00022935748
2.551401e-05 7.974054e-05 -0.00039861977 -0.000697932 -1.5518675e-05 -0.00032769004 -0.0005943773 6.240136e-05
-0.0010008923 -0.0003165564 -6.224528e-05 0.00083777413 -0.00013088656 -1.6228878e-06 -0.00022930442 -0.0013101544
0.000114708455 7.200284e-05 4.3747925e-05 -0.0028136056 -7.6064054e-05 -0.00022310378 0.0007715156 -0.0006142468

exp_avg_sq f4 [128]
00000000: 619d 5f34 b444 8c36 db46 0f36 74f2 c536
00000010: 1a42 0735 47a1 2134 e32c a435 b688 c035
00000020: 6d58 c334 960e 9c37 1a2f 2735 5c29 2537
00000030: f828 2f34 540b 0337 8f1c f732 615c 7b34
00000040: 2248 ea36 2dd7 2637 0226 3330 89af 9b36
00000050: d95f 9635 af21 b334 632a 1b35 ee22 9337
00000060: 2930 8435 b4ac a134 3d77 6936 64d1 3437
00000070: 9a43 f133 1e04 1536 8c18 8536 c9bd 2832
00000080: 781e 3638 dbfe ea36 9972 8836 178d 1935
00000090: f411 1336 4852 1536 6a93 a637 0be8 6235
000000a0: 0283 1732 7eac 8a35 494b 0737 65d8 9337
000000b0: 784b 7d35 f32b 2032 0a30 8d38 6d17 ba31
000000c0: a40c d137 eaa5 4534 d530 b032 1361 9338
000000d0: 45df 1433 a158 9c35 04fd 5f36 ee50 4b32
000000e0: 1e6a e137 e5ea d437 9592 0032 7842 7633
000000f0: b468 f237 ed1f 2d34 fae2 b232 56b9 1e38
00000100: a7da e936 d440 2c36 a5ea 9732 6395 9e37
00000110: 3547 a237 da10 b335 352f 6936 8880 0f38
00000120: 660f 9137 16fa c536 baa3 8735 edba 0636
00000130: f5cd b034 5ad0 8e36 f2d3 1033 e866 f036
00000140: fa75 9937 f6a7 3f38 4b9a 5035 03df 0c37
00000150: f248 1030 9ba7 8b37 225b 1f37 2c53 4536
00000160: 400e bd35 0405 8b36 1227 6c37 40c9 ae33
00000170: 4ef4 1e37 ad5c 2936 ae67 fc36 b2f1 b934
00000180: 7572 0137 72aa ad37 f00d 0e37 5908 ab34
00000190: 3e8e d535 ffbe d231 db2b ba36 3c9b 6f34
000001a0: 72e5 7730 b0c8 8936 7fbb 4a35 7723 2f36
000001b0: 47f0 df31 a81d 1134 6126 1335 abe8 2537
000001c0: 9f00 4636 e6a4 c834 f0f0 7332 eb16 0c36
000001d0: b86c 8d36 c0db 1336 fdb9 9b34 6f7e 8637
000001e0: fd08 de32 6286 8e32 e0da 9d31 96f8 2638
000001f0: 4190 0632 d903 1a37 c7fd c338 b43b a836
2.0825748e-07 4.1803232e-06 2.1349904e-06 5.8992828e-06 5.038761e-07 1.5052966e-07 1.2232016e-06 1.4344903e-06
3.638592e-07 1.8603441e-05 6.228089e-07 9.844396e-06 1.631305e-07 7.810846e-06 2.8767571e-08 2.3409804e-07
6.982141e-06 9.944471e-06 6.5173833e-10 4.639795e-06 1.1203766e-06 3.3365856e-07 5.780368e-07 1.7540031e-05
9.848783e-07 3.0114245e-07 3.4789111e-06 1.0777589e-05 1.1234734e-07 2.2205127e-06 3.9665665e-06 9.822039e-09
4.3420558e-05 7.0034125e-06 4.0664568e-06 5.7202254e-07 2.1915157e-06 2.2250624e-06 1.9857387e-05 8.452923e-07
8.8191445e-09 1.0332003e-06 8.064156e-06 1.7624532e-05 9.4359666e-07 9.323219e-09 6.732352e-05 5.4159757e-09
2.4920628e-05 1.8407414e-07 2.0511303e-08 7.027588e-05 3.4661998e-08 1.16487e-06 3.3376864e-06 1.18345564e-08
2.6871505e-05 2.538175e-05 7.4839095e-09 5.733679e-08 2.8897404e-05 1.6123495e-07 2.0825144e-08 3.7842743e-05
6.9693956e-06 2.5667732e-06 1.7685418e-08 1.8904631e-05 1.9345063e-05 1.3341444e-06 3.4747184e-06 3.421356e-05
1.7292517e-05 5.9001713e-06 1.0105935e-06 2.007636e-06 3.2932408e-07 4.256185e-06 3.3720376e-08 7.1645372e-06
1.8293958e-05 4.5694374e-05 7.7710564e-07 8.396574e-06 5.2490556e-10 1.6648139e-05 9.498357e-06 2.94037e-06
1.4085745e-06 4.1431067e-06 1.4075793e-05 8.1391136e-08 9.4744155e-06 2.5236907e-06 7.522255e-06 3.4634792e-07
7.715648e-06 2.0702577e-05 8.467105e-06 3.1857306e-07 1.5911135e-06 6.133518e-09 5.5483374e-06 2.2315083e-07
9.018414e-10 4.1062813e-06 7.5523707e-07 2.6097675e-06 6.5174706e-09 1.3514966e-07 5.4817616e-07 9.888939e-06
2.950466e-06 3.7372882e-07 1.41992444e-08 2.0874966e-06 4.214784e-06 2.2032618e-06 2.9006324e-07 1.603292e-05
2.5848289e-08 1.6592086e-08 4.5941846e-09 3.9808998e-05 7.832626e-09 9.180011e-06 9.345594e-05 5.0137405e-06

exp_avg f4 [128, 128]
00000000: e6b3 5a37 6d5c 9b39 d2d0 6639 b87e 3fb9
00000010: 0865 33ba b6c9 f138 21e5 f3b9 c4f2 38b7
00000020: f8fa 0cb6 84f3 9b38 daae 61b9 32eb e6b8
00000030: c460 bc38 abf9 a3b9 fc6a 2db9 acc5 92b9
00000040: d039 a8b9 34b7 6139 5ff1 cc38 9e42 e538
00000050: 933b a338 b65f 58b8 d935 05b9 226e 12ba
00000060: f446 b338 4c72 9f38 0420 32b8 57a8 0338
00000070: 9e3d 1238 9c53 3ab8 8f2e a039 c6d9 db38
00000080: c0f0 6aba 0c00 61b9 4554 90b8 8d57 25b9
00000090: 80bb 0935 b9f5 3e39 4560 9e39 56ab 9eb9
000000a0: bbeb 5d38 d481 7bb8 75e7 8039 68c3 3039
000000b0: c1b7 4fb9 5434 d838 659a 9738 12e4 c2b7
000000c0: 6216 e639 1672 5bb9 7320 1238 da0a 8a39
000000d0: 68dc 9338 b0aa acb7 dce6 eeb7 9687 d538
000000e0: 4c84 2639 d417 aa38 8a8d b638 98d0 de37
000000f0: a8e0 6039 c6ec 3bb9 4155 d038 1af3 14b8
00000100: 38ed 71b9 c5cf 02b8 94b5 fa38 a0c9 6cb9
00000110: 6947 3539 dea5 63b9 c2c2 14b9 d6c9 11ba
00000120: 7c55 0339 be0c ecb9 fc5e 89b8 4e78 c2b9
00000130: 54f2 ff38 ca78 d9b7 8b17 4d38 88ae 86b8
00000140: 5163 ceb8 763b 80b8 fa18 0637 92de 78b7
00000150: e60f b338 f1d8 2db9 04fa 09b8 8de8 17ba
00000160: d875 0238 b631 91b9 405a cc38 1acf 1ab8
00000170: 2fe6 ad39 1e9d 52b9 1019 0fb9 bfc4 7eb8
00000180: 4197 0aba a560 2a39 4233 6036 6776 0b38
00000190: 50a9 3c36 bc89 d438 2697 0339 efbd 6eb9
000001a0: 1256 e138 f880 6fb9 8c8f 3d39 7362 08ba
000001b0: 234b cb38 0ad2 2f38 b6b2 a1b9 ca54 91b8
000001c0: b0b1 88b8 4cfc a7b8 7a4c e638 d2bc 8cb8
000001d0: b4c2 28b9 ba3a 0e39 d8d0 cb38 1802 2aba
000001e0: e4c0 0e39 aaea 0a39 b923 9938 7c5c 92ba
000001f0: 2f7c b438 b670 8939 7344 4a39 10d1 5439
00000200: c6bc 6938 244a a739 b69a 2739 3d3c 90b9
00000210: 528c 69ba 97a1 1c39 c4ef 23ba abab 4bb8
00000220: 95ae 9437 eab7 91b8 ed49 87b9 fd52 3fb9
00000230: 68e8 0d39 6d92 dbb9 4e59 54b9 3b30 beb9
00000240: cd8e d1b9 1618 6939 0a39 1c39 7098 0e39
00000250: 5e85 6f38 cdc1 25b8 2817 85b9 a819 43ba
00000260: 52c4 dcb8 731a f538 60e8 eab8 7ad4 1038
00000270: 3980 9438 2bfe 93b9 c1e0 8739 e48d 2139
00000280: ca06 a1ba 621e 86b9 ae6e 2cb8 d548 38b9
00000290: 4613 aab7 c096 97b6 aefb fd38 a2f8 dcb9
000002a0: 1c79 c438 3d15 35b8 3600 9139 c1db 2b39
000002b0: 255f 8eb9 e09b 2139 6200 af37 6c8d acb6
000002c0: ae1d b739 c660 9cb9 2c87 9d38 1ad3 0639
000002d0: bcce f138 bf4b e2b8 079a f2b8 4fc7 1f39
000002e0: d578 8538 f9a1 e5b8 1156 0d39 11c1 7c38
000002f0: e7c4 6739 3bdf 4fb9 c821 0d39 e53f beb8
00000300: d6d0 80b9 0db5 27b7 6010 2f39 2824 80b9
00000310: b4b7 4039 051d f0b9 f251 46b9 e30f 41ba
00000320: 2637 0d39 5d1f 54ba c7b3 8cb8 de62 e4b9
00000330: d20f c4b8 687d 62b7 95fd c738 9e68 fab8
00000340: d82e c0b8 6a56 d4b8 c07b 1238 3851 22b8
00000350: 3c9f 0d39 5ecf 25b9 e899 aeb7 8f07 77ba
00000360: 125b 45b9 fa63 dfb9 c95b dc38 5fe0 afb7
00000370: ebdd 7539 91a9 83b9 eaca 10b9 08a2 6cb8
00000380: 5c34 2aba af84 2039 5cb5 e6b6 72a6 ca38
00000390: d095 ef37 d98f 1f39 5c0c 2138 7e60 89b9
000003a0: 7cfa 2539 045e dab9 eb1c 6839 96b5 71ba
000003b0: 0c52 1a39 2e9d b238 84c3 bbb9 68b5 d2b9
000003c0: 2458 0cba 94dc 34b9 4ad3 1c39 09ca 80b8
000003d0: 8afc f2b9 5e05 4938 4c38 0839 0ba2 81ba
000003e0: 457c 4639 c04c 3b39 9201 f938 27a3 b4ba
000003f0: c4e1 0a39 30db a438 69a7 bd38 8629 7039
1.3035698e-05 0.00029632766 0.00022012301 -0.00018262386 -0.0006843363 0.00011529347 -0.00046519286 -1.1023778e-05
-2.1007709e-06 7.436334e-05 -0.0002152281 -0.00011011063 8.9825626e-05 -0.000312758 -0.0001653842 -0.00027994567
-0.0003208653 0.0002152592 9.772437e-05 0.00010931979 7.783542e-05 -5.158755e-05 -0.00012703928 -0.0005585869
8.548601e-05 7.603e-05 -4.2468324e-05 3.1389613e-05 3.4866498e-05 -4.4423723e-05 0.00030552267 0.00010483297
-0.0008962266 -0.0002145769 -6.8821515e-05 -0.00015768241 5.1309325e-07 0.00018211351 0.00030207835 -0.00030263764
5.2910047e-05 -5.9963975e-05 0.0002458651 0.00016857462 -0.00019809512 0.000103094295 7.228999e-05 -2.3232806e-05
0.00043885695 -0.00020927968 3.4839333e-05 0.00026329496 7.05056e-05 -2.058348e-05 -2.8479313e-05 0.00010181886
0.00015880278 8.11067e-05 8.7048e-05 2.6561596e-05 0.00021445996 -0.00017921915 9.934093e-05 -3.5512356e-05
-0.00023071922 -3.1187916e-05 0.000119547505 -0.00022581825 0.00017288107 -0.00021710197 -0.00014186933 -0.0005561387
0.00012524979 -0.0004502292 -6.550361e-05 -0.00037092197 0.00012204485 -2.5924663e-05 4.8897735e-05 -6.422127e-05
-9.8413446e-05 -6.114591e-05 7.992838e-06 -1.4833773e-05 8.5383464e-05 -0.00016579383 -3.289619e-05 -0.00057948456
3.1104166e-05 -0.00027693593 9.7442884e-05 -3.690934e-05 0.00033168631 -0.00020085691 -0.00013646879 -6.0741553e-05
-0.0005286821 0.00016248466 3.3408437e-06 3.3250453e-05 2.8112736e-06 0.00010134603 0.0001254944 -0.00022768205
0.00010744868 -0.00022840861 0.0001807792 -0.00052026584 9.6937896e-05 4.1918865e-05 -0.00030841463 -6.929932e-05
-6.518082e-05 -8.0101745e-05 0.000109814995 -6.710891e-05 -0.00016094261 0.00013564053 9.7186945e-05 -0.00064852973
0.00013614033 0.00013248125 7.3022624e-05 -0.0011166479 8.6062e-05 0.00026214652 0.0001928972 0.00020295777
5.5727338e-05 0.0003190796 0.00015983995 -0.000275107 -0.0008909154 0.00014937516 -0.00062536844 -4.855885e-05
1.7724271e-05 -6.9483955e-05 -0.00025804286 -0.00018246095 0.00013533386 -0.0004188003 -0.00020251164 -0.00036275559
-0.0003996998 0.00022229584 0.00014898568 0.00013598963 5.710625e-05 -3.9519557e-05 -0.0002538499 -0.0007442483
-0.00010526985 0.00011687437 -0.00011201273 3.453016e-05 7.081073e-05 -0.00028227395 0.0002591666 0.00015407015
-0.0012285348 -0.0002558111 -4.1111074e-05 -0.0001757474 -2.0274554e-05 -4.5177003e-06 0.00012110859 -0.00042146916
9.368567e-05 -4.3173543e-05 0.00027656712 0.00016389696 -0.0002715524 0.00015412224 2.0861804e-05 -5.142463e-06
0.00034926593 -0.0002982674 7.511521e-05 0.00012857877 0.00011530283 -0.000107906286 -0.00011568149 0.0001523767
6.364441e-05 -0.00010949741 0.0001347887 6.026129e-05 0.00022103229 -0.00019824218 0.00013459392 -9.071807e-05
-0.00024569657 -9.99613e-06 0.000166954 -0.00024441 0.00018378982 -0.00045797988 -0.00018913278 -0.0007364733
0.00013467352 -0.00080918317 -6.709206e-05 -0.0004356121 -9.348955e-05 -1.3499848e-05 9.536293e-05 -0.000119404154
-9.163999e-05 -0.000101250436 3.4924364e-05 -3.869945e-05 0.00013506127 -0.00015812877 -2.0814085e-05 -0.00094234286
-0.0001882131 -0.00042608363 0.00010507514 -2.0966107e-05 0.00023447692 -0.00025112604 -0.00013808502 -5.6417688e-05
-0.00064927875 0.00015308218 -6.875647e-06 9.6631135e-05 2.8560782e-05 0.00015217009 3.83969e-05 -0.0002620257
0.00015828939 -0.00041650247 0.00022136017 -0.0009220479 0.0001471715 8.5169784e-05 -0.0003581309 -0.0004018948
-0.000535371 -0.0001724831 0.0001495603 -6.1411476e-05 -0.00046345993 4.7927133e-05 0.00012990943 -0.0009890212
0.00018929045 0.00017862301 0.00011873538 -0.0013781533 0.0001324481 7.860956e-05 9.043405e-05 0.00022903652
