results/ppo/Avoid Obstacle/Avoid Obstacle-71805.onnx (onnx, 72119 bytes, 5 tensors)

action_model._continuous_distribution.mu.weight f4 [1, 128]
00000000: 8b49 c23c ee26 78bc 754d 923c d36b dbbb
00000010: 37ae bcbb a6d2 0c3c 91ff 143d e63f 9c3c
00000020: de77 0abc e8ec d839 417d 7dbc 5cb2 f53c
00000030: e9c0 4dbc 036f 433c bc81 e23c 2b46 d1ba
00000040: 7a65 f6bc acd7 f6bb 0c27 d6bb b79f 6fbb
00000050: 75cd eebc a5e4 793c 3c03 ecbb 0fbc 123d
00000060: 24fa 9d3c 553f 393c 828c c33c fd86 3f3d
00000070: 6e31 af3c 85b6 e0bc 5146 373c 1075 ad3c
00000080: 1d08 d7bc b832 8b3b cfd6 bebc 6ae4 313c
00000090: 99ad 153b db6e 373c 3e58 cb3b bdd4 69bc
000000a0: d45b a43b a404 863a c521 583a e9b0 933c
000000b0: d926 323d 181a b33b 1bee 433c 3532 edbc
000000c0: 9938 b13c 79fe 5cba 1e38 d938 9d4e 423c
000000d0: 7563 853b 1b90 0dbd 2801 d33b bdc2 d8bc
000000e0: abac 69ba f773 8c3b 430a a9b9 8322 d8bb
000000f0: df2f 11bc f408 00bd 4063 2fbc bb8c e6bc
00000100: 954d 2fbc 144b 8cbc c635 c03c 2853 df3a
00000110: 104f a3bc 8f41 fd3a bd41 4e3b 85d1 54bc
00000120: 6766 17bb 910f e73c 23f9 133d edd3 babc
00000130: 6544 98ba d781 3fbc 3d6b ab3c 5e0c 813c
00000140: a365 b8bc 9849 9aba 555a afbb b1e0 023c
00000150: 52c8 3abc 8949 1dbc 3e9b b93b a7f7 a53b
00000160: e999 babc 9267 3ebc fbae a0bb 97e3 1139
00000170: a90a 60bb 52d1 5fbc f9b6 9d3c ce43 8e3c
00000180: dd77 18bc f184 f5bc 9d9a 9c3c 2d22 553b
00000190: 356b c73c ea04 703b dd1e 843c 3ea4 1d3d
000001a0: bd05 e3bc 4b3c 8a3c 0f54 413c a9fb 20bc
000001b0: 66a0 e0bb dccf 8fbb 87a4 47bc b87d 6bba
000001c0: 4c64 09bd b88f a93c fa0f e83b d97f b9bb
000001d0: ea57 b439 57e4 de3a 8da5 d6bc 9130 2fbb
000001e0: 590c 38bd ccef 28bb 8eb6 013c f8b7 5e3a
000001f0: 1ddf 8c3c 79f7 913c 8dd8 bdbb f1d4 d9bc
0.023716709 -0.015146 0.0178592 -0.0066962033 -0.0057580727 0.008595144 0.03637654 0.019073438
-0.00845143 0.0004137524 -0.015471757 0.029992275 -0.0125582 0.011928323 0.027649753 -0.0015966346
-0.030077685 -0.0075330343 -0.0065354165 -0.0036563703 -0.029150704 0.015252267 -0.007202534 0.035823878
0.019284315 0.011306603 0.02387071 0.046759594 0.021385875 -0.027430782 0.011186198 0.021173984
-0.026248986 0.0042479895 -0.023295788 0.010857681 0.0022839068 0.011195864 0.0062055876 -0.014271912
0.0050158296 0.0010224772 0.0008244778 0.018028693 0.04349408 0.005465757 0.011958624 -0.028954605
0.021633433 -0.00084302534 0.00010357819 0.011859563 0.004070694 -0.034561258 0.006439347 -0.026460046
-0.0008913974 0.004286285 -0.00032241837 -0.006595911 -0.008861511 -0.03125854 -0.010704815 -0.028143277
-0.010699649 -0.017125644 0.023463141 0.0017038332 -0.01993516 0.0019321906 0.0031472289 -0.0129894065
-0.0023101808 0.028205665 0.036126267 -0.022806132 -0.0011617063 -0.011688671 0.020925159 0.015752967
-0.022509402 -0.00117712 -0.0053513446 0.007988141 -0.011400299 -0.009600052 0.0056642583 0.005064923
-0.022778468 -0.011621373 -0.004903672 0.00013913061 -0.0034186041 -0.013660746 0.019252287 0.017366316
-0.009305921 -0.029970618 0.019116694 0.003252159 0.024343112 0.0036624023 0.016127998 0.03848671
-0.027712697 0.016874453 0.011799826 -0.009825625 -0.0068550585 -0.0043887924 -0.0121852225 -0.0008983272
-0.033542916 0.020698413 0.0070819827 -0.0056609926 0.00034397776 0.0017005306 -0.026201988 -0.0026731829
-0.04493365 -0.0025777696 0.00791706 0.00084960414 0.017196232 0.0178182 -0.005793637 -0.026590796

network_body._body_endoder.seq_layers.0.bias f4 [128]
00000000: 8900 d3b9 df64 823b 6a94 8dbb a89b 23ba
00000010: 8a7a 973a b962 05bc 9af1 e43b 2146 16bc
00000020: bf11 903b 0617 d83b c7e9 113c a27f a2bb
00000030: 3f6c a53b da79 17bc 034f 62bb 2e7f 0b3b
00000040: a4ca 02bc 0269 bfbb 43e2 de3b a609 3b3b
00000050: 8954 90bb 5e95 babb 0c30 51bc 2c8e df3b
00000060: da86 79bc e72f 4ebb ae0d debb ccfc 22bb
00000070: 9e72 3fba 36b3 113c 9145 aabb 7ab9 f7bb
00000080: e286 c139 4ae7 f5bb 8cbb 10bc d671 85bb
00000090: e4f5 15bb 2d1d afb9 2e40 973b 8c6d 1138
000000a0: cd06 a63b ba11 923b a188 f0bb fd4b a1bb
000000b0: e835 fabb 26d1 be38 0c3f c4bb 49df b13b
000000c0: 93e6 b33a f2ec 68bb 1850 31ba 22e5 6bbb
000000d0: 10af 183b d01b fd3b b962 c43b 09f8 68bc
000000e0: d394 8bbb 9581 e7bb 5c6c 0abc d220 2a3c
000000f0: 8704 003c d8af 493b e069 9b3b 8f2c 37bb
00000100: d956 e2ba 1106 9cbb d151 383a 1330 53b8
00000110: 8cea 78ba 7201 1cbb eae3 e738 4998 1ebb
00000120: a550 d7ba bcf7 16bc 1952 173c d676 47bc
00000130: 0b78 67bb a554 a63b 9022 993b 1f14 263c
00000140: 1023 783a 8643 c1bb 6d0d eeba bf41 333c
00000150: 4c8e 6c3a 1fe9 79bb 8b86 1bbc c5e3 c5bb
00000160: e079 edbb 8e03 893b 6105 97bb 95bc 0cbc
00000170: f634 bcb9 e8f9 27bb 6650 233c d20c 823a
00000180: c043 753b e676 81ba 291a fcbb d078 cbbb
00000190: 344e 2dbb 564b 46bc 00d4 d6bb 8dbf 323b
000001a0: f722 99ba 4a57 a93a a076 35bc 4192 1a39
000001b0: 2c09 d23b f0e4 fe3b 99e4 d73a f38d 53bc
000001c0: f951 b2bb b794 183c 4242 33bb 58be 0bbc
000001d0: 299d 2b3c c96e cbbb 33d9 453a 0b4b d4ba
000001e0: 3859 23bc e360 403a e747 8abb fdb7 aabb
000001f0: cffb cabb 4959 9aba 89d9 113b b0d5 da3b
-0.00040245455 0.00397931 -0.004320671 -0.0006241151 0.0011556905 -0.008141213 0.006986809 -0.0091719935
0.0043966467 0.0065945415 0.0089058345 -0.0049590627 0.0050483043 -0.00924536 -0.0034531958 0.0021285522
-0.007982884 -0.0058413753 0.006801875 0.0028539686 -0.0044046086 -0.0056940755 -0.012767803 0.006822368
-0.015229905 -0.0031461657 -0.006776533 -0.0024869917 -0.0007303151 0.008892825 -0.0051962812 -0.0075599523
0.00036912324 -0.0075043784 -0.008833777 -0.004072408 -0.0022882158 -0.0003340034 0.004615805 3.4672717e-05
0.0050667287 0.0044576796 -0.007340506 -0.0049223886 -0.0076358207 9.098863e-05 -0.005988961 0.005428229
0.0013725333 -0.003554162 -0.0006763949 -0.0035994728 0.0023297705 0.007724263 0.005993214 -0.014219292
-0.0042596846 -0.007065008 -0.008448686 0.010383802 0.007813579 0.0030774977 0.004742846 -0.0027950143
-0.0017268314 -0.0047614654 0.00070312346 -5.0351093e-05 -0.00094953994 -0.0023804572 0.00011057391 -0.0024199656
-0.0016427232 -0.009214338 0.009235882 -0.012174329 -0.0035319354 0.0050760084 0.0046733096 0.010136633
0.0009465674 -0.005897942 -0.001816196 0.010940968 0.00090238894 -0.0038133336 -0.009492527 -0.006039115
-0.0072471946 0.004181332 -0.0046087955 -0.008589883 -0.00035897613 -0.0025631133 0.009967899 0.0009922034
0.0037424415 -0.0009877353 -0.007693548 -0.0062094703 -0.0026444318 -0.012102922 -0.006556034 0.0027274818
-0.0011683394 0.0012919691 -0.011075646 0.00014741068 0.006409785 0.0077787563 0.0016471326 -0.012912261
-0.005441901 0.0093128 -0.0027352725 -0.008529268 0.010474482 -0.006208275 0.0007547319 -0.0016196681
-0.009970002 0.0007338656 -0.004219997 -0.0052099214 -0.0061945687 -0.0011775877 0.0022254905 0.0066783056

network_body._body_endoder.seq_layers.0.weight f4 [128, 6]
00000000: 6485 4b3e 3f9a 823d 0b16 d13d d1ac 6f3e
00000010: 5ed7 90be 4273 9bbd 3eaa b9be 12a9 87be
00000020: 85ad 29be a6f6 6d3d b80e 55be 81be 60bc
00000030: 949e 6c3e 8de7 453d 8698 c3be b61b df3e
00000040: 458b 0b3f 374a f4be 3725 02bf dad9 2ebe
00000050: e329 19bd 64c9 ca3d ba06 163f 7c39 8d3e
00000060: b1e0 093e fcb3 8fbd c9b6 00bf 724a f13e
00000070: 45c6 22be 2bb8 2cbe abc7 89be 9275 56bf
00000080: e682 3c3e bc42 d0be 7692 99be 72f7 253f
00000090: 6892 99bd 8f06 af3d c06e 6abe c55a a1be
000000a0: 98c5 f73d 073b 583e 52a8 ed3d 1e63 443f
000000b0: 7f1c a53e e4de 363d 08fa 68be 7220 ad3e
000000c0: 1d32 443e 86ac bfbe b04f ab3e da3d dfbe
000000d0: 15de 683d 474f 3f3d 45cb 213f f42e 01bf
000000e0: 29db 04bf ffd8 173f 5133 d7be 3838 ad3e
000000f0: e23e 133f cf70 8a3f 0490 dabd acc2 a93e
00000100: 9619 84bf 7c91 13be 8594 b5be acda 32bf
00000110: 2ff3 a7bd 6b48 373e 42da 953c 68f7 b1bd
00000120: d825 35be ca81 96be bfbe 033f 673a 37be
00000130: 49c9 183e 8061 15bf 8ab8 df3e 090d 23bf
00000140: 0b5d adbd fb36 bb3e aa1d 48bb 5f9d a13e
00000150: 6708 d53b 1464 cfbc f51c 98be 612f 68be
00000160: 67b3 9a3e ddd7 b23d c55c 6bbd 4ec4 843d
00000170: ce92 aa3e 9a58 183f 0d8e f53c 9a56 f73e
00000180: 0957 a13e 3255 e6be 6176 6ebe 5f78 8dbc
00000190: 10d5 733d b8b0 073e b0ce 96bd f5c4 fa3e
000001a0: 065c 21bf a043 d03e b8ef 0c3f b90c 0fbf
000001b0: 6dd4 6f3e 9d65 f23e c70d 8b3e 25c4 0f3f
000001c0: 7a1a 473e c6d3 043f e278 923d 07d0 a1be
000001d0: b132 afbe 7cf4 3a3e cc1f d3be 5cf2 b4be
000001e0: e383 ca3e b49b d0bd fa43 a03e 4b9d 44be
000001f0: d5dc 01be bebe 59bc 0e83 ccbd 424e efbd
00000200: 1ccd 0c3f f801 d13e 3902 aabd 0407 aa3e
00000210: 5fa4 0c3f f02b cfbe e935 843f b233 b6be
00000220: d93c 0b3f 258d 87be 9ee7 d4bd 242f 1b3f
00000230: 034e 9bbe 2623 a33e 5447 e73d c612 7c3f
00000240: c23c a63e ac0e 813e b3a5 a3be f1d7 3a3d
00000250: 7751 41bd 54d4 c83d c042 30bf 2903 15bf
00000260: 3f48 1e3f ca3d ddbe a81e 42bf ac8e 85bd
00000270: a6af d7bc 5be6 15be 0300 a4be abaf 083f
00000280: 53d2 86be 7c94 92be 3837 0a3f 97ee fb3e
00000290: e246 0a3e 5c9c a4bd 8a1d 40bf fdc5 433e
000002a0: df9d 20be 2a7b c83e 1cfe e3be 0fd9 ba3e
000002b0: d477 c2bc 0886 b4bb aa0c 5d3e c2a7 90be
000002c0: 59db 9dbe 09bb 473f 081e 203f d605 803e
000002d0: f25a c0be b6dd bd3e 0403 203e 9315 5d3e
000002e0: 0609 fcbe 59d0 003f 7748 1d3d c243 04be
000002f0: affb 0d3f 8518 893c 1b02 d83e b3dc 3c3f
00000300: f455 d9be 75b1 463d d9d5 833d 6b63 3dbf
00000310: 7ea5 763e c657 7ebe 029c c43e 8355 ad3e
00000320: 1dd4 da3d 6d88 d73e 5338 8bbe 39b1 4fbe
00000330: dbd2 70be 9952 c3be eecd fc3c 66c5 1cbe
00000340: 1634 fb3d ee9f 783e 1180 27bf 14ed 1bbd
00000350: fec5 073e 9403 fc3d 83b6 2e3c e6cd 823e
00000360: d190 37bf 720e f1bd 00c6 1b3f f41b 943e
00000370: b727 0b3e 418e 353d caf2 86bd 8820 183e
00000380: 46b7 9d3d cd5c d9ba 0bc9 843e 719d 2fbf
00000390: f7fb 283f c245 02be 1a75 fe3e d03d bebe
000003a0: 02dc dcbe 3c76 edbe a68d 083e 3f2b 69be
000003b0: 0d0f ccbd ce91 f53c dbcd 28bf dbca 0a3e
000003c0: 0de6 143d 0ed6 d3be 47cc b53e f9d0 e43e
000003d0: d41b 0cbf a993 b5bd aab9 31be 6262 d33d
000003e0: 37e7 2fbe bd93 f4be cd8b d7be a43f 043d
000003f0: 3ab1 e1be 7699 b5be c0cb 6ebf 7272 04bd
0.19875103 0.06377076 0.102092825 0.23405768 -0.28289312 -0.07590343 -0.36262697 -0.26496178
-0.16570099 0.05809655 -0.20806396 -0.013717295 0.23107368 0.048316527 -0.38202304 0.4357583
0.54509383 -0.4771287 -0.50838035 -0.17075291 -0.037393462 0.099016935 0.58604014 0.2758292
0.13464619 -0.07016751 -0.5027891 0.4712711 -0.15895946 -0.1686713 -0.26910147 -0.8377315
0.18409309 -0.40675914 -0.29994553 0.64830697 -0.07498628 0.08546173 -0.2289381 -0.31514564
0.12098235 0.21116267 0.1160437 0.7671374 0.32248303 0.04464616 -0.2275163 0.33813816
0.19159742 -0.37436312 0.33459234 -0.43601876 0.05685242 0.046706464 0.6320079 -0.5046227
-0.5189691 0.59315485 -0.4203134 0.33831954 0.57517827 1.0815676 -0.10672 0.33156335
-1.0320308 -0.14410967 -0.35464874 -0.69864917 -0.082006805 0.17898719 0.01829255 -0.08689767
-0.17690217 -0.29395896 0.5146293 -0.17893372 0.14920534 -0.583519 0.4369548 -0.63691765
-0.08465012 0.36565384 -0.003053526 0.31565377 0.006501246 -0.025316276 -0.29709592 -0.22674324
0.30214998 0.08732579 -0.05746152 0.06482755 0.33315128 0.59510195 0.029974962 0.4830826
0.31511715 -0.44986874 -0.23287345 -0.017269311 0.059529364 0.13251007 -0.07363641 0.4897839
-0.6303104 0.40676594 0.5505328 -0.5587879 0.23420878 0.4734315 0.2715895 0.5615867
0.19443694 0.5188564 0.07151963 -0.31604025 -0.34218362 0.18257326 -0.41235197 -0.35341156
0.39553747 -0.10185948 0.31301862 -0.19200628 -0.12681897 -0.013290105 -0.09985934 -0.11684848
0.5500047 0.40821815 -0.08301205 0.33208477 0.5493831 -0.4046321 1.0328952 -0.35586315
0.5438972 -0.26474872 -0.1039574 0.60618806 -0.30332956 0.31862754 0.11292902 0.98466146
0.3246823 0.25206506 -0.31962356 0.045616094 -0.04719683 0.098061234 -0.6885185 -0.58207947
0.6182899 -0.43211204 -0.7582803 -0.06521353 -0.026328873 -0.14638655 -0.3203126 0.5339305
-0.2633234 -0.2862891 0.5399051 0.49205467 0.13503602 -0.08037636 -0.75045073 0.19118495
-0.15685223 0.39156467 -0.44529808 0.36493728 -0.02373878 -0.005509142 0.21586862 -0.2825299
-0.3083141 0.7801977 0.62545824 0.25004452 -0.37569386 0.37083215 0.1562615 0.21590261
-0.49225634 0.50317913 0.038399186 -0.12916473 0.55462164 0.016735325 0.42189106 0.7377426
-0.4244839 0.04850908 0.064372726 -0.73979825 0.24086568 -0.2483817 0.38400275 0.33854303
0.10684989 0.42096272 -0.2719141 -0.20282449 -0.23517935 -0.38148955 0.030859914 -0.15309677
0.12265794 0.24279758 -0.6542979 -0.038067892 0.13259122 0.1230537 0.010663631 0.25547713
-0.7170535 -0.11770333 0.60849 0.28927577 0.13589369 0.044325117 -0.06589277 0.1485616
0.07700972 -0.0016583443 0.25934634 -0.6859961 0.6600947 -0.12721923 0.49698716 -0.37156534
-0.43136603 -0.46379268 0.13335285 -0.22770403 -0.09963808 0.029976752 -0.6593911 0.13553946
0.036352206 -0.41374248 0.35507414 0.44690683 -0.5472996 -0.088660546 -0.17355981 0.103214994
-0.17178045 -0.47768965 -0.42098847 0.032287255 -0.44080526 -0.35468644 -0.9327965 -0.032335706

network_body._body_endoder.seq_layers.2.bias f4 [128]
00000000: d33c 83bb 64e0 0e3c fdfc 03bc 8f0a 4d3b
00000010: 6726 db3b 612a 04bc 3c87 06bc 12aa c9bb
00000020: 7d98 fd3b a3fd 2cbc 6536 ca3b 3672 c2bb
00000030: 6d3e ba3b 8a96 5bbc eec0 0dbc c524 123b
00000040: cd9b d93b c5ec 9f3a 05f5 d23b 7605 a23b
00000050: e526 c63b eea0 08bc 7c67 613b 6037 b335
00000060: 4fc9 24bc a885 09bc df7a 1dbc d02d bdbb
00000070: 5ed5 25bc 3860 173c aa62 1ebc 457b fabb
00000080: dc51 883b 40c4 1cbc a6c0 cf3b 0be5 e9bb
00000090: 253b fe39 0080 eabb 1810 c5bb b5cd 153c
000000a0: 9d50 44bb 8aae 22bc b38c 683b edc6 08bc
000000b0: 70a6 983a a184 fbbb 6b34 9dbb da98 143c
000000c0: 3901 9abb cc2a b63b d64d 3bbc 2c6e 2fbc
000000d0: daea e8bb 198f c73b 853a fcbb 7142 ca3b
000000e0: c8c1 99bb 6d37 d3bb 68c9 9e39 0c96 d03b
000000f0: a140 f13b e002 ee3b 1f55 153b bdb3 ed3b
00000100: b2e2 de3b 7869 f93b f0d4 14bc 5a36 f9bb
00000110: 19d0 a43b c35b 22bb 0c1f 14bc d8ac 683b
00000120: eb88 923b d02b e83a 0a31 12bc c37b c13b
00000130: 17d9 a6bb d87e b63b 512d 09bc 96ea 68bb
00000140: ed9d 023c 94bc 5a3a 281d dd3b 2355 ccba
00000150: 92d9 e53b f1a5 e83b 5d7f b8bb 7aff cebb
00000160: 25be 5b3b 44d0 e13b 7b18 323b 2439 2fba
00000170: 3c2d fc3b a8dd 2c3c 626b eabb 275d ecbb
00000180: d412 8f3b a11a bb3b c502 a5bb 03e6 55bc
00000190: 82c1 14bb 5ab2 d6bb d067 ccbb 7819 afbb
000001a0: 17f4 a03b 3820 c7bb c26d 8bbb 1d70 1c3b
000001b0: cf73 f43b 3cac 913b 22e5 993b e29a 023b
000001c0: e3c9 bf3b 4a9c cdbb d5ed 8bbb fa82 f53b
000001d0: df45 0cbc 92cc faba 19b1 1c3c 60f3 b93b
000001e0: 1c44 e43b 3c17 e53b 9a84 fbbb 9cfa 8e3a
000001f0: b953 3cbc 5bd2 ddbb 5593 b23b d660 b23b
-0.0040050535 0.008720491 -0.008055923 0.003128681 0.0066879275 -0.008066745 -0.008210953 -0.006154307
0.0077391253 -0.010558519 0.006171035 -0.005934025 0.0056837113 -0.0134025905 -0.008651955 0.0022299748
0.0066408874 0.00122013 0.0064379 0.0049444987 0.006047117 -0.00833915 0.0034393957 1.3352656e-06
-0.010057761 -0.008393683 -0.009611814 -0.0057732835 -0.0101216715 0.009239249 -0.009667078 -0.0076440894
0.004160149 -0.009568274 0.006340104 -0.0071378998 0.0004849072 -0.007156372 -0.0060138814 0.009143283
-0.0029955276 -0.009929309 0.0035484254 -0.008348209 0.0011646282 -0.0076757227 -0.0047975085 0.009069646
-0.004699853 0.005559301 -0.011432132 -0.010707419 -0.0071080746 0.0060900566 -0.0076974058 0.006172471
-0.00469229 -0.0064458163 0.00030286168 0.006365543 0.0073624407 0.0072635263 0.0022786332 0.0072540925
0.0068019265 0.00761145 -0.009083971 -0.007605356 0.00502969 -0.0024773933 -0.009040605 0.0035503414
0.0044718883 0.0017713252 -0.008922825 0.005904646 -0.005091797 0.00556932 -0.008372621 -0.0035540215
0.007972223 0.00083441404 0.0067478605 -0.0015589338 0.007014462 0.00709986 -0.0056304173 -0.0063170763
0.0033530083 0.0068912823 0.0027175236 -0.0006684235 0.007695822 0.010550894 -0.0071539143 -0.007213253
0.004366258 0.0057099615 -0.0050357305 -0.013055327 -0.0022698347 -0.006552023 -0.0062379614 -0.0053436123
0.0049119103 -0.006076839 -0.0042550275 0.0023870536 0.0074600945 0.0044455808 0.004696504 0.0019928743
0.005852924 -0.0062747346 -0.004270295 0.0074924203 -0.00856158 -0.0019134453 0.009563708 0.0056747645
0.006966127 0.006991295 -0.0076757194 0.0010908428 -0.01149457 -0.006769461 0.0054496923 0.0054436726

network_body._body_endoder.seq_layers.2.weight f4 [128, 128]
00000000: 5eb6 233d ae85 a6bb b9da aebd d0e3 ecbb
00000010: bfb2 22be 4f4c 4fbd 7570 b33c 1d66 c3ba
00000020: f146 7a3d e062 083e e6c2 c6bc 3473 02bd
00000030: 35bd 25bd 8c0e 56be 46e3 bebd 63e5 8dbd
00000040: 97ce 15be d61e c0bc f51f 1e3e 5bda e5bd
00000050: bef1 57bd b5f0 90bd 7880 043e cfbb 01be
00000060: c5db 953c 616d 253d 8baa d63c 1dff 5c3d
00000070: 628a 2a3e dbc6 1fbe 683b e9bd 3042 53bd
00000080: fc43 9a3d c6b2 11be cdf4 993d 7737 b8bd
00000090: c9f3 2b3d 1f2a 29bd 49b6 43bd ff9a 17bd
000000a0: 8ca0 373d ea88 34bc 05e0 eebd 1313 b03d
000000b0: f832 43bc d797 a83d cc3f 3f3e 2516 0cbc
000000c0: 1c4e b6bd ac23 0fbe f9ca a33d 8bec 4d3d
000000d0: 2f07 8f3d 691d 94bd 2a14 ecbc 5665 f2bd
000000e0: bf54 963d 6a15 04be d701 14bd 893d e5bc
000000f0: 907a a6bd 887c 13bd fcf0 bdbd c4c9 a23d
00000100: 5de2 8b3d 3e37 963d 5f15 11bc 1461 d43d
00000110: b932 3cbd 3091 24be fc5a 683b 4310 d73d
00000120: 4197 7a3d fdce 7b3d 0fce 46bd a170 2c3d
00000130: 8495 69bd 62f7 113d 94e2 48be fb53 953d
00000140: 0d8b b3bc 8883 e9bd 4790 353d 6387 53bd
00000150: 7b5f cabd 8777 db3c d94b 6ebc e42f 6cba
00000160: 4d86 b33c aca4 a13b 7f16 143e fe1c 5a3e
00000170: c216 f4bd ff70 023b bd55 ae3c 47c4 b4bd
00000180: 35b9 01bd 3a6b c1bc 3664 db3b f7b4 e23c
00000190: 2008 bdbd 8e7b 0f3e d41a e6bb 791b 073e
000001a0: a1b5 b8bd 2422 313d 6941 85bb 0fd0 fdbd
000001b0: 4a2c 173e 22a3 503d 6a2e 2cbe 2199 27bc
000001c0: 4e0a 74bb 4bb3 833d 40c3 45bc f7ea f33d
000001d0: 1ad9 24be ca05 0dbe aa91 443d 647d 86bd
000001e0: 8965 153d b4d8 e03c a700 0ebe e3ad 143d
000001f0: f2f4 9cbd 5539 a53b b0f9 c93c ba80 8bbd
00000200: a1d1 963d 564a b73d 48b4 66be 8e67 52be
00000210: eda5 bdba c1a9 d0bd 3b18 093e 30d8 febc
00000220: 15a0 2d3e 8e2b debd 4038 bf3d c920 d1bd
00000230: 7d1e e53d 0815 a03c 7ce6 a7bd 193e a03b
00000240: 5f49 cabb b860 95bd 0bfd 633d 74ff c2bd
00000250: 88bf 11bd 0e01 693c 5f90 e1bd 5ac9 9b3a
00000260: f727 bf3d 904a 313d 5cc5 903d d7be 84bd
00000270: 4483 053d b15f 053d e92a 0a3e 6f39 2abe
00000280: 2092 773d 83e2 883d d2dd 12bd 4f45 0c3d
00000290: e2e2 a03d 2f8e 8bbd 555d 343c 3f00 adbd
000002a0: 2ed5 3abd 2ef8 193e 4508 a2bd 8fbf ac3d
000002b0: 10c4 173e 7c72 7dbd 5cf1 ee3d 0034 9ebd
000002c0: 032e 62bd 6b60 c83d 4f0f 083e 9a7a a0bc
000002d0: b96d e43d e69f 32bc 10f4 32be b9aa ee3d
000002e0: ba5f 96bd 06ff 493d 49a5 22bc 154a aebd
000002f0: df93 023e d8c5 15bc 5f3f 16be 6314 ac3c
00000300: 566c 933d 02c6 37bc ee5c da3d 5fb7 1f3a
00000310: dbe2 28bd e241 7c3c 9bcf 883d aaf1 583d
00000320: 0006 e63b 572e 363d d749 583c 635d 94bd
00000330: 5f13 89bd 4b31 e93d 81b1 2cbe 5564 883d
00000340: 19e8 b7bd 9a3b 083e 7303 5e3d f0e0 a2bc
00000350: 9334 673c bc64 a2bd eb04 85bc ac55 833d
00000360: 87d2 323d 132d 2c3e 9c4e 1fbe e11e 2d3e
00000370: 5802 813d 5f5c ef3c 2b2f d83d 96e2 a23d
00000380: d20f 28bd 9ca4 8fbd 6c3c 70bd a38f 71bd
00000390: d460 01be 564f 3fbd 9283 513e 05d0 d3bd
000003a0: c240 e1bd e656 dfbb e9fc 9fbd b748 8cbd
000003b0: e51e 9e3b bc4c 10bc ec7a 873d 5a9f ac3d
000003c0: 5174 003e baba 09be 2636 a0bd 51fc a33c
000003d0: 1485 22bd 6cd9 dcbd c21f 58bd 3607 5a3c
000003e0: d60a 273e d7af cdbd 2599 ce3c edc2 91bd
000003f0: f02f 093d 53c2 abbd 5059 df3c bd17 a0bd
0.03996884 -0.005081854 -0.08537812 -0.007229306 -0.15888499 -0.050609883 0.02190421 -0.0014907751
0.06110281 0.13318968 -0.024262857 -0.031848148 -0.040463645 -0.20903987 -0.09320693 -0.06928518
-0.14629589 -0.023452204 0.15441878 -0.112232886 -0.052720778 -0.07077161 0.12939632 -0.126693
0.01829327 0.040387515 0.026204368 0.053954232 0.16654351 -0.15603201 -0.11388284 -0.051576793
0.07532498 -0.14228353 0.07517395 -0.08994954 0.04198054 -0.041299935 -0.047781263 -0.03701305
0.044830844 -0.011018971 -0.11663822 0.08597388 -0.011914007 0.08232086 0.1867668 -0.008550202
-0.08901617 -0.13978451 0.07997698 0.050274413 0.06983792 -0.07232172 -0.028818209 -0.118357345
0.07340383 -0.12898794 -0.036134567 -0.027983444 -0.08128846 -0.036007434 -0.0927448 0.0794864
0.06830285 0.07334755 -0.008855193 0.10370079 -0.04594681 -0.1607101 0.0035454622 0.105011486
0.061179403 0.061476696 -0.048536357 0.0420996 -0.057027355 0.035636313 -0.19617683 0.07291409
-0.02191689 -0.11402041 0.044327047 -0.051642787 -0.09881493 0.026790394 -0.014544451 -0.0009009822
0.021914626 0.0049329605 0.14461707 0.21300122 -0.11918403 0.0019903777 0.021281118 -0.088264994
-0.031670768 -0.0236107 0.0066952957 0.027674181 -0.09230065 0.14011976 -0.007022241 0.13194074
-0.09019018 0.04324545 -0.0040666354 -0.123932 0.14762989 0.050936826 -0.1681458 -0.01022938
-0.0037237587 0.06430682 -0.012070477 0.1191005 -0.16098443 -0.1377174 0.04799048 -0.06566885
0.036473785 0.027447082 -0.13867436 0.036298644 -0.07663907 0.005042235 0.024655193 -0.06811662
0.07364202 0.08949725 -0.2252971 -0.20547315 -0.0014469005 -0.10188628 0.1338815 -0.031108946
0.16955598 -0.10848151 0.09336901 -0.102113314 0.11187456 0.019541278 -0.08198258 0.004890215
-0.0061732973 -0.07293838 0.055661242 -0.0952138 -0.03558305 0.014221443 -0.11013865 0.0011885569
0.093337946 0.043284 0.07068893 -0.06481712 0.032595888 0.03256196 0.13492931 -0.16623472
0.06044209 0.06683829 -0.035856076 0.034245785 0.078557745 -0.06814229 0.01100858 -0.084473126
-0.04561346 0.1503608 -0.079117335 0.084349744 0.14820886 -0.06187676 0.116671294 -0.07724762
-0.05521966 0.09784015 0.1328709 -0.019589711 0.111537404 -0.010902381 -0.17475915 0.116536565
-0.07342477 0.049315475 -0.009927102 -0.08510224 0.12751721 -0.009141408 -0.14672612 0.021005815
0.07198398 -0.011216642 0.10662256 0.0006092693 -0.04123197 0.015396567 0.066802226 0.052964844
0.007019758 0.044477787 0.013201199 -0.072443746 -0.06693148 0.11386355 -0.16864587 0.06659762
-0.08979816 0.13303986 0.05420251 -0.01988265 0.014111656 -0.0792937 -0.016237697 0.06412825
0.043657806 0.1681407 -0.15557331 0.1690631 0.06299275 0.02921885 0.105558716 0.07953374
-0.041030712 -0.070138186 -0.058651373 -0.058974873 -0.12634593 -0.04670652 0.20460346 -0.10342411
-0.1099868 -0.006815779 -0.07811911 -0.06849807 0.0048254603 -0.008807357 0.06615242 0.084288314
0.12544371 -0.13450137 -0.07822828 0.020017775 -0.039677694 -0.107836574 -0.05276466 0.013307383
0.16312727 -0.100433044 0.02521951 -0.07117257 0.033492982 -0.08386674 0.027264267 -0.07817028
