results/ppo/Avoid Obstacle/Avoid Obstacle-26064.onnx (onnx, 73159 bytes, 7 tensors)

action_model._continuous_distribution.log_sigma f4 [1, 3]
000000 be f1 54 3b b8 62 93 bb 83 30 63 ba
       0.0032492722 -0.004497852 -0.00086665916

action_model._continuous_distribution.mu.bias f4 [3]
000000 97 42 83 3a 78 8e b7 3a f4 16 2c 3a
       0.0010014352 0.0014004251 0.00065646996

action_model._continuous_distribution.mu.weight f4 [3, 128]
000000 b2 b9 57 3a 40 f4 89 3c 9e 9c 2c bb 61 e8 a6 bc
       0.000822927 0.0168401 -0.0026338468 -0.020374479
000010 03 1b bc bc c2 c8 a4 bb 23 d8 22 3c fc 27 43 bb
       -0.022962099 -0.005028815 0.009939226 -0.0029778471
000020 b7 21 e3 3b a7 af cc ba 17 91 7d 3c 9d 89 7f bc
       0.0069315094 -0.0015616313 0.015476487 -0.015596774
000030 43 4f d1 bb 89 b4 1e bc c4 49 a0 bc 1c db fb bc
       -0.0063876226 -0.009686598 -0.019566424 -0.030744128
000040 74 b6 b8 bb c5 67 1e 3d a7 6f 10 bc 4c 0f c9 3c
       -0.0056369845 0.03867318 -0.0088156825 0.024543427
000050 3e 59 99 3c 1d 4a 86 bc 10 d2 a3 bc 42 f4 86 3a
       0.018719312 -0.016392762 -0.019997627 0.0010296183
000060 ce 78 ba 3b 53 59 8e bb eb ba be bc b1 ad f8 b9
       0.0056906706 -0.0043441444 -0.023282489 -0.00047431656
000070 bc 9e 17 bc bf c1 1b bc 48 90 b9 3c 41 f7 14 bc
       -0.009254154 -0.009506642 0.022651806 -0.009092153
000080 65 11 42 bc 79 c3 f3 bc da 76 2a 3c 16 40 33 3c
       -0.0118449675 -0.029756295 0.010404313 0.010940572
000090 95 b4 9f 3b 5e 03 d6 bc ec c8 5c bb da b2 65 bb
       0.004873822 -0.026124652 -0.0033689095 -0.003504923
0000a0 f8 63 3c bb 91 a3 92 bc 05 b1 bc bc 89 ea 1a 3d
       -0.002874611 -0.01790026 -0.023033628 0.037821326
0000b0 d6 a6 1e bb 26 6a 56 bc 1c cb da bc 6e a9 bd 39
       -0.0024208329 -0.013086831 -0.026708178 0.00036175124
0000c0 de 15 0c 3c e5 11 db bb 63 e7 87 3c 19 c4 bd 3c
       0.008550135 -0.006685483 0.016589826 0.023164796
0000d0 e0 d6 9d 3b 4e ce 10 3d f7 a8 1a bc 67 f6 a7 3c
       0.004816875 0.035352997 -0.009439698 0.020503236
0000e0 f1 41 08 3d a9 7f 59 bb cd e3 28 bb 9d a6 03 bb
       0.03326601 -0.0033187664 -0.0025770545 -0.0020088323
0000f0 0f 44 f3 bc 5d 4b d1 3c 8a d0 84 bb 95 a1 88 3a
       -0.029695539 0.025548631 -0.00405318 0.0010424132
000100 dd 1b 9e 3c c9 0e a4 bc 26 d4 ac 3c d1 2d 0d 3d
       0.019300396 -0.020026581 0.021097254 0.034467522
000110 d1 47 d1 3b 0f e2 f8 bb d5 88 b1 3c 2d 43 ec 3b
       0.006386735 -0.0075953077 0.021671692 0.0072101564
000120 fc 9c e6 3c a9 e3 e4 3b 2c 38 b4 3c 03 ad e4 3b
       0.028151028 0.006985147 0.021999441 0.0069786324
000130 97 0d 32 bc c8 6a d8 bb 13 2b ef bb 0f 22 dd bb
       -0.010867498 -0.006604526 -0.007298836 -0.006748445
000140 72 9c 3f 3c 1f c9 83 3c 2a c0 14 3d d0 04 1c 3c
       0.011695014 0.016087113 0.036316074 0.009522632
000150 46 7d dd 3a fd 1c a3 3a e9 e2 f9 3b 31 f8 bb bb
       0.0016898296 0.0012444552 0.0076259268 -0.005736374
000160 e9 e5 17 3d cf 87 76 bc 2c a9 46 3c 28 fe 27 bc
       0.037084494 -0.015047028 0.012125295 -0.010253467
000170 6f 07 73 3b 50 a0 b9 bb 81 80 9d 3c 53 a5 86 3c
       0.0037083288 -0.0056648627 0.019226314 0.016436255
000180 4e a4 c1 bb c3 76 11 bd 98 31 8a 3b 4a 90 87 bb
       -0.005909479 -0.03551365 0.004217338 -0.0041370736
000190 94 ec 96 bc b2 9e c5 bc 91 35 90 3b 9b 30 a1 bc
       -0.018423356 -0.024123523 0.004400917 -0.019676497
0001a0 c2 05 9b bc a4 25 98 bc 6c 5a 56 3d 7b 58 5a 3c
       -0.018923644 -0.018572636 0.052332327 0.013326759
0001b0 29 3a 08 bc d2 8a 8a 3b e1 2e c8 bb f2 e3 ab bc
       -0.008314648 0.0042279745 -0.006109104 -0.020982716
0001c0 3d c9 84 ba 94 c7 d0 3c ca 18 48 bc e0 d5 a9 bb
       -0.0010130774 0.025485791 -0.012212941 -0.0051829666
0001d0 72 70 32 3b c2 a7 a8 bc f8 38 7f 3c 10 32 03 3d
       0.0027227667 -0.020587806 0.015577547 0.032030165
0001e0 9f 18 91 bb 62 bd a4 bc 6c f2 53 3c 33 13 34 bd
       -0.004427984 -0.020109836 0.012936216 -0.043963622
0001f0 9d af 05 bd 1f f8 2b 3d f8 d4 06 bc 7b b1 81 3c
       -0.03263818 0.041984674 -0.008229487 0.0158317
000200 22 c0 85 ba ac 48 66 bb 1f cc 87 bc 5b d0 ea bb
       -0.0010204355 -0.003513853 -0.016576825 -0.007165951
000210 e4 74 6b bb d2 ec 9e 3c d3 eb 0a 3d a1 61 e8 bb
       -0.0035927827 0.019400034 0.033916306 -0.0070917164
000220 9e dc 18 3b 00 64 5e 3c 5e f9 ea bb 9b b2 24 bb
       0.0023324857 0.013573647 -0.00717084 -0.0025130871
000230 2d 93 68 3c 1e 7b 30 bc 0d 47 3d 3c 10 c2 66 3c
       0.014195246 -0.010771541 0.011552584 0.014084354
000240 37 64 eb bc 64 51 95 bc 09 7d 5a 3b 00 ed 94 3a
       -0.02873431 -0.018227287 0.0033338687 0.0011362135
000250 aa 63 53 bc 43 8c 78 3c 55 8a 42 bd a0 d1 22 39
       -0.01290218 0.01517016 -0.047495205 0.00015527615
000260 0b 17 8a 3c d0 a4 31 bc 79 25 db ba 80 ac c2 bc
       0.01685669 -0.010842517 -0.0016719542 -0.023763895
000270 19 7c 18 bd a7 a7 1b bb 45 d9 08 3c fe 09 19 3d
       -0.037227724 -0.0023751052 0.008352582 0.037363045
000280 bf 50 11 bc 17 86 c6 bc 22 8b 55 3b 15 28 dd bb
       -0.008869349 -0.02423386 0.003258415 -0.006749163
000290 e0 c6 ec 3a 97 da 95 3b 55 64 25 bd 86 88 a8 bc
       0.001806464 0.004573177 -0.040378887 -0.020572912
0002a0 4e f3 64 bc 45 ee 2f 3b c1 08 8b bc c9 06 70 bc
       -0.013974024 0.00268449 -0.016971948 -0.014650055
0002b0 4d 54 05 3b 50 a7 aa 3c 6d 4f 2e 3b 8c 58 b5 bb
       0.0020344437 0.020831734 0.0026597634 -0.0055342373
0002c0 11 44 0a ba b5 c2 8c 3b 4e ed c3 ba bd 5c 97 3b
       -0.0005274425 0.004295672 -0.0014948042 0.0046192096
0002d0 7e 72 eb 3a ea e8 ca bc f7 3a e0 3b 18 e4 87 b9
       0.0017963198 -0.024769265 0.0068429667 -0.0002591915
0002e0 19 3c 77 bc a5 a8 fa bc 4e 50 cd bc d7 fa 23 3d
       -0.015090012 -0.030597994 -0.025062706 0.04003414
0002f0 f8 53 03 bd c4 ae 13 bd 7a c3 89 bc 29 8e 65 3b
       -0.0320625 -0.03605534 -0.016816843 0.003502736
000300 4e f9 46 3c c8 ec 63 bc 5c 4f 7a 3b 15 2f 4a 3b
       0.0121444 -0.0139114335 0.0038194275 0.0030850817
000310 14 f1 b5 3c 48 3e 1c bb eb 8b 3d 3c 21 0b 6f 3c
       0.022209682 -0.0023840833 0.011569004 0.014590056
000320 15 46 d5 bc 9b 4f 98 3b d4 d9 be 3b 71 13 d5 b9
       -0.026034394 0.0046481616 0.005824307 -0.0004064101
000330 80 38 ca bc 66 17 1e 3c 05 bc d4 3c 61 7f b5 3c
       -0.024685144 0.009649133 0.025968561 0.022155466
000340 fe 03 7b 3b 37 33 3c 3b c2 68 d9 3b 2d d0 f1 bc
       0.003830194 0.002871705 0.0066348026 -0.029518211
000350 17 51 26 3c 04 2b ab 3a b1 75 9b 3b d7 6d f3 3c
       0.010151169 0.0013059084 0.0047442545 0.029715462
000360 89 bc 78 bc 10 fe 55 3c fc e7 7e 3c 20 e7 03 3d
       -0.015181669 0.0130610615 0.015558239 0.03220284
000370 f3 dc 89 bc 12 32 0d 3b cd 43 eb bc 2b 90 0a 3c
       -0.01682899 0.0021544737 -0.028718853 0.008457224
000380 a3 a1 89 ba 39 d7 9b bb 97 7e b9 3c c1 70 bc bb
       -0.0010500442 -0.004755881 0.02264337 -0.005750746
000390 39 7b 52 3c f8 20 9e 3c a5 e0 6f 3c f1 b0 7a ba
       0.012846761 0.01930283 0.014640962 -0.00095631095
0003a0 a4 b5 12 3c 1b 91 14 3c bf 38 c3 bb a8 3f 48 bc
       0.008954439 0.009067799 -0.0059576924 -0.012222208
0003b0 89 63 4e 3c 84 31 11 bc e1 29 6a bc 0f cf 12 bc
       0.012596973 -0.008861903 -0.014292211 -0.008960499
0003c0 69 b5 b6 bb 0b e9 88 bc f6 d8 aa 3c e4 72 e7 bc
       -0.005575825 -0.016712686 0.020855408 -0.028253026
0003d0 9c 4c 50 bc 31 9a 03 3c 86 8a 88 bb dd e7 0b 3c
       -0.012713578 0.008032368 -0.004166904 0.008539167
0003e0 f4 c6 2e bb 1d 9a 1e 3c 21 a5 27 bc 41 04 26 3c
       -0.0026668878 0.009680298 -0.010232241 0.01013285
0003f0 de 91 35 3c 00 b8 cf bc fa 58 08 bd 82 b9 77 3c
       0.011082141 -0.025356293 -0.03328798 0.015119912

network_body._body_endoder.seq_layers.0.bias f4 [128]
000000 ac 22 73 3b 05 e5 54 ba d1 23 77 3b 63 f0 9c bb
       0.0037099523 -0.0008121285 0.0037710557 -0.0047893985
000010 d2 76 1c 3b 3e 57 3c bb 6e 64 b8 b9 7b ed 46 ba
       0.0023874533 -0.0028738524 -0.0003517004 -0.0007588488
000020 fd 69 7e 3a ef f8 82 b9 9a 4c 51 3a 00 ea 3d 39
       0.00097051245 -0.00024981002 0.0007984132 0.00018111616
000030 50 b4 06 3a ea fe 50 bb 3b b2 e1 ba 24 93 1d bb
       0.0005138563 -0.0031890222 -0.0017219255 -0.0024044001
000040 d2 98 78 ba ad 20 12 bb af e7 0d 3a 20 4c 0f ba
       -0.0009483221 -0.0022297308 0.00054132467 -0.00054663606
000050 97 47 9f 3a a3 30 5e 3a d3 ae f8 3a 69 44 de ba
       0.0012152073 0.00084758754 0.0018973 -0.0016957644
000060 c3 74 97 ba ae 5b c1 bb a1 26 a7 3b d9 12 e0 3a
       -0.0011555183 -0.0059008216 0.0051010405 0.0017095461
000070 c3 b4 ef ba e2 42 c2 b9 8c 00 eb b9 bb c3 51 ba
       -0.0018288124 -0.00037052395 -0.000448231 -0.00080018834
000080 0a 0d 15 b9 c0 e6 ad 3a de 23 a6 39 0c 7f a4 3a
       -0.00014214605 0.0013267621 0.0003168871 0.001255007
000090 9a 33 b1 ba e6 94 1c ba ff d8 15 bb 76 a6 df 3a
       -0.0013519407 -0.00059731153 -0.0022864935 0.0017063159
0000a0 01 f7 a9 3a 7d 6c c9 39 a0 cc a8 37 07 4d 85 ba
       0.001296729 0.00038418538 2.0122447e-05 -0.0010170051
0000b0 52 56 ee b8 4e 3a 33 ba 70 d6 4d 3a f2 e6 ca 3a
       -0.00011364803 -0.0006836996 0.0007852083 0.0015480204
0000c0 4a 00 81 3b 18 1e ac b9 ea 25 13 ba e1 60 b8 3a
       0.003936802 -0.00032828818 -0.00056132546 0.0014066958
0000d0 59 4b 83 ba 21 16 74 3a 2f d4 14 3b ef 22 76 ba
       -0.0010016962 0.0009311159 0.002270948 -0.0009389361
0000e0 c5 2b 42 ba cc 99 46 37 84 f3 ba 39 87 fe a0 ba
       -0.0007407035 1.1837528e-05 0.00035658118 -0.0012282886
0000f0 1d f0 a2 ba 54 d8 1b ba 86 f9 14 bb ad d0 12 3b
       -0.0012431178 -0.0005945016 -0.0022731735 0.0022402212
000100 0c ed a2 bb a3 b6 24 bb 4b 97 bd 3a ff 6f 66 3a
       -0.004972106 -0.0025133274 0.0014464644 0.00087904924
000110 28 20 9f b9 49 84 88 ba f3 2d ad ba 32 f9 d0 38
       -0.00030350802 -0.0010415401 -0.0013212546 9.964629e-05
000120 37 dc 47 39 5a 49 7b ba 2e b7 28 3b f5 ca 0d bb
       0.00019060155 -0.00095858204 0.002574395 -0.0021635864
000130 f4 1f 40 3a 65 db 13 3a 17 05 36 ba 90 04 78 3a
       0.000732898 0.00056402973 -0.00069435075 0.0009461129
000140 34 e8 76 3a 76 6d 12 bb 0b 0d 87 ba 50 f4 d1 ba
       0.0009418756 -0.0022343076 -0.001030357 -0.0016018245
000150 a2 82 12 38 d8 5c 8c bb 6a fa 74 39 02 16 0b b9
       3.4930774e-05 -0.004283529 0.0002336294 -0.00013264272
000160 84 b5 0b bb 26 fa 6c 39 36 ab 83 3a d6 53 8a bb
       -0.0021317909 0.00022599901 0.0010045532 -0.00422142
000170 c2 f5 78 3a 2c 58 a6 ba 26 42 76 bb 22 32 26 ba
       0.000949707 -0.0012691072 -0.0037576049 -0.0006339868
000180 5c b6 01 ba 68 58 60 b8 22 d3 7f bb 8b 4e db 38
       -0.0004948133 -5.3488096e-05 -0.0039035757 0.000104573635
000190 8d 25 74 ba 4e 59 47 bb 38 54 39 ba 92 f1 14 bb
       -0.0009313457 -0.003041822 -0.00070697395 -0.0022726995
0001a0 49 af 6b 3b 98 eb c7 3a 00 35 b0 3a c7 d8 f4 3a
       0.0035962632 0.0015252708 0.001344353 0.0018680327
0001b0 ab 46 05 bb 64 3c b1 3b cd 32 80 ba c0 46 cf 39
       -0.002033631 0.0054088105 -0.0009780765 0.0003953483
0001c0 ef f7 88 ba 3b a3 11 bb 2b ab 16 3b 4d ee 07 3a
       -0.0010449867 -0.0022222537 0.0022990208 0.0005185351
0001d0 36 92 2f 3a 07 14 9e 3b e4 4b 54 ba fe d3 76 bb
       0.00066975073 0.004824165 -0.0008098467 -0.0037662978
0001e0 49 54 62 3b 95 84 1d bb 78 49 45 3a 24 94 9d ba
       0.00345351 -0.0024035324 0.00075259013 -0.0012022299
0001f0 4e b1 99 3a e8 21 a7 3a fd 5f 7e ba fc 24 3b bb
       0.0011725815 0.0012751194 -0.00097036344 -0.002855598

network_body._body_endoder.seq_layers.0.weight f4 [128, 6]
000000 92 be 28 bf eb c4 a1 bd 57 ab 3d bf a6 16 4a 3f
       -0.6591579 -0.07898887 -0.7408957 0.7894081
000010 71 67 8c 3d 28 cd 82 3e e1 1b 18 3f fa 03 a3 3d
       0.068556674 0.25547147 0.5941754 0.07959743
000020 8e 0a 83 3e e5 66 ad 3e fb 7d 69 3e b5 64 d0 be
       0.2559399 0.33867565 0.22801964 -0.40701833
000030 e8 01 3e 3e fd f5 e6 be f5 e4 50 be a8 70 1c bf
       0.18555415 -0.4510955 -0.2039984 -0.611094
000040 fe 79 a5 3e 07 86 9e 3d 8b 92 90 be 87 2b 8b 3e
       0.32319635 0.077404074 -0.28236803 0.27181646
000050 75 60 2a bf 8f 83 fa 3e 2d 4a b8 3e 10 8b c5 3e
       -0.6655343 0.48928496 0.35994092 0.3858266
000060 60 f7 da bd 55 70 6d bd b7 c4 43 bf 67 0d 8c 3f
       -0.10691714 -0.057968456 -0.7647204 1.094159
000070 46 16 45 be d3 84 89 be 63 2a 50 be a9 9c 38 bc
       -0.19246778 -0.2685915 -0.20328669 -0.011267819
000080 9a 8d 49 bf 81 2b 0d 3e a1 e0 3d 3e cb c8 91 bb
       -0.7873169 0.13786127 0.1854272 -0.004448985
000090 0d 0f 55 be e7 6e a9 3d 69 4d 9c bc 47 56 7a 3e
       -0.20806523 0.08273106 -0.01907988 0.24446975
0000a0 c5 f9 b2 3e 6c 27 24 3e 7e c3 37 bd ba 9a 65 be
       0.34956184 0.16030663 -0.04486417 -0.22422305
0000b0 12 3b 03 3e 2a 5e 36 be c7 19 49 bf 17 28 0f 3f
       0.12815502 -0.17809358 -0.7855496 0.5592055
0000c0 54 ea b6 3e 8f 5f 72 be bf 85 a4 be 34 5e e0 3e
       0.35725653 -0.23669265 -0.3213329 0.4382187
0000d0 49 4b 96 3e e9 b0 80 be db 45 9a bd 5f ce 24 3f
       0.29354313 -0.25134972 -0.07532855 0.643774
0000e0 81 27 1d bd 1b 76 14 bf af 1c 03 3f 49 bf ae 3d
       -0.038367752 -0.57992715 0.5121564 0.085325785
0000f0 e7 22 10 3d bc 2a c5 3d 35 3c d5 be 99 eb 1f be
       0.035189535 0.096272916 -0.41647497 -0.15617217
000100 f8 19 df 3e d6 70 cc be 77 4c 83 3c 25 f1 48 be
       0.435745 -0.39929837 0.016027672 -0.1962324
000110 fb 30 ab 3e 6b a1 08 3f bc 8c 93 bf 72 2b 15 3c
       0.33435807 0.53371304 -1.1527324 0.009104596
000120 d9 ab d0 3e c2 ec 5d 3f ca 43 bd 3d 7f 1b 18 be
       0.4075611 0.8668939 0.09241445 -0.14854239
000130 df 17 9c 3f 30 41 10 3e 88 10 23 3e f7 42 3d 3e
       1.2194785 0.14087367 0.15924275 0.18482576
000140 f2 88 35 bf 34 56 e9 bd c7 9f 30 3f 9f 55 5f be
       -0.70912087 -0.11393395 0.689938 -0.21810006
000150 ad e4 2e 3f dc f4 e5 3e e1 08 5d bf 5a 5e f8 3d
       0.6831768 0.44913375 -0.86341673 0.12127371
000160 94 96 c0 3e 51 f3 48 bd 9d a8 1e be 1d d0 83 bd
       0.37614882 -0.04906017 -0.15494008 -0.06436179
000170 c8 ff 00 3f b0 f7 5c be a4 79 af 3d 18 07 45 be
       0.5039029 -0.2157886 0.08568123 -0.19240987
000180 15 17 05 bd 11 c5 61 bd c6 1c a4 3e e6 f5 9e 3e
       -0.032492716 -0.055119578 0.32053202 0.3104698
000190 5f 04 c1 3e 70 3f 0b 3f a3 0a 40 3e 8c 13 c0 be
       0.37698647 0.5439367 0.18754058 -0.37514913
0001a0 dd b6 90 3e ee 51 c6 be 92 59 fa bd ca 45 00 3f
       0.28264514 -0.38734382 -0.122241154 0.5010649
0001b0 10 fa 8b be 26 91 59 be 1e 30 b7 3e 20 ed d6 be
       -0.2733922 -0.21246776 0.35778898 -0.41977787
0001c0 67 ac 42 be dc 1d aa 3e c0 48 35 bd f3 b5 e5 bd
       -0.19011079 0.33225906 -0.044258833 -0.11216345
0001d0 9f 25 0d 3f a3 41 59 be 27 b5 86 be 59 fa f0 bc
       0.5513553 -0.21216445 -0.26310083 -0.02941625
0001e0 5a 42 3f 3f aa b0 88 3d 7f 4c 28 3e e5 79 47 3e
       0.7471062 0.06674321 0.16435431 0.19480093
0001f0 ef 2f cc 3d a2 ef 0f 3e 00 56 3f 3e 65 2c b3 3e
       0.0997008 0.14056256 0.1868515 0.34994808
000200 c1 30 f9 be 79 cc ee bd 60 84 9e 3d 32 d8 23 3f
       -0.4867001 -0.11660094 0.07740092 0.6400176
000210 62 bd fc 3e a7 c8 71 3f 1f c4 2e 3e ef d0 16 bf
       0.49363238 0.94446796 0.17067002 -0.5891256
000220 51 08 b2 3e e4 47 6b bd 2b e8 03 bf cf c7 6d bf
       0.3477197 -0.057441607 -0.51526135 -0.9288301
000230 ed f8 27 bf 5b 53 9d 3c 0c 6b 80 3e 9e 6b 87 3d
       -0.65614206 0.019204786 0.2508167 0.06612323
000240 77 bf fc 3e 72 55 34 3e 75 86 83 3e 83 b1 fb be
       0.49364826 0.1761072 0.2568852 -0.49158868
000250 1e 5f 1a 3e 7f cd 98 3e 00 ef 76 bd 67 02 52 bd
       0.15075347 0.2984428 -0.060286522 -0.051271822
000260 46 83 cf be 29 ee 04 be 86 0d 1b 3d 1d c6 5a bd
       -0.4052984 -0.12981476 0.037854694 -0.05341159
000270 be 1d 1a be 14 45 36 bd 83 90 34 bf e2 2f 1b bf
       -0.15050408 -0.04449947 -0.7053301 -0.6061994
000280 49 3d 35 3e 92 e6 37 be c3 d2 5c 3e 48 19 60 3f
       0.1769916 -0.1795905 0.21564774 0.87538576
000290 1b f0 23 be ff 9a 4d be cf b3 01 3e ac 34 46 bd
       -0.16009562 -0.20078658 0.12666248 -0.048390076
0002a0 db a1 44 bf 42 6f ff be 85 a5 ac 3d 6c a1 6e bd
       -0.7680947 -0.4988957 0.08430008 -0.058259413
0002b0 c3 7b b8 bc 45 b9 a8 bc 77 ce 88 3d 99 fa da 3e
       -0.022519952 -0.020596156 0.06680005 0.42769316
0002c0 08 e6 11 3f a7 6f ca 3e 4f a2 83 be f3 20 ba bd
       0.56991625 0.3953831 -0.2570977 -0.09088316
0002d0 9b 1f f8 3d 95 ea 59 3e 60 8f bb 3e 5a 26 56 3d
       0.12115403 0.21280892 0.36632824 0.05228267
0002e0 e9 12 17 3e 7f 97 9e be d1 2c ae be 69 1d 6b 3e
       0.14753307 -0.30974957 -0.34018567 0.22960438
0002f0 5a 5d 83 be 78 26 3a 3e 22 55 5d be 5b 53 ed 3e
       -0.2565716 0.18178737 -0.21614507 0.46352658
000300 fb f1 d8 3c ce 43 f3 bd 33 db 16 3d 41 69 7f 3e
       0.026482573 -0.11878167 0.03683014 0.24942495
000310 7a 84 f2 bc 72 25 ee 3d 20 1d f7 3d 7b 19 ec be
       -0.029604185 0.11628236 0.12066102 -0.4611319
000320 14 63 78 3d 71 8f 23 bf 6c d0 f8 be c8 a2 eb 3e
       0.060641363 -0.6389075 -0.48596513 0.4602263
000330 a1 b7 5e 3f ca d5 29 3f 50 ce 84 3d ae b3 3e bf
       0.86998945 0.6634184 0.064846635 -0.7449292
000340 80 be 0d 3f 6c 46 b6 be db e5 0a bf 54 8d e3 3e
       0.55368805 -0.35600603 -0.5425698 0.44443762
000350 0b d1 02 3f bd 10 8f 3e 9d 28 db 3d 92 f8 57 3c
       0.51100224 0.27942458 0.10701106 0.013181822
000360 c7 79 ee bd 9e 3f b4 39 5f 91 15 3e ff 77 35 3f
       -0.11644321 0.00034379674 0.14606236 0.70886225
000370 47 c3 1b bf 1a 2d 4d bf 75 42 8a 3e 4b 20 06 be
       -0.60844845 -0.80146945 0.27003828 -0.13098256
000380 28 51 c9 be 55 d2 11 3f 62 d3 f5 3d 19 fb b4 be
       -0.3931973 0.56961566 0.12003209 -0.35347822
000390 70 ff 01 bf fc 5e af bc c4 d8 68 3e 1e 86 b8 3e
       -0.5078039 -0.021407597 0.2273894 0.36039823
0003a0 0f 5c 21 3d e5 ad 1f bf d8 b1 a6 3d 7f d5 da 3d
       0.039394435 -0.62374717 0.0813939 0.106852524
0003b0 c6 9e 27 be 71 f1 84 be c0 f3 9b 3e a2 e9 cc bd
       -0.16369161 -0.25965455 0.30459404 -0.100054994
0003c0 0e ab 2d be f0 8e 94 be 8d 64 44 bf 54 10 04 bf
       -0.16959783 -0.29015303 -0.7671593 -0.51587415
0003d0 76 2a f1 3e 69 31 4f be 4e b8 14 3d 03 c7 59 3f
       0.47102708 -0.20233692 0.03630858 0.8506929
0003e0 f3 cc 0b be 8a 17 3a bf 4b a6 77 bf ae 44 66 3e
       -0.136524 -0.7269217 -0.9673812 0.22487137
0003f0 01 26 78 3d 9f a2 b7 bc 23 b3 8d 3e 84 45 99 3e
       0.06058312 -0.022416411 0.27675733 0.2993585

network_body._body_endoder.seq_layers.2.bias f4 [128]
000000 51 8e 67 3a 00 0f 19 3a 23 b0 f5 b9 ac bf e3 b9
       0.00088331575 0.0005838722 -0.00046861274 -0.0004343962
000010 62 69 7a ba 43 19 89 3a 33 d3 ee 3a 71 01 73 ba
       -0.00095524464 0.0010459799 0.0018220901 -0.0009269929
000020 f3 25 02 ba fa 10 5d 3a 47 a5 aa 3a f9 87 73 ba
       -0.00049647613 0.00084330107 0.0013019227 -0.0009289976
000030 dd dc 1e 3a 59 ca d7 bb e3 39 21 3b 4c c6 4b bb
       0.0006060133 -0.006585401 0.0024601154 -0.0031093536
000040 0b cd fa ba 64 cf 8e 3a 0d f6 1d 39 9f ee e3 3a
       -0.0019134594 0.0010895547 0.00015064348 0.001738984
000050 04 2d c7 b9 1e 18 16 b8 e8 a4 a9 3a fd 3d 54 ba
       -0.00037989777 -3.5785248e-05 0.0012942823 -0.0008096395
000060 67 35 5e 3a a4 2c 8a bb 8c 90 1a b9 d4 a0 bd ba
       0.00084765855 -0.0042167474 -0.00014740432 -0.0014467486
000070 74 f9 6d ba 59 31 76 ba f5 b4 3f 3a 55 6e 15 ba
       -0.0009078004 -0.00093915086 0.00073130365 -0.00057003397
000080 5f c4 05 3a 16 42 be ba 64 79 ba b9 8f 9f 55 3a
       0.0005102809 -0.0014515545 -0.00035567128 0.0008149081
000090 7e 99 ce 39 32 a3 4c ba 99 68 a6 b9 8c ab a2 b9
       0.00039405742 -0.00078063004 -0.0003173992 -0.0003102686
0000a0 c7 48 01 bb a8 09 89 ba 45 76 82 ba 96 df 20 3a
       -0.0019727217 -0.0010455148 -0.000995346 0.00061368325
0000b0 50 c6 22 bb 88 3e ae 39 09 4e 1b ba 8c f7 36 39
       -0.0024837442 0.00033234456 -0.0005924409 0.00017449091
0000c0 08 11 81 38 1c a4 40 ba 3e 97 38 b9 3e 99 d8 b8
       6.154372e-05 -0.0007348673 -0.0001760395 -0.00010328226
0000d0 88 a4 1b b8 4a 58 95 ba 80 79 88 b9 37 8d 0c 3a
       -3.710811e-05 -0.001139411 -0.00026030466 0.0005361619
0000e0 97 8f 8a b6 89 23 91 3a 3e d8 94 ba 58 7e e2 3a
       -4.1294365e-06 0.0011073212 -0.0011355949 0.0017280085
0000f0 f8 a5 c5 ba d9 72 3d 39 5f a3 f6 b9 2d 35 44 ba
       -0.001507937 0.00018067229 -0.00047042497 -0.00074847304
000100 21 98 18 3a 1a c0 cc 38 3c 67 fc 39 00 f2 b8 3a
       0.0005821009 9.76326e-05 0.000481421 0.0014110208
000110 f3 c4 5a 3a bf 76 16 3a d0 a3 f8 ba e4 00 1b 39
       0.0008345388 0.00057397404 -0.0018969718 0.00014782284
000120 60 d5 3a 39 5a 28 66 39 04 15 dd 3a 65 77 83 ba
       0.0001781783 0.00021949541 0.0016867225 -0.0010030089
000130 71 32 f6 b9 3a 88 4f 39 ee 73 bd 39 ad a4 07 ba
       -0.00046958358 0.00019791807 0.00036135264 -0.000517438
000140 24 6b 65 b9 db 86 e2 b9 03 e4 32 b8 bc f8 12 ba
       -0.00021879055 -0.00043206554 -4.265086e-05 -0.00056065223
000150 9a 02 9e bb 27 0c 74 ba c0 19 7f b9 12 72 64 3a
       -0.0048220875 -0.0009309672 -0.00024328288 0.00087145076
000160 a3 87 15 3a d1 aa a8 3a c6 65 60 38 30 d3 2c 3a
       0.00057041104 0.001286829 5.3500546e-05 0.00065927487
000170 68 0a 22 3a be a8 28 bb 07 ac 95 b9 18 88 24 3a
       0.000618136 -0.0025735344 -0.00028547665 0.0006276383
000180 be 04 02 b9 1a 46 94 ba e2 be 7d 3a 8a 14 92 b9
       -0.00012399533 -0.0011312396 0.0009679628 -0.00027862593
000190 f8 a1 f6 38 ea ea 51 3b 5c a2 22 38 11 e4 03 b8
       0.00011760363 0.0032030889 3.877502e-05 -3.1445237e-05
0001a0 3a ef c7 b9 20 c2 70 b9 94 c1 74 3a b5 4d 84 ba
       -0.00038134475 -0.00022960501 0.0009336707 -0.0010093959
0001b0 e1 be da 39 b6 32 8a 3a dc c3 95 b9 09 b4 2e ba
       0.00041722416 0.0010543677 -0.0002856542 -0.00066644006
0001c0 e1 cf 94 ba 91 78 96 3a 31 65 83 38 c1 e3 c5 ba
       -0.0011353457 0.0011480023 6.265415e-05 -0.0015097783
0001d0 72 ab 8a ba 68 37 6d ba 18 13 13 b9 3c 5f ba 3a
       -0.0010579659 -0.00090490887 -0.00014026125 0.0014219056
0001e0 47 98 a9 ba 3d af f6 b9 2d 83 bb ba 8a 53 9b b9
       -0.0012939059 -0.0004705134 -0.0014306061 -0.00029626145
0001f0 ee 48 6b ba 39 7d a1 3a 2c d6 70 ba 30 3e f8 39
       -0.0008975406 0.0012320644 -0.00091871875 0.0004734858

network_body._body_endoder.seq_layers.2.weight f4 [128, 128]
000000 c5 21 3a 3b 5a 57 69 3d 28 59 c2 bd 79 96 05 be
       0.0028401476 0.05696807 -0.094896615 -0.13045682
000010 48 5c 0a 3e c3 2b fe bc 92 03 4d be b9 7f d5 3d
       0.13511765 -0.031026727 -0.20020893 0.10424752
000020 6b 2f 84 bd b4 d7 1e bd 7c 4b 95 be 79 bb 15 3d
       -0.06454357 -0.03877993 -0.29159153 0.03655574
000030 e1 76 aa 3d c1 c2 ef bc 48 ce 71 be 7e b2 a8 bd
       0.083234556 -0.02926767 -0.23613846 -0.0823717
000040 67 d2 04 be 48 42 dc bd d2 c0 b2 3c 84 3d 4e bd
       -0.12970887 -0.1075483 0.02182046 -0.050351635
000050 13 6b e8 bd 11 de 90 3d f6 b8 08 3e 53 f8 f1 3d
       -0.11348548 0.07073606 0.13351807 0.11814942
000060 03 9b 88 bd 01 76 af bc 48 3d b8 3d 26 55 d4 3d
       -0.06670191 -0.021418573 0.089960635 0.10367803
000070 f4 88 17 bd dd b2 8f bd a4 c3 05 be 83 62 ba bd
       -0.036995843 -0.07016537 -0.13062912 -0.09100821
000080 a7 55 94 bd a7 7b 58 3d 63 4c 43 3c 4a 5a c9 bc
       -0.072428994 0.0528523 0.0119200675 -0.024579186
000090 23 e7 1c bd bf 81 b4 3d 16 a1 85 3e 45 fc 7a bd
       -0.038306367 0.088138096 0.2609946 -0.06127574
0000a0 41 a3 1d bd 92 3a 91 bd f6 c7 49 be 27 3e 0d bd
       -0.03848577 -0.070912495 -0.19705185 -0.0344831
0000b0 24 98 13 3e 0b dd 6c bd c2 6d 4a bd 4f ba 05 be
       0.14413506 -0.05782799 -0.04942108 -0.13059352
0000c0 1a c2 0c 3e ca b7 dd 3c c7 c4 e6 3c 4d fb 19 3e
       0.13745919 0.027065177 0.028170003 0.1503727
0000d0 ae e5 6e 3d 8a 4d 89 3c ed 82 69 bd 2a 03 ad bd
       0.05832451 0.016760606 -0.057009626 -0.08447869
0000e0 53 33 a9 3d 0c 2e b4 bd 7d db d6 bc 49 fc 7c 3c
       0.082617424 -0.08797845 -0.026227707 0.015441009
0000f0 97 f0 88 3e 7c f5 71 be 2e b6 03 bc 2f 90 ec 3c
       0.26746055 -0.23628801 -0.0080390405 0.028877346
000100 35 0b bd bd 3d 60 5a bd f3 d2 06 bc ff 6c 88 3d
       -0.09230653 -0.053314436 -0.008229005 0.06661414
000110 a5 c8 6f 3d 0a 05 07 3e d4 06 0a 3d 47 c2 97 3d
       0.05854096 0.13185516 0.033697918 0.07410102
000120 ad 1e a6 3c 9d 25 12 bd e7 50 1e bd 6b ef 2d bd
       0.0202783 -0.035680402 -0.038651373 -0.042464655
000130 3f 29 09 bd d8 7b b6 bd d4 fa 1e bd d0 dd d7 3b
       -0.0334866 -0.0891034 -0.038813427 0.0065877214
000140 62 86 25 3d 5f 2a 1e 3e 8b d0 e5 bd 39 9f 21 be
       0.04041136 0.15445851 -0.11221417 -0.15783395
000150 95 8f 0c 3e 01 bc 82 3d 2f 0f d0 ba 1b 18 0e bc
       0.13726647 0.06383515 -0.0015873666 -0.008672739
000160 cc 79 1d 3d c5 46 51 3d 60 11 9e 3d 62 80 cf bd
       0.038446233 0.05109288 0.07718158 -0.10131909
000170 80 a2 98 bd c6 2b 2a bd ce ee 73 bd a7 88 f1 3d
       -0.074528694 -0.04154565 -0.059553914 0.117936425
000180 96 e9 2f 3d 0b 3a 13 3e 2a 6b cc bd af c8 4b bc
       0.042947374 0.1437761 -0.099813774 -0.012437983
000190 8f ac fa bd 5b 3b 12 be 88 02 b9 3d 83 8f 19 be
       -0.12239944 -0.14280455 0.09033686 -0.14996152
0001a0 8d a3 18 bd 1b 9d 0c 3e 65 fd 53 bd 60 5b 4e bc
       -0.03726535 0.13731806 -0.051755328 -0.012595028
0001b0 59 7c b6 bc 2d 72 11 3e 42 0b 39 3b aa 39 12 3e
       -0.02227609 0.14203711 0.002823547 0.1427981
0001c0 76 1d 02 3e c1 40 bb bd 36 05 00 be b2 b5 82 3c
       0.12706551 -0.0914321 -0.12501988 0.01595578
0001d0 98 a7 01 3d 69 7b 71 bc 4b 08 1f be 1f 3d dd bc
       0.03165397 -0.014738896 -0.15530507 -0.027006684
0001e0 de 71 5b 3d c7 1f 08 3e 78 ca 3b 3d 37 be f8 bd
       0.05357539 0.13293372 0.045847386 -0.121456556
0001f0 8f 1e 4a bd ea b8 9d bd 38 6f 8f 3c 50 8a 44 3e
       -0.04934555 -0.07701285 0.017509088 0.19193387
000200 ad f6 c5 bd 20 9f ee bd 96 2e 84 bd 10 00 8d 3d
       -0.0966619 -0.116514444 -0.06454198 0.068847775
000210 6d 22 d4 3d b1 03 d8 3a b7 9c d0 3d a7 e7 02 bd
       0.10358129 0.0016480592 0.10186141 -0.031959202
000220 be 92 75 bd 4b ca 74 bd 0a a6 42 bd 87 1a 03 be
       -0.059954397 -0.059763234 -0.04752163 -0.12803088
000230 20 fa c1 bd a5 f2 36 bc c1 cd ad bc bb 5f 30 be
       -0.09471536 -0.011166249 -0.021216275 -0.17224018
000240 2e f2 0c 3e 8f a3 5d bd 20 c4 38 be bc d8 b5 bd
       0.13764259 -0.05411106 -0.18043566 -0.088792294
000250 54 af 65 bd 42 d7 93 bc 36 a3 e2 bc c4 6b 8d bd
       -0.05607541 -0.018046979 -0.027665716 -0.0690532
000260 8c 03 bf bb 0a 10 e5 3d 3c 9c 2e bd 18 f3 ac bc
       -0.0058292802 0.111847 -0.042629465 -0.02111201
000270 c6 9e 29 3d 31 2c 37 bd a0 64 e6 3d 48 10 c7 3c
       0.041411184 -0.04471988 0.112496614 0.024299756
000280 cd 95 f7 bb 63 89 1b bd 43 2d 89 3c b9 d9 d8 3d
       -0.0075556994 -0.03797282 0.016745215 0.10588402
000290 02 61 ac 3d ed a3 8f bb ef f6 14 3c d9 9e cc 3d
       0.0841694 -0.004383555 0.009092077 0.09991235
0002a0 8a 15 52 bd f7 16 03 3e dd 19 0e be cd 61 8b 3d
       -0.051290073 0.12801729 -0.13877054 0.068057634
0002b0 e8 d2 e1 bd 76 12 13 be a3 77 b4 3d 2b bf d9 3d
       -0.11026555 -0.14362511 0.088118814 0.106321655
0002c0 63 db 31 3d 6a cc c8 3d 6e cb 3e 3e 27 7f ee 3d
       0.043422114 0.09804614 0.1863229 0.11645346
0002d0 7e 11 21 3e 6a de c9 bc a4 7e 33 3d 72 c4 7a bc
       0.15729329 -0.024642188 0.043821946 -0.015305625
0002e0 2f c1 1b 3e f9 d0 43 bd 79 38 4a 3d 6a ad 8b 3d
       0.15210412 -0.047806714 0.049370263 0.068201855
0002f0 92 4e 4c bd 76 57 40 bd 30 78 de bd be 67 ea bd
       -0.049879618 -0.04695841 -0.10862768 -0.114455685
000300 a1 e8 ee bd bf 57 97 3c 6f eb f6 3c 43 c4 38 bd
       -0.11665464 0.018474458 0.03014156 -0.045109045
000310 18 b7 07 be 68 bc b9 bd 88 fa 9d bd e3 5b a3 bd
       -0.13253438 -0.09069139 -0.07713801 -0.079765104
000320 98 42 72 bd 7f cb 2d bc 8f f5 82 be 62 f5 67 3d
       -0.05914554 -0.010607599 -0.2557797 0.0566305
000330 fb 1e cc 3b 81 45 1a bc 1a 93 10 3b 00 42 0c be
       0.006229279 -0.009415985 0.0022060336 -0.13697052
000340 9f f6 20 3e a0 8b 27 bd 14 ac 36 3e 3b 43 63 bd
       0.15719078 -0.04090464 0.1783908 -0.055484038
000350 40 5d 8e bd f8 44 ba bc 19 9a 99 3c da ae a3 3d
       -0.0695138 -0.022737965 0.018750237 0.07992335
000360 85 56 5d bd db c3 db 3d d6 13 18 3d a5 55 8b be
       -0.05403759 0.10730716 0.037128292 -0.2721378
000370 dd 91 45 3d 4d 13 ce 3c 34 63 89 bd 4b 8b f4 bd
       0.04823481 0.025155688 -0.067083746 -0.119406305
000380 3a 69 40 bd e0 dc 50 be 61 72 ae 3c 70 13 6f 3c
       -0.046975352 -0.20396757 0.021294774 0.014592037
000390 b2 80 10 3d 96 f1 84 3c fd 95 90 bb 5d 15 de bd
       0.035278983 0.016228478 -0.0044124112 -0.108439185
0003a0 55 72 ce 3d 19 97 2f 3d fd 3c a5 bd fb a6 82 bd
       0.10080401 0.042868707 -0.08068273 -0.06379505
0003b0 b0 b2 af 3d 7c 26 b7 3c 92 0c 15 be 20 7b a6 3d
       0.08579004 0.022357218 -0.14555576 0.08128953
0003c0 fc 57 12 3e 42 b3 0b 3e b7 7f 7a bb dc fc 94 bd
       0.14291376 0.136426 -0.0038223097 -0.072747916
0003d0 f0 61 c2 3c 3b f5 32 3d fd 86 cd bd 0a 76 b2 3d
       0.02372834 0.0436909 -0.100355126 0.087139204
0003e0 68 7a a3 3d 20 23 ac 3c 89 13 4e 3d 6d c6 f4 3d
       0.079823315 0.021012843 0.0503116 0.11951909
0003f0 71 de 60 3d a4 f8 56 3d 54 95 bf bb 3d a7 b3 3d
       0.054899637 0.052483216 -0.0058466587 0.087721325
