results/ppo/Avoid Obstacle/Avoid Obstacle-76917.onnx (onnx, 72119 bytes, 5 tensors)

action_model._continuous_distribution.mu.weight f4 [1, 128]
-0.032087743 -0.030202774 0.051568277 0.02906179 -0.01214819 -0.017800504 0.0056321714 -0.041409407
-0.01784612 -0.005125317 0.0067541804 0.016458392 0.010983515 -0.0015729555 -0.021255769 -0.0016772953
0.011720433 0.01266725 0.019555602 -0.04979628 -0.042768493 0.010108134 0.016001625 -0.016985193
-0.019957835 0.019214982 0.022854282 -0.018127942 0.011129224 -0.04087166 -0.0075114425 -0.009928554
-0.0060187783 -0.046330683 0.018510232 -0.01582407 0.033949137 0.0030432357 -0.0006690993 -0.013538465
0.017544387 0.011357117 0.015449909 0.04869581 0.056301944 -0.0002246646 0.03790203 0.0037272512
-0.015234969 -0.039442442 -0.04140937 -0.010493223 0.017157003 -0.015881738 -0.0035755837 -0.022946648
-0.007622028 -0.0032175288 -0.012713799 0.030871568 0.0005112224 0.011815118 -0.010373082 -0.011196639
-0.018965317 0.005212239 -0.008423139 -0.012571218 -0.024521442 0.010899855 0.0067008133 0.056151684
-0.0034223213 0.02907499 -0.030864589 0.0025951734 -0.013819077 -0.006922665 0.013238077 0.005277403
0.01320244 0.00079480774 -0.007056297 -0.017054088 -0.0031177038 -0.047019634 0.014181712 -0.019426497
0.00408377 0.0237288 -0.0021545864 0.026774332 0.031377595 0.013711339 -0.018600818 -0.03480427
0.037903234 0.02501706 0.0034405964 -0.006599507 0.020955874 0.034289125 -0.021036552 0.020508673
-0.016840704 0.00092507206 -0.019676125 0.0006783309 0.0072999275 0.00017315109 0.0035296925 -0.029562311
0.005554658 0.0206265 -0.025004474 0.039899975 0.028290141 0.029605947 0.007031418 -0.026901407
-0.004860939 -0.0034121186 0.013820913 -0.011847341 0.009614781 -0.011746897 0.001277734 0.019278076
00000000: 706e 03bd cf6b f7bc 4239 533d fe12 ee3c
00000010: 3409 47bc 5dd2 91bc 148e b83b e99c 29bd
00000020: 0732 92bc 46f2 a7bb 2c52 dd3b c0d3 863c
00000030: 33f4 333c a12b ceba 9420 aebc b1d8 dbba
00000040: 0f07 403c 4c8a 4f3c 1233 a03c 2ff7 4bbd
00000050: 042e 2fbd 969c 253c d715 833c 8824 8bbc
00000060: 9d7e a3bc bd68 9d3c e738 bb3c 0d81 94bc
00000070: 5957 363c 0b69 27bd 8c22 f6bb 60ab 22bc
00000080: 2c39 c5bb 3ec5 3dbd c5a2 973c 7ba1 81bc
00000090: 400e 0b3d 0671 473b 7e66 2fba 70d0 5dbc
000000a0: 3fb9 8f3c 3413 3a3c 9d21 7d3c 4275 473d
000000b0: de9c 663d f293 6bb9 293f 1b3d e644 743b
000000c0: 179c 79bc 668e 21bd df9c 29bd c4eb 2bbc
000000d0: d88c 8c3c 6b1a 82bc 5754 6abb 9cfa bbbc
000000e0: 34c2 f9bb 2ddd 52bb 8a4d 50bc 5fe6 fc3c
000000f0: 8e03 063a 3294 413c dcf3 29bc 1c72 37bc
00000100: 275d 9bbc 6ecb aa3b 3501 0abc 83f7 4dbc
00000110: 31e1 c8bc 4e95 323c 7f92 db3b 4fff 653d
00000120: 0649 60bb ac2e ee3c bcd7 fcbc c913 2a3b
00000130: 6969 62bc 86d7 e2bb 85e4 583c 11ee ac3b
00000140: 0c4f 583c a55a 503a 8238 e7bb 04b5 8bbc
00000150: 6452 4cbb a997 40bd 695a 683c 5124 9fbc
00000160: 25d1 853b e662 c23c f633 0dbb d855 db3c
00000170: cb85 003d 86a5 603c be60 98bc ec8e 0ebd
00000180: 6c40 1b3d 94f0 cc3c a17b 613b ad40 d8bb
00000190: a7ab ab3c c172 0c3d d954 acbc ce01 a83c
000001a0: 84f5 89bc 8980 723a d32f a1bc 04d2 313a
000001b0: 3b34 ef3b e48f 3539 6a52 673b a92c f2bc
000001c0: d903 b63b e8f8 a83c 2fd6 ccbc 286e 233d
000001d0: bac0 e73c 2c88 f23c cf67 e63b 5760 dcbc
000001e0: 8348 9fbb da9d 5fbb 1c71 623c 5a1b 42bc
000001f0: 5087 1d3c 0f76 40bc a379 a73a 0eed 9d3c

network_body._body_endoder.seq_layers.0.bias f4 [128]
0.007576227 -0.007072031 0.011761869 0.0071764514 0.0008944227 0.010578035 0.006995727 -0.0047798236
-0.0055797044 4.5506706e-05 0.015774097 -0.0033367006 -0.004866053 0.011303183 -0.0007645355 -0.0045509185
-0.0073709893 0.009637347 0.0046890657 -0.0073181423 0.011262364 -0.014161189 0.009054126 -0.0058524837
0.0027371855 0.011901258 -0.0059983414 0.015168651 -0.009435035 0.007285556 0.016404858 -0.010142374
-5.633443e-05 0.010039356 0.0068678237 -0.00937737 0.007841325 -0.008348851 0.0027102216 0.019621577
0.002224203 -0.002178989 0.0026685053 0.012086856 -0.021264914 0.005979866 0.013323421 -0.0017880695
-0.0071504675 -0.004982966 -0.020326614 0.014880068 -0.006019773 0.017539237 -0.0042108255 -0.00839819
0.011655113 -0.008500856 0.0141959265 -0.0022402846 -0.0052050115 0.0072445613 -0.01877448 0.0042859414
-0.014581569 -0.0077932077 0.001959705 0.008951947 0.0016288431 -0.008608872 -0.0026302792 0.0056725466
-0.0019079057 -0.012100934 -0.0141416285 0.014144052 -0.0024015 -0.00945164 0.0047080694 -0.0008531552
0.0025677737 0.01740395 0.01772249 -0.013483904 0.015140994 0.011787174 -0.008273876 0.0067053335
0.0067236056 0.022226242 -0.0037708827 0.003937164 9.465689e-05 0.00058995467 -0.01574107 0.0048394715
-0.0023726278 -0.00079994247 -0.013980783 0.006317031 -0.014322303 0.010761929 -0.016883653 -0.0037377637
0.0019498098 -0.011946311 0.012891826 0.0008751839 -0.012135826 0.00563176 0.014313545 -0.010406092
0.010966408 0.0039843163 -0.004801187 0.005526909 -0.0095074475 -0.019018171 0.015499764 -0.014168358
-0.012683532 -0.007631116 -0.009276463 -0.020067282 0.012018444 0.008990722 -0.0025599713 0.010152842
00000000: 0042 f83b 7fbc e7bb dbb4 403c 7028 eb3b
00000010: b177 6a3a 7f4f 2d3c 693c e53b 11a0 9cbb
00000020: f4d5 b6bb 74de 3e38 ae38 813c 8cac 5abb
00000030: 6973 9fbb fc30 393c 1c6b 48ba df1f 95bb
00000040: 5788 f1bb f7e5 1d3c bca6 993b 07cd efbb
00000050: c785 383c 5504 68bc c257 143c 31c6 bfbb
00000060: 5a62 333b 7efd 423c bc8d c4bb ef85 783c
00000070: 6895 1abc acbb ee3b 7b63 863c 332c 26bc
00000080: a248 6cb8 1c7c 243c 7b0b e13b 8aa3 19bc
00000090: e778 003c 9fc9 08bc f99d 313b 6ebd a03c
000000a0: efc3 113b 5ecd 0ebb 17e2 2e3b f307 463c
000000b0: c233 aebc c0f2 c33b 7a4a 5a3c a85d eaba
000000c0: 784e eabb 2648 a3bb 0084 a6bc 87cb 733c
000000d0: 8441 c5bb 72ae 8f3c f7fa 89bb 9098 09bc
000000e0: 16f5 3e3c 2d47 0bbc 0896 683c bdd1 12bb
000000f0: cd8e aabb c963 ed3b f0cc 99bc 1571 8c3b
00000100: 88e7 6ebc 2a5e ffbb 656e 003b 30ab 123c
00000110: e87e d53a 3a0c 0dbc c360 2cbb c5e0 b93b
00000120: b112 faba ff42 46bc 4ab2 67bc 74bc 673c
00000130: 7c62 1dbb 0ddb 1abc 2646 9a3b 47a6 5fba
00000140: 1848 283b bb92 8e3c c12e 913c 98eb 5cbc
00000150: ef11 783c fe1e 413c 278f 07bc 6ab8 db3b
00000160: b151 dc3b cf13 b63c ea20 77bb 5303 813b
00000170: 8882 c638 30a7 1a3a 6bf3 80bc 6e94 9e3b
00000180: 177e 1bbb 3bb3 51ba a70f 65bc 19ff ce3b
00000190: 18a8 6abc cd52 303c 964f 8abc 45f5 74bb
000001a0: c390 ff3a 76ba 43bc 3d38 533c 996c 653a
000001b0: 58d5 46bc a18a b83b 5c83 6a3c 507e 2abc
000001c0: 73ac 333c de8e 823b 4753 9dbb 131b b53b
000001d0: 20c5 1bbc ffcb 9bbc b9f2 7d3c 6722 68bc
000001e0: 97ce 4fbc 710e fabb 4efc 17bc 2464 a4bc
000001f0: 02e9 443c d24d 133c 31c5 27bb 1b58 263c

network_body._body_endoder.seq_layers.0.weight f4 [128, 6]
0.020152936 -0.0064969636 -0.8491346 0.19759238 -0.5878808 0.021533629 -0.31824872 -0.3318125
-0.5624626 0.28679955 -0.08314016 -0.68357277 0.40707514 -0.6348722 -0.65629834 0.48966768
0.7401408 0.18322615 0.7800446 0.38893387 -0.09055392 -0.11457234 -0.03941877 -1.2975484
0.24031305 0.61856335 0.29869288 0.83645874 0.32353887 0.6416582 0.087109536 -0.13391192
0.29629746 0.5225548 0.22047801 0.114027545 -0.33373067 0.5460929 0.30679047 0.42487437
-0.6111203 0.13428769 -0.6079442 0.61843306 -0.46687227 -0.4723438 0.008546265 -0.4482134
-0.5058627 0.5175858 0.32267207 -0.5452582 0.18671228 -0.111325584 -0.025544744 0.40660843
0.22418359 -0.012454075 0.118281595 0.56034416 0.115502164 -0.15656987 0.14714475 -0.17544875
-0.4499187 0.04965244 0.25835294 -0.6098639 -0.15463568 -0.38432136 -0.21036848 0.36618087
0.42618063 0.77552575 0.37790596 0.11781551 -0.3559753 -0.27773812 -0.063853085 0.018452505
0.34040493 0.13937314 -0.019074822 0.32378286 -0.38785875 -0.79902714 0.036807347 -0.10027928
-0.24138309 0.19910902 0.46461633 0.5311683 -0.100551575 -0.46930897 0.72890013 -0.16246824
0.4655096 -1.1270237 0.093754366 -0.007073658 0.51678807 -0.9691112 0.76789224 -0.6060118
-0.24744365 -1.2037085 0.32158402 -0.07412238 -0.4203602 -0.011566227 0.18030392 -0.13035765
0.61894125 -1.211351 -0.32060868 -0.046390098 -0.52256924 0.46131328 0.14036274 0.4630776
0.94837785 0.5947977 0.09466152 -0.06115 0.06949991 0.32368347 -0.69061965 -0.2734653
0.12248957 0.81246334 0.731008 0.19540636 -0.27718204 -0.13814269 -0.03758657 -0.12859729
0.104294404 0.19284445 0.15202628 0.10454116 0.83624953 -0.025293415 -0.30909276 -0.15259995
0.13148616 -0.18167998 0.102059714 -0.6261918 0.20619278 0.6572449 0.41673332 0.29823476
0.8629365 -0.097330354 0.37852404 -0.41876304 -0.6353927 -0.012627202 0.17441261 -0.23170887
0.020018073 -0.3425049 -0.33632264 0.6111364 0.3235568 -0.09231171 -0.05453486 0.30017883
0.45869055 0.9286561 0.17819154 0.26240698 -0.08799322 0.733387 0.2201154 -0.16704911
-0.23315477 0.37394753 0.64096975 0.08214305 -0.30245528 -0.88723654 0.15319999 0.19820729
-0.19472569 0.9173046 -0.109022476 -0.7003386 -0.31484404 -0.24459445 -0.12700966 -0.39803013
0.0053617847 -0.08132789 0.2285793 -0.28783065 0.054208957 -0.9507227 0.35613987 0.3617906
0.0021272008 -0.70549685 0.6478345 0.44401726 -0.1258805 -0.34896368 0.16021693 0.32695672
0.47140175 0.67236304 0.5438395 0.042981382 0.5279382 -0.4843644 -0.7848729 1.0221324
-0.027715933 -0.3642253 0.19926277 0.6211667 0.07011507 -0.40357888 -0.120097615 -0.039574932
0.08756421 0.64342123 0.16275802 -0.17657241 0.16074789 -0.25165316 0.29533458 0.00058164046
0.3749384 0.19431941 -0.54466 0.19937962 -1.128792 -0.20016028 0.28410637 0.19733806
0.03457616 0.7359474 -0.21316886 -0.057731193 -0.70452094 -0.25467747 -0.58023727 -0.104200564
0.4866896 -0.20340955 -0.23869133 -0.12675415 0.49997213 -0.37172276 -0.20205444 -0.10663021
00000000: c517 a53c 7be4 d4bb e360 59bf a855 4a3e
00000010: 5b7f 16bf 4b67 b03c 7ff1 a2be 54e3 a9be
00000020: 8dfd 0fbf 64d7 923e 6345 aabd a0fe 2ebf
00000030: 276c d03e fc86 22bf 2b03 28bf b9b5 fa3e
00000040: de79 3d3f a39f 3b3e 01b1 473f 5722 c73e
00000050: 5574 b9bd e7a4 eabd 9375 21bd 1116 a6bf
00000060: a014 763e 2b5a 1e3f 46ee 983e 2922 563f
00000070: e3a6 a53e b643 243f 7c66 b23d 3520 09be
00000080: 4db4 973e 27c6 053f fdc4 613e 4687 e93d
00000090: bfde aabe bfcc 0b3f a413 9d3e 2289 d93e
000000a0: 6172 1cbf b682 093e 3ba2 1bbf a151 1e3f
000000b0: e209 efbe 0cd7 f1be a205 0c3c 3a7c e5be
000000c0: 3880 01bf 8180 043f 4635 a53e 0b96 0bbf
000000d0: 8131 3f3e abfe e3bd 3643 d1bc fb2e d03e
000000e0: 6290 653e 2d0c 4cbc 9f3d f23d b772 0f3f
000000f0: 668c ec3d da53 20be 1dad 163e d6a8 33be
00000100: be5b e6be 5b60 4b3d d646 843e 0a20 1cbf
00000110: d158 1ebe c5c5 c4be d66a 57be 0f7c bb3e
00000120: 5934 da3e db88 463f e47c c13e 4249 f13d
00000130: 6542 b6be b133 8ebe 68c5 82bd b529 973c
00000140: 8e49 ae3e d5b7 0e3e cd42 9cbc dec6 a53e
00000150: 6c95 c6be 0b8d 4cbf 4dc3 163d 395f cdbd
00000160: 212d 77be 3ce3 4b3e 31e2 ed3e a5fa 073f
00000170: fced cdbd 4449 f0be 3399 3a3f 135e 26be
00000180: 4657 ee3e 5042 90bf 4a02 c03d 25ca e7bb
00000190: 394c 043f ac17 78bf 9694 443f 9723 1bbf
000001a0: de61 7dbe 1f13 9abf a9a6 a43e 79cd 97bd
000001b0: 7439 d7be 4680 3dbc 97a1 383e 7a7c 05be
000001c0: ef72 1e3f 8d0d 9bbf d226 a4be 8b03 3ebd
000001d0: 19c7 05bf 4131 ec3e 40bb 0f3e 8218 ed3e
000001e0: e4c8 723f a944 183f e6dd c13d 6c78 7abd
000001f0: f855 8e3d d7b9 a53e 73cc 30bf a503 8cbe
00000200: d0db fa3d 99fd 4f3f 5723 3b3f 9b18 483e
00000210: ceea 8dbe 4775 0dbe 60f4 19bd 02af 03be
00000220: 4e98 d53d 0479 453e c7ac 1b3e ad19 d63d
00000230: 7314 563f 2334 cfbc 6841 9ebe 2943 1cbe
00000240: 4fa4 063e 510a 3abe af04 d13d 1b4e 20bf
00000250: 3324 533e 3441 283f 125e d53e 3ab2 983e
00000260: 68e9 5c3f 2355 c7bd e7cd c13e 1c68 d6be
00000270: 19a9 22bf 53e2 4ebc 3899 323e 1745 6dbe
00000280: f1fc a33c cd5c afbe 7b32 acbe 6f73 1c3f
00000290: 3da9 a53e ec0d bdbd f25f 5fbd 0ab1 993e
000002a0: 7dd9 ea3e 68bc 6d3f d877 363e 355a 863e
000002b0: ca35 b4bd 40bf 3b3f ee65 613e ec0e 2bbe
000002c0: 20c0 6ebe 0d76 bf3e 9816 243f 9e3a a83d
000002d0: 6bdb 9abe ef21 63bf 75e0 1c3e daf6 4a3e
000002e0: 2c66 47be 79d4 6a3f 2d47 dfbd 6449 33bf
000002f0: 3d33 a1be f876 7abe d20e 02be 9bca cbbe
00000300: e9b1 af3b 3d8f a6bd b110 6a3e 8a5e 93be
00000310: 360a 5e3d 9062 73bf f757 b63e 9e3c b93e
00000320: 8268 0b3b 719b 34bf 7bd8 253f 3b56 e33e
00000330: d1e6 00be 5eab b2be e80f 243e df66 a73e
00000340: 925b f13e fc1f 2c3f 1139 0b3f 3f0d 303d
00000350: f526 073f 9cfe f7be 6eed 48bf 3cd5 823f
00000360: 860c e3bc bd7b babe 8a0b 4c3e c804 1f3f
00000370: 7d98 8f3d e4a1 cebe bdf5 f5bd 5319 22bd
00000380: dd54 b33d 41b7 243f 0aaa 263e 66cf 34be
00000390: 189b 243e afd8 80be 1836 973e 3b79 183a
000003a0: edf7 bf3e abfb 463e d66e 0bbf 2c2a 4c3e
000003b0: 427c 90bf d1f6 4cbe 6476 913e fd12 4a3e
000003c0: bb9f 0d3d 0c67 3c3f f048 5abe 8b77 6cbd
000003d0: 7c5b 34bf 1665 82be 6e8a 14bf 1b67 d5bd
000003e0: 612f f93e 984a 50be 806b 74be d7cb 01be
000003f0: 59fc ff3e 7252 bebe 5ce7 4ebe f160 dabd

network_body._body_endoder.seq_layers.2.bias f4 [128]
-0.015031656 -0.01293774 0.0071106404 0.0073809833 0.0064068544 -0.011906831 0.0049727894 -0.00016795202
0.00017924713 -0.01365966 0.007085451 0.009090027 -0.009424986 -0.0107223345 -0.0067091836 -0.011385143
0.0034120816 0.010752944 0.0071464023 -0.0139226 -0.0014929521 0.0072724335 0.008355324 0.012042988
-0.00712752 0.0067986567 0.015409492 -0.008632358 0.0051306803 -0.004978098 -0.0066119335 -0.011702321
-0.009066932 -0.013358121 0.008633395 0.0009306925 0.008153513 0.0037724294 0.007802785 -0.003274445
0.0116843665 0.017082004 0.0063300487 0.014423931 0.01584826 -0.009617402 0.0071220687 0.0035126458
-0.006038353 -0.0034358494 -0.00498552 -0.006586851 0.0016926811 -0.0052229743 -0.007686454 -0.0034546154
-0.008908186 -0.0043140133 -0.0068672663 0.006695362 0.008170201 0.011717351 -0.012205371 -0.008774786
-0.016043458 0.0018220714 -0.011984932 -0.011331463 -0.0063207154 -0.0021886232 0.0052480237 0.01450834
-0.012963179 0.0052545113 -0.00610677 -0.009229448 -0.0058048326 -0.00971758 0.008830359 0.005296826
0.00997231 0.0039714356 -0.009429521 0.00087268587 -0.009104255 -0.0016963085 0.0057086563 -0.0069886674
0.008440325 0.011795119 -0.009961777 0.0076168776 0.019437663 0.008885113 -0.007609884 -0.01080554
0.008269918 0.010274663 0.008194674 -0.019410081 0.01259213 0.008698365 -0.0059264223 0.008618988
0.0084902225 0.0058408543 -0.0049873055 0.006121085 0.0062316824 -0.009336405 0.0067660646 -0.0048520393
0.015585768 0.008148026 -0.013736596 0.012406023 0.006394854 0.008972756 0.002623851 -0.013567773
-0.009709832 0.0052651614 0.015217656 -0.017528763 0.0061570513 -0.006052476 -0.01088707 0.0039880876
00000000: 5647 76bc d1f8 53bc 6000 e93b 2ddc f13b
00000010: 97f0 d13b de14 43bc c8f2 a23b 471c 30b9
00000020: 49f4 3b39 c4cc 5fbc 122d e83b 56ee 143c
00000030: 426b 1abc bbac 2fbc b6d8 dbbb c088 3abc
00000040: 3b9d 5f3b 1e2d 303c 5e2c ea3b 9e1b 64bc
00000050: 29af c3ba 984d ee3b c5e4 083c f44f 453c
00000060: f98d e9bb 44c7 de3b 1878 7c3c bc6e 0dbc
00000070: 441f a83b 501f a3bb eba8 d8bb 17bb 3fbc
00000080: 788d 14bc 05dc 5abc 1573 0d3c b7f9 733a
00000090: 5096 053c dd3a 773b 81ae ff3b 1298 56bb
000000a0: c96f 3f3c 8fef 8b3c 4c6c cf3b 5a52 6c3c
000000b0: 36d4 813c 4f92 1dbc 3e60 e93b 6b34 663b
000000c0: 60dd c5bb fd2b 61bb 935d a3bb 83d6 d7bb
000000d0: f4dc dd3a 7c25 abbb a6de fbbb d466 62bb
000000e0: a4f3 11bc 915c 8dbb ce06 e1bb c464 db3b
000000f0: 4fdc 053c 22fa 3f3c 09f9 47bc 1fc4 0fbc
00000100: 926d 83bc 92d2 ee3a 735c 44bc 9aa7 39bc
00000110: 011e cfbb 016f 0fbb 9df7 ab3b 63b4 6d3c
00000120: 8363 54bc 092e ac3b 4d1b c8bb 1c37 17bc
00000130: 7736 bebb 7c36 1fbc 36ad 103c ff90 ad3b
00000140: e662 233c d122 823b 477e 1abc f5c4 643a
00000150: 032a 15bc ab56 deba ae0f bb3b 3101 e5bb
00000160: 4a49 0a3c 5140 413c b936 23bc 0097 f93b
00000170: bc3b 9f3c dd92 113c 555c f9bb b809 31bc
00000180: 8d7e 073c 0f57 283c f442 063c e401 9fbc
00000190: 394f 4e3c 9683 0e3c 6f32 c2bb a836 0d3c
000001a0: 931a 0b3c a364 bf3b 8d6c a3bb 6293 c83b
000001b0: 2433 cc3b b9f7 18bc ddb5 dd3b dbfd 9ebb
000001c0: 735b 7f3c 4c7f 053c 760f 61bc a242 4b3c
000001d0: ec8b d13b 7702 133c eaf4 2b3b 5d4b 5ebc
000001e0: fd15 1fbc 6087 ac3b 7a53 793c 7b98 8fbc
000001f0: 17c1 c93b d953 c6bb ae5f 32bc 81ae 823b

network_body._body_endoder.seq_layers.2.weight f4 [128, 128]
0.035196528 -0.06839549 0.024887964 -0.0652829 0.0002747339 -0.15724741 0.058786422 -0.1054939
-0.22280641 -0.06066806 -0.044126984 -0.037659075 0.029088395 0.015723076 -0.028502846 -0.07027111
0.04856141 0.0626666 -0.014423801 0.016473016 -0.090768255 -0.0140541 0.0030908454 -0.12849581
-0.07528819 0.0051470227 0.067552544 0.087027214 0.059908483 -0.10388006 -0.0137758665 -0.10849426
0.002918078 -0.0007345545 -0.047149178 -0.017310472 0.09053896 -0.053174548 -0.067928664 0.036554575
-0.09927778 0.029438844 0.08515065 0.02275883 0.10644334 0.13546956 0.11870061 0.0076769623
-0.044403866 -0.010575797 0.06795941 0.07115164 -0.061702985 0.0059181526 -0.015926775 -0.023725001
0.048986383 0.027483338 -0.0030093447 0.026875151 -0.051611748 0.03533237 -0.008053664 -0.096797064
-0.09870899 -0.004380093 -0.14340138 -0.21381529 0.0929303 -0.09434502 0.10323909 -0.0044884994
-0.13406928 0.00662174 -0.02340568 0.06332122 -0.044938058 -0.012485903 -0.105460614 -0.052142944
-0.029062295 -0.02743921 0.14810212 0.12472511 0.007856397 0.070331894 0.002773712 0.02561649
0.07833744 0.055784162 0.08199943 -0.040848207 0.040706094 -0.07932002 -0.08889523 -0.077750005
0.089600615 -0.08185531 0.09962773 0.03436467 0.11097223 0.09743327 0.14893553 -0.18861973
-0.051056292 -0.10840124 -0.13962097 -0.04137338 -0.008201631 0.12647873 -0.12821797 -0.08305179
0.08838274 0.051950347 0.0062488774 -0.06971749 0.0149060255 0.16547996 0.121507175 0.06890998
0.123645805 -0.09142992 -0.07582342 0.17688665 -0.1920956 -0.040178943 0.036007334 -0.04298734
0.12834436 0.18790518 -0.05233998 -0.053743362 -0.11605291 0.023715913 0.101981625 0.13744769
0.14775829 -0.12950704 -0.011621429 -0.062009636 0.021682704 0.13161893 0.0765708 0.054074492
-0.056765515 -0.027082339 -0.20374283 -0.045651138 -0.13838232 0.038054965 -0.07644771 -0.18141866
0.12582427 -0.16901036 0.11445309 0.0048751337 0.02944324 0.05920608 -0.013802975 0.067953534
-0.13070323 0.13022183 -0.014055781 0.0188052 0.1693862 0.062612906 -0.08015258 0.0690613
-0.056605928 -0.13676594 0.013587333 -0.05304407 -0.25310114 0.039268464 -0.035866104 -0.06647087
0.010369534 0.09150755 0.05650301 0.043898325 0.016854797 0.17498198 -0.19704312 -0.036135107
-0.05084648 0.021318996 0.055095024 -0.016471695 0.11826439 -0.019502228 -0.13061547 -0.015592969
0.0084495405 -0.028862681 0.014434156 0.007598927 -0.04058628 -0.11248791 -0.029077727 0.19279201
-0.022252563 0.03922033 0.016071647 0.018181605 -0.028858198 -0.06400347 -0.004345708 0.054681744
-0.089909315 0.19010131 -0.04377618 -0.058329314 0.01633177 0.05364706 -0.0053495793 0.02249249
-0.042781595 -0.048502985 0.05726331 -0.03770941 -0.025300723 0.060444336 -0.14833018 -0.016285174
0.043681145 0.16456969 -0.044235583 0.17411883 0.046497934 0.10006825 0.022970201 0.047971472
-0.09803387 0.00047519046 -0.053814992 0.008362929 0.060471747 0.24810019 -0.030063558 0.19184177
-0.117686145 -0.06165217 0.059802372 0.118727244 0.0031690346 0.039312877 0.12842225 -0.14990556
-0.014481656 0.018190168 -0.035873197 -0.11404214 -0.030943055 -0.03267228 -0.031599943 -0.08504607
00000000: 3c2a 103d ef12 8cbd d8e1 cb3c 0bb3 85bd
00000010: 290a 9039 7705 21be 08ca 703d 300d d8bd
00000020: 5d27 64be 127f 78bd 7fbe 34bd 6740 1abd
00000030: c94a ee3c aecd 803c cd7e e9bc 4dea 8fbd
00000040: 54e8 463d 5957 803d ce51 6cbc 6bf2 863c
00000050: b5e4 b9bd 2b43 66bc c88f 4a3b 6894 03be
00000060: b230 9abd 5ba8 a83b fd58 8a3d 533b b23d
00000070: 9962 753d 12bf d4bd 2cb4 61bc 3d32 debd
00000080: 3a3d 3f3b 1e8f 40ba 7f1f 41bd b1ce 8dbc
00000090: 7e6c b93d 8ecd 59bd 2f1e 8bbd 40ba 153d
000000a0: 2652 cbbd bb29 f13c 7763 ae3d ba70 ba3c
000000b0: f7fe d93d 88b8 0a3e 4e19 f33d 078f fb3b
000000c0: d4e0 35bd 1c46 2dbc 4e2e 8b3d f3b7 913d
000000d0: 45bc 7cbd 10ed c13b de78 82bc ef5a c2bc
000000e0: f2a5 483d bd24 e13c 6d38 45bb 4729 dc3c
000000f0: d766 53bd adb8 103d 84f3 03bc 8a3d c6bd
00000100: f027 cabd e286 8fbb d0d7 12be 65f2 5abe
00000110: 3e52 be3d f637 c1bd 046f d33d 4314 93bb
00000120: 7549 09be 2efb d83b 45bd bfbc 8eae 813d
00000130: f810 38bd ac91 4cbc bcfb d7bd d793 55bd
00000140: 0d14 eebc 32c8 e0bc 15a8 173e e16f ff3d
00000150: 1eb8 003c 2b0a 903d 2ac7 353b acd9 d13c
00000160: 616f a03d ef7d 643d 51ef a73d 7350 27bd
00000170: 6fbb 263d 8972 a2bd b40e b6bd 653b 9fbd
00000180: 8780 b73d c2a3 a7bd a009 cc3d f8c1 0c3d
00000190: 6945 e33d 188b c73d 8e82 183e 8825 41be
000001a0: 6720 51bd 7801 debd cdf8 0ebe 2277 29bd
000001b0: 2260 06bc a483 013e 924b 03be 0f17 aabd
000001c0: 0302 b53d e3c9 543d 62c3 cc3b 0bc8 8ebd
000001d0: 6738 743c 9473 293e c1d8 f83d ad20 8d3d
000001e0: 033a fd3d 9c3f bbbd 4f49 9bbd c621 353e
000001f0: b5b4 44be ad92 24bd 6d7c 133d 7e13 30bd
00000200: b46c 033e 376a 403e 7262 56bd 0022 5cbd
00000210: 26ad edbd e047 c23c bedb d03d 16bf 0c3e
00000220: f34d 173e 7e9d 04be ce67 3ebc d1fd 7dbd
00000230: ed9f b13c 1dc7 063e 27d1 9c3d 377d 5d3d
00000240: f582 68bd c8db ddbc f6a1 50be b0fc 3abd
00000250: 18b4 0dbe 86df 1b3d 9e90 9cbd d0c5 39be
00000260: 14d8 003e 0d11 2dbe 6266 ea3d 96bf 9f3b
00000270: f332 f13c 1382 723d e025 62bc 392b 8b3d
00000280: 11d7 05be df58 053e 384a 66bc 5d0d 9a3c
00000290: 9373 2d3e 323b 803d 0927 a4bd 0370 8d3d
000002a0: 9edb 67bd 5f0c 0cbe 689d 5e3c bd44 59bd
000002b0: 7996 81be f8d7 203d 56e8 12bd e121 88bd
000002c0: fae4 293c 4f68 bb3d b36f 673d bbce 333d
000002d0: 1213 8a3c 7a2e 333e acc5 49be 6802 14bd
000002e0: 6644 50bd 2da5 ae3c 52ab 613d a6ef 86bc
000002f0: 9a34 f23d 23c3 9fbc 10c0 05be a779 7fbc
00000300: f16f 0a3c 6e71 ecbc 3d7d 6c3c 6b00 f93b
00000310: cd3d 26bd 1060 e6bd 6a34 eebc 456b 453e
00000320: 024b b6bc 7fa5 203d b0a8 833c 97f1 943c
00000330: 0768 ecbc 4014 83bd 7166 8ebb f7f9 5f3d
00000340: 6022 b8bd eba9 423e a74e 33bd b8ea 6ebd
00000350: 34ca 853c 05bd 5b3d 864b afbb 2c42 b83c
00000360: c13b 2fbd 11ab 46bd ef8c 6a3d 2f75 1abd
00000370: 7643 cfbc 7b94 773d dee3 17be 7c68 85bc
00000380: 00eb 323d f584 283e 5f30 35bd 354c 323e
00000390: 9e74 3e3d 95f0 cc3d 012c bc3c bc7d 443d
000003a0: fbc5 c8bd fc22 f939 1c6d 5cbd ab04 093c
000003b0: 39b1 773d fa0d 7e3e da47 f6bc 2b72 443e
000003c0: 6f05 f1bd fc86 7cbd 55f3 743d 4527 f33d
000003d0: 94af 4f3b 8a06 213d 1f81 033e d880 19be
000003e0: 7844 6dbc 8c03 953c c6ef 12bd ed8e e9bd
000003f0: 4a7c fdbc 5ed3 05bd f16e 01bd a22c aebd
