results/ppo/Avoid Obstacle/Avoid Obstacle-4391.pt (torch, 149775 bytes, 12 tensors)

network_body._body_endoder.seq_layers.0.weight f4 [128, 6]
000000 47 fc 3b 3e dc 7d a1 3e e6 a1 85 3e 74 c3 de 3e
       0.18357955 0.31541336 0.2610008 0.43508494
000010 dc b0 1a be 4d 3a 1b be 6a 12 46 be 91 3c c7 be
       -0.15106529 -0.15158959 -0.19342962 -0.38913396
000020 9b fa 30 3d 92 5e e0 3e 91 00 91 3e 4f 9c f2 bd
       0.043207746 0.4382215 0.28320745 -0.1184622
000030 9e 12 af 3e 23 e0 1f bf 90 89 00 3f a6 f7 99 3e
       0.3419389 -0.6245138 0.50209904 0.30071753
000040 75 d1 96 be 47 49 b8 be 2f 70 55 be 26 5c 13 be
       -0.29456678 -0.35993406 -0.20843576 -0.1439062
000050 92 cc b3 be 8d 71 c5 be c1 95 6a bd 0a d1 18 3f
       -0.35117012 -0.38563195 -0.057271723 0.5969397
000060 a5 be f5 3c e7 ca 85 3d c4 7a 38 be 31 21 3d bf
       0.029998133 0.06532841 -0.18015581 -0.7387877
000070 ed bd 81 bc 4e 40 d4 bb 77 70 6b bd 92 4f 2c 3e
       -0.015837634 -0.0064773923 -0.0574803 0.16827229
000080 1a fd 02 bf 18 87 1b 3e 19 58 f4 be 48 38 5b 3e
       -0.5116745 0.15188253 -0.47723463 0.21408188
000090 dc ce 4c 3f 10 17 ee be 65 ea 4e bd 76 aa 0a 3e
       0.8000314 -0.4650197 -0.050516505 0.13541588
0000a0 e0 43 40 3f 79 e1 20 3f 2f 46 9f be 66 42 c5 3e
       0.7510357 0.62844044 -0.31108233 0.3852722
0000b0 0a d2 3e 3d 7e b1 44 be 34 98 83 be ad 53 06 3f
       0.046587028 -0.19208333 -0.2570206 0.5247143
0000c0 ba b9 13 3e 0d 6b 2f 3e 32 23 c6 3d cb f9 1d 3d
       0.14426318 0.1713068 0.09674682 0.0385683
0000d0 44 e0 13 3f 4d d6 35 bd 1a 08 c5 be 28 bc cd 3e
       0.5776408 -0.044393826 -0.38482744 0.40182614
0000e0 c5 e4 18 bf 33 e8 76 bb 6b e9 54 be 7e 49 80 3e
       -0.59724075 -0.0037675023 -0.20792167 0.2505607
0000f0 4b d5 36 bf 57 cd 24 3e 93 29 ea 3e 15 88 1e 3e
       -0.7141921 0.16093956 0.45734844 0.15481599
000100 55 34 21 3e 3a 90 b0 3e 57 e0 0c bf 1b db f7 3e
       0.1574262 0.34485036 -0.55029815 0.48409352
000110 92 91 67 bd 42 19 cb be 96 4a 3c bd 8b ce ad 3c
       -0.05653531 -0.39667708 -0.04596957 0.021216651
000120 f4 a8 01 3f 49 d0 9f be 78 2c 91 bd 4f 6b 10 bf
       0.50648427 -0.31213596 -0.0708856 -0.5641374
000130 4f eb 5b 3f 80 61 83 3d 30 f0 39 bf 9d 45 12 bf
       0.8590593 0.06415081 -0.7263212 -0.5713747
000140 8c d8 02 3e d9 b9 8e 3e e0 0e 01 bf db 9a 24 3e
       0.12777919 0.27876166 -0.5041332 0.16074698
000150 0b c8 db be d1 d2 ea be d8 5f db 3e 9b 2b 19 bf
       -0.42926058 -0.45863965 0.4284656 -0.5983216
000160 e8 66 93 3f 57 e6 92 bd d4 dc 97 be 12 88 5f bf
       1.151578 -0.0717284 -0.29660666 -0.87317
000170 3d 10 94 be bb c5 fa 3e 5e ac 83 bd 8b 75 6b bd
       -0.2891864 0.4897898 -0.06429361 -0.057485145
000180 ac ef 79 3e 03 f2 9d 3e f5 b7 a9 be 95 13 04 3f
       0.24407834 0.30848703 -0.3314816 0.5159238
000190 95 d3 8d be 8d d7 81 3e 7a 93 91 3f b0 08 de be
       -0.27700487 0.25359765 1.1373131 -0.43366003
0001a0 33 d0 c7 3e 35 a9 ed 3e a5 d6 fa be f2 f3 c1 be
       0.3902603 0.46418157 -0.48991886 -0.37881428
0001b0 dc 22 27 be 30 56 bd be 94 51 96 bd c0 bf 00 bf
       -0.16321892 -0.36979818 -0.073397785 -0.5029259
0001c0 1f ed 67 3e 60 5d b6 3d a3 83 19 bf 20 dd 99 be
       0.22649048 0.089045286 -0.59966487 -0.30051517
0001d0 4b 51 fb bd c4 0c 78 be bc 59 37 bf 53 1c f3 be
       -0.12271365 -0.2422362 -0.716213 -0.47482547
0001e0 46 69 1d 3f f5 b0 e0 be c3 b5 a7 3e d3 e2 a4 3e
       0.6148876 -0.43885008 0.3275586 0.32204303
0001f0 76 61 c1 3e 29 fb cd 3e f1 8e ee be 8a 32 34 bf
       0.3776967 0.40230682 -0.4659343 -0.70389616
000200 b2 8f b1 3c 67 ae 49 bf f5 39 75 3e 50 76 1a be
       0.021674965 -0.7878174 0.2394789 -0.15084195
000210 15 15 33 3f c5 78 3b be 4b 83 ab be 92 a1 48 3f
       0.69954044 -0.18307789 -0.33498606 0.78371537
000220 23 ed 83 bd 9a 05 35 3e e5 17 22 3f c2 f2 27 be
       -0.064417146 0.17677918 0.6331771 -0.16401199
000230 2d ea a8 be 7a 4b 24 3d 0a 66 6f 3e 8e b9 52 3e
       -0.32991162 0.040111043 0.23378769 0.20578596
000240 2d 49 ab be a3 18 0e bf a7 3a 4b bc bd c1 1f 3d
       -0.33454266 -0.5550634 -0.0124041205 0.039003123
000250 36 bd e4 3e bd 32 1c bf 02 c7 1e bf a6 50 c1 be
       0.44675606 -0.6101492 -0.6202241 -0.37756842
000260 23 a6 17 bd 84 4f 01 bf 07 28 0d 3f 7a bd b3 3e
       -0.037023675 -0.50511956 0.551392 0.35105497
000270 6f 45 ed bd 94 93 41 3f 25 71 f8 be a2 04 30 3e
       -0.11585509 0.7561581 -0.48523822 0.17189267
000280 da b5 b8 be 3c fb e8 3e 91 fc 50 3e 63 9e 49 3f
       -0.36076242 0.45504177 0.20408846 0.78757304
000290 47 37 42 be 5b 09 84 be f7 f3 77 be a0 bb 2e 3d
       -0.18966399 -0.25788388 -0.24214159 0.042659402
0002a0 f9 ac a4 3e 25 7d 93 be b5 f1 f7 be ab 2a 1f 3e
       0.32163218 -0.28806415 -0.48426595 0.1554362
0002b0 f7 a8 51 3f 7e c4 d8 bd bd 6e 08 3f 56 9b 00 3e
       0.81898445 -0.10584353 0.53293973 0.12559256
0002c0 67 93 b3 bb 0c 1b fb bd e1 fa 65 3e 6e 44 c6 bd
       -0.005480218 -0.12261018 0.22458984 -0.09681021
0002d0 bd 75 37 3f 05 1d 66 be b3 67 55 3f 4b bc 03 bf
       0.7166403 -0.22472008 0.8336136 -0.5145919
0002e0 15 61 3b be f7 22 a9 be f6 94 2e 3f f1 b1 38 be
       -0.18298753 -0.3303449 0.68196046 -0.1803663
0002f0 c8 33 c0 3e b6 e5 94 3e c7 f3 1b bf a5 7a 39 bf
       0.37539506 0.29081506 -0.6091885 -0.72452766
000300 26 b7 21 be 32 3b 18 be 5d 5d 37 be 3f 53 ff 3e
       -0.15792522 -0.14866331 -0.17906709 0.498682
000310 37 b9 81 be 55 0c 91 be bb 28 3a 3f 55 3e b8 be
       -0.2533662 -0.2832972 0.727184 -0.35985056
000320 55 66 a9 be bf 77 44 3e b7 f0 ab bd e2 83 b1 be
       -0.33085886 0.19186305 -0.08395522 -0.3467093
000330 16 bd 8e 3e bf ed d2 bd 4b 11 85 3e 0f ce 06 be
       0.27878636 -0.10299253 0.25989756 -0.13164543
000340 9e 8b e1 3e 99 29 89 be ec a3 fa be 53 16 25 3f
       0.44051832 -0.2678955 -0.48953187 0.6448719
000350 67 d5 a6 3d dc 85 0e bf e1 72 f8 bc 57 d7 90 bd
       0.08146172 -0.55673003 -0.030328216 -0.07072323
000360 82 87 f3 3c 8b a4 05 bf c0 7a 07 be 18 14 97 be
       0.029727701 -0.522042 -0.13230419 -0.29507518
000370 bb 43 b1 be 69 89 73 bf 73 3b 5c bf 9c 93 55 3f
       -0.34621987 -0.95131546 -0.8602821 0.8342836
000380 45 97 98 be 2f a8 6b 3e 27 ce dd bc 1b a3 19 be
       -0.2980291 0.23013376 -0.02707584 -0.15003626
000390 0b 65 06 bf c4 ac 52 be 51 5d cd bc 86 94 42 3c
       -0.5249793 -0.20573717 -0.02506891 0.011876231
0003a0 9b 2e 3a 3f 40 04 fa 3e 84 93 bf be 56 ae 56 be
       0.72727364 0.48831367 -0.37417233 -0.20964941
0003b0 b0 54 22 bf 13 e5 1c be 27 e9 0b be 18 ab 6b be
       -0.6341047 -0.1532176 -0.1366316 -0.23014486
0003c0 01 10 9a be e8 c8 93 3e 41 3c 0e 3e 99 b9 77 be
       -0.30090335 0.28864217 0.13890173 -0.24191894
0003d0 b8 6d 8d 3e 09 35 66 bf 26 78 ca be a3 16 19 3f
       0.2762277 -0.89924675 -0.3954479 0.59800166
0003e0 aa 5f 81 3e fa bc 94 bd 6d c8 99 be b3 be 5f be
       0.25268298 -0.07262607 -0.30035725 -0.2185009
0003f0 a4 75 66 3e e8 5e 15 3f 92 2b 13 3e 4f 6e 37 3e
       0.22505814 0.5834794 0.1437209 0.17913173

network_body._body_endoder.seq_layers.0.bias f4 [128]
000000 00 00 00 00 00 00 00 00 00 00 00 00 00 00 00 00
       0.0 0.0 0.0 0.0
000010 00 00 00 00 00 00 00 00 00 00 00 00 00 00 00 00
       0.0 0.0 0.0 0.0
000020 00 00 00 00 00 00 00 00 00 00 00 00 00 00 00 00
       0.0 0.0 0.0 0.0
000030 00 00 00 00 00 00 00 00 00 00 00 00 00 00 00 00
       0.0 0.0 0.0 0.0
000040 00 00 00 00 00 00 00 00 00 00 00 00 00 00 00 00
       0.0 0.0 0.0 0.0
000050 00 00 00 00 00 00 00 00 00 00 00 00 00 00 00 00
       0.0 0.0 0.0 0.0
000060 00 00 00 00 00 00 00 00 00 00 00 00 00 00 00 00
       0.0 0.0 0.0 0.0
000070 00 00 00 00 00 00 00 00 00 00 00 00 00 00 00 00
       0.0 0.0 0.0 0.0
000080 00 00 00 00 00 00 00 00 00 00 00 00 00 00 00 00
       0.0 0.0 0.0 0.0
000090 00 00 00 00 00 00 00 00 00 00 00 00 00 00 00 00
       0.0 0.0 0.0 0.0
0000a0 00 00 00 00 00 00 00 00 00 00 00 00 00 00 00 00
       0.0 0.0 0.0 0.0
0000b0 00 00 00 00 00 00 00 00 00 00 00 00 00 00 00 00
       0.0 0.0 0.0 0.0
0000c0 00 00 00 00 00 00 00 00 00 00 00 00 00 00 00 00
       0.0 0.0 0.0 0.0
0000d0 00 00 00 00 00 00 00 00 00 00 00 00 00 00 00 00
       0.0 0.0 0.0 0.0
0000e0 00 00 00 00 00 00 00 00 00 00 00 00 00 00 00 00
       0.0 0.0 0.0 0.0
0000f0 00 00 00 00 00 00 00 00 00 00 00 00 00 00 00 00
       0.0 0.0 0.0 0.0
000100 00 00 00 00 00 00 00 00 00 00 00 00 00 00 00 00
       0.0 0.0 0.0 0.0
000110 00 00 00 00 00 00 00 00 00 00 00 00 00 00 00 00
       0.0 0.0 0.0 0.0
000120 00 00 00 00 00 00 00 00 00 00 00 00 00 00 00 00
       0.0 0.0 0.0 0.0
000130 00 00 00 00 00 00 00 00 00 00 00 00 00 00 00 00
       0.0 0.0 0.0 0.0
000140 00 00 00 00 00 00 00 00 00 00 00 00 00 00 00 00
       0.0 0.0 0.0 0.0
000150 00 00 00 00 00 00 00 00 00 00 00 00 00 00 00 00
       0.0 0.0 0.0 0.0
000160 00 00 00 00 00 00 00 00 00 00 00 00 00 00 00 00
       0.0 0.0 0.0 0.0
000170 00 00 00 00 00 00 00 00 00 00 00 00 00 00 00 00
       0.0 0.0 0.0 0.0
000180 00 00 00 00 00 00 00 00 00 00 00 00 00 00 00 00
       0.0 0.0 0.0 0.0
000190 00 00 00 00 00 00 00 00 00 00 00 00 00 00 00 00
       0.0 0.0 0.0 0.0
0001a0 00 00 00 00 00 00 00 00 00 00 00 00 00 00 00 00
       0.0 0.0 0.0 0.0
0001b0 00 00 00 00 00 00 00 00 00 00 00 00 00 00 00 00
       0.0 0.0 0.0 0.0
0001c0 00 00 00 00 00 00 00 00 00 00 00 00 00 00 00 00
       0.0 0.0 0.0 0.0
0001d0 00 00 00 00 00 00 00 00 00 00 00 00 00 00 00 00
       0.0 0.0 0.0 0.0
0001e0 00 00 00 00 00 00 00 00 00 00 00 00 00 00 00 00
       0.0 0.0 0.0 0.0
0001f0 00 00 00 00 00 00 00 00 00 00 00 00 00 00 00 00
       0.0 0.0 0.0 0.0

network_body._body_endoder.seq_layers.2.weight f4 [128, 128]
000000 4b fd c7 bd 06 3f 77 bd ba 88 8c 3d ed 63 fb bd
       -0.09765109 -0.06036284 0.06862016 -0.12274919
000010 18 07 96 bd 36 09 e5 3d 4a 05 aa 3c c3 be 96 3c
       -0.07325572 0.111833975 0.020754475 0.01840151
000020 55 14 a3 3d 92 cc fe 3d 49 80 3d 3c 9b 15 21 3d
       0.079628624 0.124413624 0.01156623 0.039327245
000030 f8 91 9b 3d 94 68 d4 bb 4a 3c a5 bd 39 ba 2c 3e
       0.07596201 -0.0064821932 -0.0806814 0.16867913
000040 6d ed 72 3b 7e 99 1c be 61 f7 44 3b 4f 5e da bd
       0.0037067786 -0.15292928 0.0030054676 -0.10662519
000050 0b 1e 1a 3d 9a 41 20 3e 5a 4f 67 3d 57 ed ba bc
       0.037626307 0.15650025 0.05647216 -0.02281825
000060 8b c9 50 3c d0 c2 dc 3d cc 43 a4 bd 01 c9 ea 3c
       0.012743364 0.10779345 -0.08020744 0.0286603
000070 62 99 31 be e9 43 21 be 10 03 05 3c 70 fc f2 bd
       -0.17343667 -0.15748562 0.008118406 -0.11864555
000080 53 30 80 bd cf 3b f1 3d 55 db e0 3d c0 a6 cb 3d
       -0.06259217 0.11778986 0.10979334 0.099439144
000090 fa 66 c9 3d ad f3 29 3d b2 c3 36 bd 58 51 95 3d
       0.09834094 0.041492153 -0.044620223 0.07290906
0000a0 5b 34 b7 3d 57 aa 37 3e b8 f8 81 3d 23 b9 18 be
       0.08945533 0.17936073 0.063462675 -0.14914374
0000b0 25 84 df 3d f5 34 14 bc e1 a5 18 3d 48 cb aa 3b
       0.109138764 -0.009045829 0.03726757 0.0052122213
0000c0 4c 5d 8f 3d 8e ba 81 3d 1e 2d bf 3d a8 df 64 be
       0.07000217 0.063344106 0.09334777 -0.22350943
0000d0 50 45 3a bd cb de c9 bd d9 46 96 bd f1 2f 8c bd
       -0.045476258 -0.098569475 -0.07337732 -0.068450816
0000e0 05 ce f8 bd 80 90 cb 3d ca 34 aa 3c 53 71 0d 3b
       -0.1214867 0.099396706 0.020777125 0.002158244
0000f0 d8 1a 4b 3e a8 e3 98 3c ab 8b 11 3e 84 8e 93 3d
       0.19834459 0.018663242 0.14213435 0.07204917
000100 75 2b 53 3d d7 97 c6 bd f5 f8 63 bc 01 d9 8c bd
       0.051555116 -0.0969693 -0.013914336 -0.06877328
000110 91 28 18 bb 9d 99 a6 3d 7f b0 84 3c 1c 76 b7 bd
       -0.002321754 0.08134768 0.016197441 -0.089580745
000120 b6 cf 9b bd c3 22 50 3d 34 96 94 3a c2 6d df bb
       -0.07607977 0.0508144 0.0011336268 -0.006818504
000130 64 f5 6a bb 16 f3 06 3d cc 05 b0 3d be a3 ed bd
       -0.003585183 0.03294667 0.08594856 -0.11603497
000140 88 b2 82 bb 41 ff b5 bc f5 c7 21 be 44 74 b3 bd
       -0.0039885677 -0.022216441 -0.15798934 -0.0876241
000150 99 81 04 3d 34 cb 7d 3c 24 17 5e 3d 56 6b ac 3d
       0.032350156 0.015490342 0.054221287 0.0841891
000160 0b b8 17 be 29 13 d9 3d 10 8b 20 bd c5 42 dd 3d
       -0.148163 0.10599358 -0.03919512 0.10803751
000170 df 16 03 3e 36 14 49 ba 3c 64 bd 3d 1a 3a 3e bc
       0.12801693 -0.0007670553 0.09247634 -0.011610532
000180 7e 51 dc bd 2f b4 0e bd 4c 4d 85 39 66 24 8a bd
       -0.10757731 -0.034839805 0.00025425327 -0.06745224
000190 d4 17 53 3d 0e 69 91 be f8 14 19 be 86 bf e5 3d
       0.051536396 -0.28400463 -0.14949405 0.11218171
0001a0 85 b0 26 3b f5 82 95 bd 6e 04 ba 3c e5 c3 7e ba
       0.0025434804 -0.07300369 0.02270719 -0.00097185216
0001b0 6b 51 f2 3d 96 3a b2 3d bc 1c a8 3d f1 ff d4 bd
       0.118319355 0.08702581 0.08208606 -0.104003794
0001c0 f4 07 41 3e fc 1c b7 bc 9d a8 38 bd 86 f6 6d bd
       0.1885069 -0.022352688 -0.045082677 -0.05809643
0001d0 29 27 05 3d f8 cc 57 be 8a c5 a2 3d 5d ac 6f bd
       0.03250805 -0.21074283 0.07947834 -0.058513988
0001e0 14 4c 02 bd 8e 04 00 3d d9 ec 1e 3d da c9 8b bd
       -0.031810835 0.031254344 0.038800094 -0.068256095
0001f0 62 47 5e 3d d0 94 6d bd 40 93 35 3e 6b 18 b5 3d
       0.054267295 -0.058003247 0.17731953 0.08842548
000200 8a 19 70 3d d1 f1 7d 3d 03 92 b4 bd e4 69 10 be
       0.058618106 0.061998192 -0.08816912 -0.14102894
000210 ac cd 04 3d 13 c8 11 be f3 1b 0c 3d d4 4b 58 be
       0.032422706 -0.14236479 0.034206342 -0.21122676
000220 b4 15 c9 bc ec 30 07 bd bd dc 49 3e 98 1c 00 3d
       -0.024546482 -0.03300564 0.19713111 0.03127727
000230 83 a2 99 3d ab 84 fd bd 19 df 78 bd 9d 3f 1f be
       0.075017 -0.1237882 -0.060759638 -0.1555161
000240 bb 0b 29 bd 2a ec 98 bc c4 ac 35 bd 99 5c 1c bd
       -0.041270953 -0.0186673 -0.044354215 -0.038174246
000250 80 e5 1c 3d 69 19 fd bd 34 d8 b3 bd 7a 6b 1c bd
       0.038304806 -0.12358362 -0.08781472 -0.038188435
000260 8d 83 27 bd 44 42 c5 3c d3 38 1d bb e5 da 07 bd
       -0.04089694 0.02407945 -0.0023990169 -0.03316774
000270 3e 22 b4 3d 0f c4 d8 3d 82 96 5b bd fb 5a 0e 3e
       0.08795594 0.1058427 -0.053610332 0.13901894
000280 b4 3b d0 bd 6a 81 7e b9 7b 24 9f 3d e5 2b 48 3d
       -0.101676375 -0.00024271538 0.0777063 0.048869986
000290 56 5e e9 bc 62 95 51 be e8 8d 05 bd d8 c1 b3 bd
       -0.028487366 -0.20467141 -0.032606035 -0.08777207
0002a0 53 a4 3b 3b f4 28 1b bd 98 cf 34 bd 74 73 ac 3d
       0.002863188 -0.037880853 -0.04414329 0.084204584
0002b0 04 39 73 3d 78 6a 1c be bb ff 27 bd 81 ee 95 3d
       0.059380546 -0.1527499 -0.041015368 0.07320882
0002c0 72 64 8c 3d 8f df 53 3c d2 b1 2a be d6 28 66 3d
       0.06855096 0.0129317185 -0.16669396 0.056191288
0002d0 06 b9 ef 3c 2c cc 79 3c fa 32 c9 3d 0e ba 9d bd
       0.02926303 0.015246432 0.09824176 -0.07701503
0002e0 de c4 20 3e ed ab ab 3c 88 65 21 3e 63 b0 c2 3d
       0.15700099 0.020956004 0.15761387 0.09506299
0002f0 8b 16 a9 3c e6 69 23 3d ff 3b 65 3d 7a 2b 0a bb
       0.020640632 0.039895914 0.05596542 -0.0021083043
000300 c0 44 73 bb 2e 04 4a 3d f4 20 40 bd f5 36 66 be
       -0.0037119836 0.049320392 -0.046906427 -0.22481902
000310 19 dd 45 3d a4 0c f8 bc 57 c4 ba 3d 93 e6 d1 3d
       0.04830656 -0.030279465 0.0911948 0.10249057
000320 93 65 07 3c da 66 be 3b 53 46 a9 bd 99 ac c2 bc
       0.008263963 0.0058106007 -0.082653664 -0.023763942
000330 bc bc 49 be d4 25 80 3c 9b 9d 3e bd a1 fe 85 3d
       -0.19700903 0.015643038 -0.046537023 0.06542707
000340 27 87 e0 bd 4b 2e ba bc d5 ab 86 3d ef 75 63 3d
       -0.10963278 -0.022727152 0.06575743 0.055532392
000350 8f 7b 28 be ec 7c 03 be aa c5 cc bd 4c ac 30 3d
       -0.16453384 -0.12840623 -0.09998639 0.043133065
000360 41 a2 85 3d 36 83 ac be 06 17 c2 bc e2 71 1d ba
       0.06525088 -0.33693856 -0.023692619 -0.00060060446
000370 f0 64 5a 3e ca ee 79 3c ca 70 85 bd 65 97 65 b9
       0.21327567 0.015254686 -0.065156534 -0.0002189554
000380 e3 d9 d9 bd 5c 6e 5d 3d 84 9d c4 3d b3 69 14 3e
       -0.10637262 0.054060325 0.09600356 0.14493446
000390 02 a2 fe bd d2 56 7a 3c 00 ef 6b 3c a7 6d 97 bd
       -0.12433244 0.015279489 0.014400244 -0.073939614
0003a0 20 99 82 bd a4 60 39 3d f5 8f f4 bc 0a c6 cb bc
       -0.063768625 0.04525818 -0.0298538 -0.024874706
0003b0 5c 1f 28 3d 40 41 17 3b 77 8f 35 be ae 5e 98 bd
       0.04104553 0.0023079664 -0.17730509 -0.07439934
0003c0 4f 79 d4 3d d6 77 d9 3d da f6 9e 3d cc 9c 4a bd
       0.103747 0.1061856 0.07761927 -0.04946594
0003d0 b0 a4 8a bd 4f 60 a1 bd 9e 26 07 bd 9e c0 44 bd
       -0.06769693 -0.078796975 -0.032995813 -0.048035257
0003e0 c9 ed 44 bd 38 06 9e bc 45 55 8f bb 4d 55 dc 3b
       -0.048078332 -0.019290075 -0.0043741786 0.006724036
0003f0 6f ac 21 bd ab 5c bf bd 0b 46 37 bd 21 ee 2c bd
       -0.039471086 -0.09343847 -0.044744533 -0.042219285

network_body._body_endoder.seq_layers.2.bias f4 [128]
000000 00 00 00 00 00 00 00 00 00 00 00 00 00 00 00 00
       0.0 0.0 0.0 0.0
000010 00 00 00 00 00 00 00 00 00 00 00 00 00 00 00 00
       0.0 0.0 0.0 0.0
000020 00 00 00 00 00 00 00 00 00 00 00 00 00 00 00 00
       0.0 0.0 0.0 0.0
000030 00 00 00 00 00 00 00 00 00 00 00 00 00 00 00 00
       0.0 0.0 0.0 0.0
000040 00 00 00 00 00 00 00 00 00 00 00 00 00 00 00 00
       0.0 0.0 0.0 0.0
000050 00 00 00 00 00 00 00 00 00 00 00 00 00 00 00 00
       0.0 0.0 0.0 0.0
000060 00 00 00 00 00 00 00 00 00 00 00 00 00 00 00 00
       0.0 0.0 0.0 0.0
000070 00 00 00 00 00 00 00 00 00 00 00 00 00 00 00 00
       0.0 0.0 0.0 0.0
000080 00 00 00 00 00 00 00 00 00 00 00 00 00 00 00 00
       0.0 0.0 0.0 0.0
000090 00 00 00 00 00 00 00 00 00 00 00 00 00 00 00 00
       0.0 0.0 0.0 0.0
0000a0 00 00 00 00 00 00 00 00 00 00 00 00 00 00 00 00
       0.0 0.0 0.0 0.0
0000b0 00 00 00 00 00 00 00 00 00 00 00 00 00 00 00 00
       0.0 0.0 0.0 0.0
0000c0 00 00 00 00 00 00 00 00 00 00 00 00 00 00 00 00
       0.0 0.0 0.0 0.0
0000d0 00 00 00 00 00 00 00 00 00 00 00 00 00 00 00 00
       0.0 0.0 0.0 0.0
0000e0 00 00 00 00 00 00 00 00 00 00 00 00 00 00 00 00
       0.0 0.0 0.0 0.0
0000f0 00 00 00 00 00 00 00 00 00 00 00 00 00 00 00 00
       0.0 0.0 0.0 0.0
000100 00 00 00 00 00 00 00 00 00 00 00 00 00 00 00 00
       0.0 0.0 0.0 0.0
000110 00 00 00 00 00 00 00 00 00 00 00 00 00 00 00 00
       0.0 0.0 0.0 0.0
000120 00 00 00 00 00 00 00 00 00 00 00 00 00 00 00 00
       0.0 0.0 0.0 0.0
000130 00 00 00 00 00 00 00 00 00 00 00 00 00 00 00 00
       0.0 0.0 0.0 0.0
000140 00 00 00 00 00 00 00 00 00 00 00 00 00 00 00 00
       0.0 0.0 0.0 0.0
000150 00 00 00 00 00 00 00 00 00 00 00 00 00 00 00 00
       0.0 0.0 0.0 0.0
000160 00 00 00 00 00 00 00 00 00 00 00 00 00 00 00 00
       0.0 0.0 0.0 0.0
000170 00 00 00 00 00 00 00 00 00 00 00 00 00 00 00 00
       0.0 0.0 0.0 0.0
000180 00 00 00 00 00 00 00 00 00 00 00 00 00 00 00 00
       0.0 0.0 0.0 0.0
000190 00 00 00 00 00 00 00 00 00 00 00 00 00 00 00 00
       0.0 0.0 0.0 0.0
0001a0 00 00 00 00 00 00 00 00 00 00 00 00 00 00 00 00
       0.0 0.0 0.0 0.0
0001b0 00 00 00 00 00 00 00 00 00 00 00 00 00 00 00 00
       0.0 0.0 0.0 0.0
0001c0 00 00 00 00 00 00 00 00 00 00 00 00 00 00 00 00
       0.0 0.0 0.0 0.0
0001d0 00 00 00 00 00 00 00 00 00 00 00 00 00 00 00 00
       0.0 0.0 0.0 0.0
0001e0 00 00 00 00 00 00 00 00 00 00 00 00 00 00 00 00
       0.0 0.0 0.0 0.0
0001f0 00 00 00 00 00 00 00 00 00 00 00 00 00 00 00 00
       0.0 0.0 0.0 0.0

action_model._continuous_distribution.log_sigma f4 [1, 3]
000000 00 00 00 00 00 00 00 00 00 00 00 00
       0.0 0.0 0.0

action_model._continuous_distribution.mu.weight f4 [3, 128]
000000 7e 31 bd bc 1a a8 79 3b 92 14 59 3b 4d f7 f4 bb
       -0.023094889 0.003809458 0.0033123833 -0.0074757696
000010 13 ca 4f 3b 04 6f b0 3c ff d6 6b bc 95 b5 d7 ba
       0.003170614 0.021537311 -0.014394521 -0.0016457314
000020 8f 70 6a bc e2 3d 1e 3c 9a e7 56 bc 2f f2 89 3c
       -0.014309063 0.009658309 -0.013116742 0.016839115
000030 99 35 04 bd 27 af 6d 3c 78 74 d1 3c 2a 25 a4 3c
       -0.032277677 0.014507092 0.025568232 0.020037252
000040 a3 70 0d bc 3f 18 80 bc 53 e8 84 3c db 66 0a 3d
       -0.008632812 -0.015636561 0.016224062 0.033789497
000050 b7 12 a3 3b eb 10 bd 3c f0 7a 4e 3b 30 a3 86 bc
       0.004976596 0.023079356 0.0031506382 -0.016435236
000060 17 2e b8 bb b4 f0 a9 39 53 9e 8f 3b e3 f4 76 3b
       -0.0056207287 0.0003241353 0.0043828874 0.0037682585
000070 72 c8 99 3c 04 47 15 3c dd ba 00 bc 67 4e a4 3c
       0.018772338 0.00911117 -0.007857052 0.020056916
000080 48 f6 51 3d 02 0e 73 bc 7f 4a e5 bb c7 1d 4c bb
       0.051260263 -0.014834883 -0.006997406 -0.0031145678
000090 c6 86 c2 bb 7b 2e 7e bc 0d cd f5 3b af d1 99 bc
       -0.0059364764 -0.0155140115 0.0075012506 -0.018776743
0000a0 a3 8d 16 bc 40 fb 8d 3c f2 f3 15 3b 3b ba 9e 3b
       -0.009189042 0.01733172 0.0022880998 0.0048439777
0000b0 30 4b 23 3c bd ad 89 3c f7 20 e7 bc 7c 7f 3e bb
       0.009966657 0.016806478 -0.028213961 -0.0029067686
0000c0 9d 5f d3 bb d0 1f 9e bc af 41 65 3c 4a 24 45 3c
       -0.006450607 -0.019302279 0.013992711 0.012032578
0000d0 a8 f0 aa 3c 7f 80 4c bc d3 70 0a 3d ad c8 26 bc
       0.020866707 -0.012481808 0.033799004 -0.010179681
0000e0 b5 49 f9 bc 38 c1 1e 3d 5d c8 34 ba 7b 65 97 bb
       -0.030430654 0.038758487 -0.00068963115 -0.0046202517
0000f0 fb 43 b7 bc db 4f 9d ba b7 f3 7b bb b3 19 82 3c
       -0.022371283 -0.0012001948 -0.0038444826 0.015881395
000100 71 c6 38 bc 00 cb f9 3b f7 25 f2 bc a3 ca 44 bc
       -0.011277781 0.0076230764 -0.029559119 -0.012011203
000110 7d 71 ad ba 06 60 94 3c a3 e4 43 bd 32 c0 3e 3c
       -0.0013232675 0.018112194 -0.047825467 0.011642503
000120 0c e2 1c bc e7 66 9e 3a da 8d 06 3c 2b 8e b7 3c
       -0.009575378 0.0012085111 0.008212531 0.022406658
000130 64 40 84 bc 8a a9 eb bc db c8 46 bc ab a5 74 bc
       -0.016143985 -0.028767366 -0.012132849 -0.014932076
000140 82 25 05 bd db b4 fe 3c 55 8f 87 bc 1c f0 26 bc
       -0.032506473 0.031092098 -0.016547838 -0.0101890825
000150 4d ff 72 bc a0 96 f1 bb 89 f7 4a 3a 50 4f 11 3d
       -0.014831376 -0.007372692 0.0007742574 0.03547603
000160 bf dd 08 3d a2 84 5c 3c c3 64 c3 bc 18 2a 46 3c
       0.0334146 0.0134593565 -0.023851758 0.012094997
000170 48 01 e3 3c 0a ff c8 3a 58 b1 27 bd 41 e1 aa bc
       0.027710572 0.0015334797 -0.040940613 -0.020859363
000180 88 3f 6f 3b c8 4c 00 bd a4 14 89 bc 2c 5f 0c 3d
       0.0036506373 -0.031323224 -0.016733475 0.03427045
000190 9d 77 9d 3c d5 83 6e bb 87 b5 04 bc ca 94 c7 ba
       0.019222075 -0.0036394496 -0.00809992 -0.0015226838
0001a0 c7 d1 94 bc 8c bf 1d ba ed fc 57 bc 4f ca 01 bd
       -0.018166436 -0.00060176174 -0.013182861 -0.031687077
0001b0 27 8c fa 3c ed 7f 67 3c 2b 5f e0 bb aa 60 f2 3c
       0.030584408 0.014129621 -0.0068472824 0.029587109
0001c0 9d 07 63 bc 28 65 88 bc fa 90 60 3c 1e 4d 22 3d
       -0.013856796 -0.016649798 0.01370644 0.039624326
0001d0 b8 6a bc bc 22 12 36 39 7d 41 b2 bc 57 a3 c2 3c
       -0.023000106 0.00017363628 -0.021759743 0.023759527
0001e0 8d 4a d5 ba 1e 06 96 bb 1f 4b 7a bc c6 2a 08 bc
       -0.0016272828 -0.004578366 -0.015276699 -0.008310979
0001f0 9d ce c8 ba 16 45 1b 3b 25 44 77 3c f1 14 42 bb
       -0.0015320365 0.0023692301 0.0150919305 -0.0029614533
000200 4b a5 b5 3c f7 3f ab 3a 4f b7 a0 3a 09 71 34 3d
       0.022173544 0.0013065328 0.0012261661 0.04405311
000210 5d a6 fc 3a 3d 32 28 bc 28 be 86 3c db 83 cd bc
       0.0019275654 -0.010265884 0.016448095 -0.025087288
000220 78 15 67 3c a7 b1 9f bb b0 a9 e8 3c 18 86 90 bb
       0.01410424 -0.0048734727 0.028401226 -0.0044105165
000230 fe 26 c2 bc ef 34 74 3c 88 7e 5d 3c 16 4f 92 3c
       -0.023700234 0.0149051985 0.013518937 0.017859977
000240 aa 13 ae bc 1b 5b 76 bc e9 2e 38 3d d8 f4 03 3d
       -0.02124961 -0.01503637 0.044966612 0.032215923
000250 38 ff c3 ba 3f a9 16 bb c7 9b 80 3c b3 82 4d 3c
       -0.001495338 -0.0022989062 0.01569928 0.012543368
000260 bb e4 2b 3d 9f b3 ac bb 7b e4 cf 3b fc 0f 87 3c
       0.04196618 -0.005270436 0.0063443757 0.016487114
000270 c1 51 17 bb 0c ed 15 3c 43 cf 35 3a 37 cc 87 bb
       -0.00230895 0.009150755 0.00069354865 -0.0041442174
000280 83 5e ed 3c 7f 61 09 bc 1b e3 a3 bc 58 70 e6 3c
       0.02897573 -0.008385061 -0.020005753 0.028129742
000290 40 fa ef bb c6 ae 9e bc 3f 47 fa 3b 1a 97 57 bc
       -0.0073235333 -0.019370448 0.0076378877 -0.013158584
0002a0 cf a1 ad bb bb e0 fb 3c 2c 61 43 bc 0d 68 07 bd
       -0.00529883 0.030746808 -0.011925023 -0.033058215
0002b0 e7 ac 9e bb ff 07 34 3c 1c 00 37 3d 5d d6 07 bd
       -0.004842389 0.010988235 0.04467784 -0.033163417
0002c0 70 34 99 3c c7 f7 76 3b 41 93 96 ba af 08 56 bc
       0.018701762 0.0037684308 -0.0011487977 -0.013063594
0002d0 c2 46 65 bc 90 f2 f2 3c 9a 1e dd 3c e2 c4 00 3d
       -0.013993921 0.029656678 0.026992131 0.031437762
0002e0 20 f0 08 3d 02 4c 73 bb eb b5 59 bc 23 b5 07 3b
       0.033432126 -0.0037124162 -0.0132880015 0.002070733
0002f0 3a c4 83 3c 0b 83 2c 3d f3 b4 2d bb 3b 9c 1b bc
       0.016084779 0.04211716 -0.002650556 -0.009497697
000300 47 17 bf 3c e2 21 83 bc b8 f6 03 bc 0b 64 bb 3c
       0.02332653 -0.016007368 -0.008054428 0.022874853
000310 b7 f8 3d 3c 1a f4 90 39 88 84 d9 bc b7 21 9b 3b
       0.011594943 0.0002764769 -0.026552454 0.0047342437
000320 57 55 d8 b6 ea 35 5c bc ed 85 f5 bc 68 3a c1 bc
       -6.4472365e-06 -0.0134405885 -0.029971087 -0.02358742
000330 ef 9b 4e 3c 88 93 e5 3c ff ac 84 3b 87 65 64 3c
       0.01261042 0.02802445 0.004048943 0.013940222
000340 51 fe 49 bc 65 b4 5e 3c 3a 58 c8 3c 02 0c ba 3b
       -0.0123287 0.013592814 0.024456132 0.005677701
000350 ad 62 6b 3c be 4a 2e 3d 75 95 85 bc 32 9f 6b 3c
       0.014366788 0.04255175 -0.016306618 0.014381217
000360 ce f3 29 bc b8 f0 6f bc 60 b7 cd 3c 34 bc 2c 3c
       -0.010373069 -0.014644794 0.025111854 0.010542918
000370 71 c2 44 bd 77 05 ca bb 03 00 31 3c 51 17 a2 3a
       -0.048036996 -0.0061652022 0.010803225 0.0012366568
000380 44 9f c7 bc f7 ac 2e 3c 46 18 ba bb 03 48 68 bc
       -0.024367936 0.010661355 -0.005679163 -0.014177325
000390 16 36 9a 3a 42 6a 84 3c 1e 2a 1b bd 5f 30 a3 bc
       0.0011765386 0.016163949 -0.037881963 -0.019920526
0003a0 55 a8 30 bd 37 a6 b7 3c 2e 71 37 bd 90 f0 86 3c
       -0.043129284 0.022418125 -0.04478567 0.016472131
0003b0 e7 d6 a3 3c 07 82 eb 3a 0d f0 e7 bb 95 0e 98 bb
       0.019999934 0.0017967828 -0.007078177 -0.00464041
0003c0 19 1a ad bb c8 69 ee bb 7d f9 c3 3c 57 1f cc bb
       -0.005282652 -0.0072757937 0.023922676 -0.006229322
0003d0 20 ec 7b 3c 3c a3 22 bc 7f 4d 47 3c 0d 49 65 3c
       0.015376121 -0.009926613 0.012164473 0.013994467
0003e0 d9 cc 8e bc ce eb 06 bd 07 ba 45 bb f0 fe 76 3a
       -0.017431663 -0.032939725 -0.0030170695 0.0009422144
0003f0 53 78 58 39 17 7e 98 3b 73 e8 51 3c 92 78 cd 3c
       0.0002064419 0.004653703 0.012811768 0.025081906

action_model._continuous_distribution.mu.bias f4 [3]
000000 00 00 00 00 00 00 00 00 00 00 00 00
       0.0 0.0 0.0

network_body._body_endoder.seq_layers.0.weight f4 [128, 6]
000000 74 c5 7b 3e c4 ca 79 bc d1 74 88 3e bd 38 4b 3d
       0.24587041 -0.015246097 0.26651624 0.049614657
000010 c1 21 b7 be 1c 6f 56 be 4f 74 47 bf a4 1f 4b be
       -0.3576794 -0.20940822 -0.7791185 -0.19836289
000020 d3 8f 2d bf 73 9b 3d 3d d9 1a 39 3e d1 2c 62 bc
       -0.67797583 0.046290826 0.18076648 -0.01380463
000030 d3 9a bc be 76 5e 25 3e 8b 78 22 3f ca 05 81 bf
       -0.36836872 0.16149315 0.63465184 -1.0079892
000040 e0 bd 2f 3e 53 c6 52 bf 2c 2a db be 81 97 2b 3e
       0.17162275 -0.8233387 -0.42805612 0.16757013
000050 68 93 4c 3e 41 1a b3 bc dc 4f cc 3e 6d c6 7e bd
       0.19978106 -0.021863105 0.39904678 -0.062200952
000060 48 98 f2 be 55 c6 7b be 43 6a 96 3e 16 43 1d 3e
       -0.47381806 -0.24587376 0.29377946 0.15357623
000070 45 2a 82 3e 96 64 85 bd 86 29 8f bd ae 4d 42 3e
       0.25422874 -0.06513326 -0.06990342 0.18974945
000080 80 17 60 3e 69 aa b4 3d 22 93 fe bd 30 1a c9 3e
       0.21883965 0.08821566 -0.12430407 0.39277792
000090 2f b4 70 3e 97 91 60 bf 8d 8d ce bd bd 71 e7 3d
       0.23506235 -0.8772215 -0.100855924 0.11300991
0000a0 62 e1 69 be f3 0c 11 be 7b 3a 02 3e e8 95 3b bf
       -0.22839883 -0.14165096 0.12717621 -0.73275614
0000b0 ab dd 1b bf 1e f8 88 be c7 ad 3e bf 31 98 11 bf
       -0.60885113 -0.26751798 -0.74483913 -0.5687285
0000c0 bf ff 8c 3c 1f fb d1 3d 0f f8 f5 bd ee f5 60 3f
       0.017211793 0.10252976 -0.12010204 0.8787526
0000d0 86 88 9e 3e e0 b0 a2 3d 4c b6 6b bf 15 13 87 3e
       0.30963534 0.079438925 -0.9207504 0.26381746
0000e0 d0 e5 6d 3e a7 80 04 3f c9 6d f7 3e 64 04 83 be
       0.23232198 0.5175881 0.48325947 -0.25589287
0000f0 bc d1 8f be 71 89 dd bd 00 61 e6 3e 59 99 cf 3e
       -0.28089702 -0.108172305 0.4499588 0.40546682
000100 ce 85 71 3e 07 de 42 3c 6a 9a 23 3c 76 01 86 3e
       0.23586199 0.011893756 0.009985546 0.2617299
000110 09 d5 e6 3e 64 32 f1 bd 73 29 60 bd a6 30 86 be
       0.45084408 -0.117771894 -0.05472703 -0.2620899
000120 8b 2c 35 3e 19 fe be 3e 5d b2 94 3e 38 6d 0e 3e
       0.17692773 0.37303236 0.2904233 0.13908851
000130 cf 17 b0 3d 8d b3 9e be 2b d1 da 3e ab 41 d1 3e
       0.08598291 -0.3099636 0.42737707 0.40870413
000140 5b ad e1 3e f4 be 33 3e 1e cd 83 3c a2 2a e1 3d
       0.44077572 0.17553312 0.016089018 0.1099446
000150 52 c4 a5 bd 3d fc 1b 3f 3e f9 db bd 6a 47 93 bc
       -0.08094086 0.6093176 -0.107408985 -0.017978389
000160 ab ea b3 be 92 96 5f 3e f4 94 94 be 27 f5 94 3e
       -0.35139975 0.21834782 -0.29019892 0.29093286
000170 d8 b7 81 3e be 1a 23 bf fa d2 53 be 66 a5 d8 be
       0.25335574 -0.6371268 -0.2068595 -0.4231369
000180 3c 3e b7 3d 26 8d cc be 4e ef 1b 3f 22 b9 3b 3b
       0.08947417 -0.39951438 0.60912025 0.0028644283
000190 c9 c2 99 3e 64 8b 57 3c 0b f3 51 3f 80 06 ed bd
       0.30031422 0.013155792 0.8201148 -0.115735054
0001a0 a7 da 8f 3e b5 bb 08 bf 15 1f 5a 3e dc 50 5a bf
       0.28096506 -0.5341142 0.2130092 -0.8527963
0001b0 b5 bf be 3e 94 0b 9d be b3 6d a4 3c 44 c8 fa 3c
       0.37255636 -0.30672896 0.02007184 0.030613072
0001c0 f9 dc b1 be 50 f3 4b 3f bb a8 d7 be 2b 56 02 3e
       -0.347389 0.7966814 -0.4212092 0.12728183
0001d0 c4 30 3f bd e6 93 00 bf 19 5e c0 3e 4f 00 bd 3c
       -0.046677366 -0.50225675 0.3757179 0.023071436
0001e0 3a a1 6d be 57 e0 0d 3f cb b1 09 be 8f a3 8d 3d
       -0.23206034 0.5542044 -0.13446729 0.06915962
0001f0 3c b2 66 be 0b bb 3f bf 7f a6 05 3d 12 a5 1b 3e
       -0.22528929 -0.7489478 0.032629486 0.15199688
000200 d2 40 32 3e ad fe ad bd 21 69 1f bf 9e 37 2f 3f
       0.1740754 -0.08495841 -0.6226979 0.6844424
000210 e8 e7 bb 3e 55 2a ad 3e e8 f4 3d 3f 82 11 aa bd
       0.36700368 0.3382136 0.7420182 -0.083041206
000220 fb 5d f1 bd cf 48 16 3e a9 32 b0 be 9a 74 2e be
       -0.117855035 0.14676212 -0.3441365 -0.17036667
000230 b3 5a b2 3e 28 f5 ae bd 19 4f 4b 3e 79 32 37 bf
       0.34834823 -0.085428536 0.19854392 -0.7156139
000240 a4 9c 82 3e 56 28 85 3e 84 49 c0 bc d9 fe 42 3d
       0.25510132 0.26007336 -0.023472555 0.047606323
000250 fe 9a 96 bd 07 e6 0c 3e 59 85 9f 3d ac 74 61 3f
       -0.07353781 0.13759623 0.07789106 0.8806865
000260 49 e5 2d 3f e3 5c aa 3e 3b 5c f4 bb ff 25 78 be
       0.67927986 0.33273992 -0.007457284 -0.24233244
000270 dd 79 71 be f1 94 3e 3e 6d b7 47 3e ba 3f da bd
       -0.23581643 0.18611504 0.19503565 -0.10656686
000280 2e 84 fe bb 48 8b 5e be 29 54 28 3e f5 04 64 3e
       -0.007767222 -0.21732819 0.16438355 0.22267516
000290 d8 d3 50 be 23 2c 07 bf a7 56 2b 3e a9 97 b9 be
       -0.20393312 -0.5280172 0.16732274 -0.3624852
0002a0 86 ba 83 3d 7f ad f8 bd dc 7e 0d bd 76 c4 94 3e
       0.06432061 -0.12142467 -0.03454481 0.29056138
0002b0 dc 80 0e 3e e2 ef 06 3f 35 14 1c 3f d7 fa c7 be
       0.13916343 0.5270978 0.60968333 -0.39058563
0002c0 e9 b8 cc 3e 2e cc 5b 3e f6 be be 3e e5 54 b7 bd
       0.39984825 0.21464607 0.37255067 -0.08951739
0002d0 b2 5f 1d be 55 b9 a8 be 93 ae 86 bf 11 50 a3 3e
       -0.15368536 -0.32953897 -1.0522026 0.31897023
0002e0 48 88 ae 3e db b0 91 3e 7a 0e 05 3f 83 36 a5 3e
       0.3408835 0.28455243 0.51975214 0.32268152
0002f0 88 61 2f 3d 9f 3f 5c 3e 85 a8 c5 3e ea 3d 98 3e
       0.042817622 0.21508645 0.38605133 0.29734737
000300 4c c8 78 be 53 78 8e bf 99 36 c1 bd cb af d3 be
       -0.24295157 -1.113047 -0.09434242 -0.41345057
000310 cc 95 97 3e 2a 9f e7 be cd 67 b0 be 1e f0 a3 bd
       0.29606473 -0.4523862 -0.34454194 -0.08004783
000320 64 d2 61 be 25 3a ba 3e 0b b0 cc bd 92 a9 93 bf
       -0.22052914 0.36372486 -0.09994515 -1.1536124
000330 1f f5 29 3e 21 1a 78 be 31 16 e9 be 9f 7e 91 3e
       0.16597413 -0.24228717 -0.45524743 0.28416917
000340 a4 a5 9f 3d 64 8c 2a 3e 1a f4 a5 bd bc dd 82 3e
       0.07795265 0.16655117 -0.08103199 0.25559795
000350 c5 b8 a1 3e cd 16 6a bf 3d bc 7a bf 41 8e d7 bd
       0.3158628 -0.9144104 -0.9794348 -0.1052518
000360 eb 18 07 3f 4d c9 95 be fc 92 c4 be e5 d7 78 3f
       0.52772397 -0.29255143 -0.3839339 0.9720443
000370 b9 0c 50 3e f6 10 25 3f d0 a8 ef be 0c ec 5c be
       0.20317353 0.64479005 -0.4680848 -0.2157442
000380 12 3c e2 3e 70 e9 03 be a5 80 53 3f fe d0 db be
       0.44186455 -0.12882018 0.8261817 -0.42932886
000390 63 1b ef bc 59 b9 55 bd cb e7 9e 3e f1 e5 33 bf
       -0.029187864 -0.052178714 0.3103622 -0.7027274
0003a0 6a 8b 92 3e e5 ef 72 3e dd a1 ee be 82 55 11 bf
       0.2862199 0.23724325 -0.46607867 -0.567711
0003b0 93 8b da be 1a d8 db 3e 3a 2f 0c 3e 64 67 da 3d
       -0.42684612 0.4293831 0.1368989 0.106642514
0003c0 6f d1 e3 3d 32 f4 e2 3e 19 b2 0b 3e c3 25 45 be
       0.11123931 0.4432693 0.13642158 -0.19252686
0003d0 e5 ee 54 bf 22 4d fb be bc d0 ba 3d 10 9f f7 be
       -0.83177024 -0.49082285 0.09121844 -0.48363543
0003e0 f5 cf 57 be 9b 64 d3 bd 53 f4 c4 3d 87 04 a7 3e
       -0.21075423 -0.10321923 0.09616914 0.32620642
0003f0 14 35 8d 3e 02 57 60 3e f2 1e 36 be 84 63 a6 3e
       0.27579558 0.21908191 -0.17785242 0.324978

network_body._body_endoder.seq_layers.0.bias f4 [128]
000000 00 00 00 00 00 00 00 00 00 00 00 00 00 00 00 00
       0.0 0.0 0.0 0.0
000010 00 00 00 00 00 00 00 00 00 00 00 00 00 00 00 00
       0.0 0.0 0.0 0.0
000020 00 00 00 00 00 00 00 00 00 00 00 00 00 00 00 00
       0.0 0.0 0.0 0.0
000030 00 00 00 00 00 00 00 00 00 00 00 00 00 00 00 00
       0.0 0.0 0.0 0.0
000040 00 00 00 00 00 00 00 00 00 00 00 00 00 00 00 00
       0.0 0.0 0.0 0.0
000050 00 00 00 00 00 00 00 00 00 00 00 00 00 00 00 00
       0.0 0.0 0.0 0.0
000060 00 00 00 00 00 00 00 00 00 00 00 00 00 00 00 00
       0.0 0.0 0.0 0.0
000070 00 00 00 00 00 00 00 00 00 00 00 00 00 00 00 00
       0.0 0.0 0.0 0.0
000080 00 00 00 00 00 00 00 00 00 00 00 00 00 00 00 00
       0.0 0.0 0.0 0.0
000090 00 00 00 00 00 00 00 00 00 00 00 00 00 00 00 00
       0.0 0.0 0.0 0.0
0000a0 00 00 00 00 00 00 00 00 00 00 00 00 00 00 00 00
       0.0 0.0 0.0 0.0
0000b0 00 00 00 00 00 00 00 00 00 00 00 00 00 00 00 00
       0.0 0.0 0.0 0.0
0000c0 00 00 00 00 00 00 00 00 00 00 00 00 00 00 00 00
       0.0 0.0 0.0 0.0
0000d0 00 00 00 00 00 00 00 00 00 00 00 00 00 00 00 00
       0.0 0.0 0.0 0.0
0000e0 00 00 00 00 00 00 00 00 00 00 00 00 00 00 00 00
       0.0 0.0 0.0 0.0
0000f0 00 00 00 00 00 00 00 00 00 00 00 00 00 00 00 00
       0.0 0.0 0.0 0.0
000100 00 00 00 00 00 00 00 00 00 00 00 00 00 00 00 00
       0.0 0.0 0.0 0.0
000110 00 00 00 00 00 00 00 00 00 00 00 00 00 00 00 00
       0.0 0.0 0.0 0.0
000120 00 00 00 00 00 00 00 00 00 00 00 00 00 00 00 00
       0.0 0.0 0.0 0.0
000130 00 00 00 00 00 00 00 00 00 00 00 00 00 00 00 00
       0.0 0.0 0.0 0.0
000140 00 00 00 00 00 00 00 00 00 00 00 00 00 00 00 00
       0.0 0.0 0.0 0.0
000150 00 00 00 00 00 00 00 00 00 00 00 00 00 00 00 00
       0.0 0.0 0.0 0.0
000160 00 00 00 00 00 00 00 00 00 00 00 00 00 00 00 00
       0.0 0.0 0.0 0.0
000170 00 00 00 00 00 00 00 00 00 00 00 00 00 00 00 00
       0.0 0.0 0.0 0.0
000180 00 00 00 00 00 00 00 00 00 00 00 00 00 00 00 00
       0.0 0.0 0.0 0.0
000190 00 00 00 00 00 00 00 00 00 00 00 00 00 00 00 00
       0.0 0.0 0.0 0.0
0001a0 00 00 00 00 00 00 00 00 00 00 00 00 00 00 00 00
       0.0 0.0 0.0 0.0
0001b0 00 00 00 00 00 00 00 00 00 00 00 00 00 00 00 00
       0.0 0.0 0.0 0.0
0001c0 00 00 00 00 00 00 00 00 00 00 00 00 00 00 00 00
       0.0 0.0 0.0 0.0
0001d0 00 00 00 00 00 00 00 00 00 00 00 00 00 00 00 00
       0.0 0.0 0.0 0.0
0001e0 00 00 00 00 00 00 00 00 00 00 00 00 00 00 00 00
       0.0 0.0 0.0 0.0
0001f0 00 00 00 00 00 00 00 00 00 00 00 00 00 00 00 00
       0.0 0.0 0.0 0.0

network_body._body_endoder.seq_layers.2.weight f4 [128, 128]
000000 94 f3 a6 bd 14 cf bc 3c e4 b6 0c 3e 6b 15 4e 3d
       -0.081519276 0.023047961 0.13741642 0.050313395
000010 d7 f4 c6 3c 5b 07 0a 3d 8c 8b 44 bd 93 a1 b3 3d
       0.02428667 0.03369842 -0.047984645 0.08771052
000020 2b 07 6a bd 97 f8 c7 39 f8 a5 8b bb a4 8c 36 be
       -0.057135742 0.00038141452 -0.0042617284 -0.17827088
000030 3a 35 a8 bb 12 4d 8e bb 6d 40 e3 3c 20 70 26 bd
       -0.005133298 -0.0043426836 0.027740682 -0.040634274
000040 64 50 86 3d 45 e7 05 bd 4e 24 3a 3d 95 42 a9 3d
       0.06558302 -0.03269126 0.04544478 0.08264653
000050 29 06 bb bd aa 57 ae 3d ea bc d2 3d fd 15 bd 3b
       -0.09132034 0.08512814 0.10289939 0.0057704435
000060 e9 8e 01 3e c0 db f3 bc bc 2b c8 bd 2e 93 c0 bd
       0.12652172 -0.02976787 -0.09773967 -0.09403072
000070 9e e4 73 bd 19 30 14 3a a5 e1 21 be 8e 84 93 3d
       -0.0595442 0.0005652919 -0.15808733 0.07203017
000080 cf a7 0f 3d 1b 1d 67 bc fd d9 a9 bb f9 32 0b bc
       0.035072144 -0.01410606 -0.005183457 -0.00849604
000090 5c 25 6b bd 8c ce a8 bd 87 80 37 bd a7 62 38 bc
       -0.057408676 -0.08242521 -0.044800308 -0.011253989
0000a0 d4 ff ca bc df 08 23 3d 86 6a 91 bd f9 aa d9 bd
       -0.024780191 0.039803382 -0.07100396 -0.106283136
0000b0 81 41 d1 3b 79 f8 8d 3c 18 c3 4a bd 90 c2 02 3d
       0.0063859825 0.017330395 -0.049502462 0.03192383
0000c0 68 f7 27 bd af 2d d4 3c 5a d7 2e bd 06 8c 45 bc
       -0.04100743 0.02590069 -0.042685844 -0.01205731
0000d0 4b 39 a0 3c 1f 31 ef bb f2 b0 c5 3d e8 07 c8 3a
       0.01955857 -0.007299557 0.0965289 0.0015261145
0000e0 a8 fa d2 3d af ff 8d bd 8b e2 8d bd bb 28 26 be
       0.10301715 -0.069335334 -0.06927975 -0.16226475
0000f0 2d 98 2d be 22 58 ed bc d7 57 d9 bd bb 88 d6 bc
       -0.16952582 -0.028972689 -0.10612457 -0.026188245
000100 3f 57 96 3d 7b 78 3f bd 91 f3 f5 3d d6 b4 ca bc
       0.073408596 -0.04674576 0.12009347 -0.024744432
000110 81 82 38 3c ce 4b 63 bd 28 75 b0 3d cc 5b 4b bc
       0.011261583 -0.055492215 0.08616096 -0.012412023
000120 c4 76 c7 3d b2 8d c2 bd e1 3c cb bc 34 ba d9 bd
       0.097394496 -0.094996825 -0.024809303 -0.106312186
000130 0d b1 2f 3d f6 21 68 bb 27 86 31 3d 72 30 86 3d
       0.04289346 -0.0035420633 0.04334083 0.06552209
000140 2c a5 b7 bd 8f b8 b7 bc 31 64 0d be 0f cb d7 3d
       -0.08967051 -0.022426872 -0.13807751 0.10536777
000150 a6 ec 47 be ed 39 6e 3d fe f0 b5 3c f2 74 d4 bc
       -0.19523868 0.05816071 0.02220964 -0.02593467
000160 66 26 24 3c 5b 6f 0a be b9 2b d6 bc 2d e3 06 be
       0.0100189205 -0.13519041 -0.026143895 -0.13172598
000170 52 5d 23 bd 90 2c 68 bd 30 1e 08 3d 83 73 42 3e
       -0.03988392 -0.056683123 0.033231914 0.18989377
000180 01 46 bd 3d d5 71 96 3b 67 85 d9 bd 44 9b d0 bd
       0.09241868 0.0045912066 -0.106211476 -0.101858646
000190 fa 20 63 3c d1 a2 bb 3d 72 82 17 3e 23 ec 3a bd
       0.013862843 0.09161914 0.14795855 -0.045635354
0001a0 1e 58 87 bb d6 c5 70 3d a2 b6 79 3c 41 ea 0b 3e
       -0.0041303774 0.05878242 0.015241297 0.1366358
0001b0 43 31 ad bc 02 28 e5 3c e0 bb 15 3d a6 69 7b bc
       -0.021141654 0.027973179 0.036556125 -0.015345013
0001c0 57 66 48 bd b8 ad 3a 3e 62 14 8d 3e df 27 0d be
       -0.048925724 0.18230331 0.27554613 -0.13784741
0001d0 a9 dd 7f bd 35 b5 11 be b5 52 a9 bd be 79 11 3d
       -0.06246725 -0.14229281 -0.08267728 0.035516493
0001e0 c1 6e 09 ba 3d 5a 44 bd 8e db 20 bd 5a 6f ec bd
       -0.0005242639 -0.04793762 -0.039271884 -0.11544676
0001f0 e2 fa 21 3e f9 dd 55 3d 6e a2 f9 3d bc b0 b9 bc
       0.1581836 0.052213643 0.12189184 -0.022667281
000200 4b 52 09 be a6 36 9e 3c da 80 55 3c 8b 7f 5e bd
       -0.13410299 0.019313168 0.013031209 -0.054320853
000210 cb 44 61 bc 92 69 4d 3c c7 99 02 3e 76 93 4c bd
       -0.013749312 0.012537377 0.12753974 -0.049945317
000220 cb 19 a3 bd 3a 9b 92 3d af 2d a8 bd 85 ce ef bd
       -0.07963904 0.07158513 -0.082118385 -0.11709312
000230 ed a8 9e 3d 7e ff 47 3d 57 ab 5d 3d 01 00 40 3d
       0.07747064 0.04882764 0.05411848 0.046875004
000240 c0 f5 22 be a0 86 d8 bd 8e fb 2e be a7 ed 06 3c
       -0.15914059 -0.10572553 -0.17088148 0.008235372
000250 54 4a d6 bc a6 a4 06 be 79 14 ba 3d 03 6c 01 3d
       -0.02615849 -0.13148746 0.09085936 0.03159715
000260 27 11 8b bd fc b3 09 bd 10 c4 14 3d 6c 9f 54 3d
       -0.06790381 -0.033618912 0.036319792 0.05190985
000270 ad 1d f5 bd 7f cd 4c 3c 9f 86 35 be 4a 68 fa bd
       -0.11968551 0.012500166 -0.17727135 -0.12226923
000280 a1 07 34 be 13 e2 72 bd bb 7c ea bc ef 07 4b bd
       -0.17581035 -0.059297632 -0.02862393 -0.049568113
000290 a4 a7 e7 3d ff 86 37 3e f0 df d0 bc ae 6b c0 3d
       0.11311272 0.1792259 -0.025497407 0.09395538
0002a0 4d 31 7e bb 02 35 93 3d 08 b5 02 3c e8 0c 91 bd
       -0.003878671 0.07187845 0.0079777315 -0.0708254
0002b0 40 a1 61 3d e8 47 9e bd 0b d1 2d bc b1 1f 60 3e
       0.05508542 -0.07728559 -0.010608922 0.2188709
0002c0 1d f7 16 3d 36 88 2f 3d 27 9b 96 3d 23 ac 8b 3d
       0.03685676 0.04285451 0.07353812 0.06819942
0002d0 6c 22 db bd 5c 41 9a 3d d8 d8 ba bd 9a 74 a9 bc
       -0.10699925 0.075319976 -0.09123391 -0.020685483
0002e0 14 2e 1d 3d e7 38 ef 3b 12 fa 50 bc 73 55 a7 3d
       0.03837402 0.0073004845 -0.012754934 0.08170595
0002f0 f8 60 20 3d af 0d 66 bd 7d ae 92 3d 84 19 86 bc
       0.039154977 -0.056165393 0.07162187 -0.016369589
000300 aa 70 cf bd 46 83 4c 3e 4f 61 0e 3d ad 9b e0 bd
       -0.10128911 0.19971952 0.03476077 -0.10967193
000310 bf 62 ec bc 8f 68 09 be db 84 e1 3d 39 e8 7d 3d
       -0.02885568 -0.13418792 0.11011668 0.061989043
000320 d7 2d b7 bc dc d9 5e 3c 53 f3 1a 3d 6c 8b 8b 3c
       -0.022360725 0.013601746 0.03782971 0.017034255
000330 19 b9 0b be de c0 fe 3d 5c 01 1f 3e fe 91 90 3d
       -0.13644828 0.1243913 0.15527862 0.07059096
000340 7f 0e f8 ba 85 63 78 bd 5d c3 ab 3b 33 65 4f 3e
       -0.0018925219 -0.060641784 0.005241795 0.20253448
000350 f6 4f 0d bc 61 4c f5 bc 09 a7 53 3c ee d2 a3 3d
       -0.008625021 -0.029943647 0.012918242 0.07999216
000360 9f 8a 9f bd ca f7 b6 bd 0e 5a 13 3e 66 bd 92 3d
       -0.07790112 -0.08933981 0.14389822 0.07165031
000370 0d cc 70 3c 8f 34 0f be 3b e8 4a 3d 4f 99 10 3d
       0.014697087 -0.13984893 0.04953788 0.035302456
000380 62 8c fa 3d 4c 86 b8 bd f7 eb 9c bd a4 1e 12 be
       0.12233807 -0.0900999 -0.07662194 -0.14269501
000390 b0 5a 50 bd f1 35 b3 bc 0a e3 06 bd 15 bb 50 bd
       -0.050867736 -0.021876307 -0.032931365 -0.050959665
0003a0 d1 53 63 3d 09 de 05 be 46 b5 fb bc 62 be 77 3d
       0.055499855 -0.13072981 -0.030726086 0.060484298
0003b0 53 e4 7b bc d0 70 11 be ab 13 c1 3c 05 f9 08 be
       -0.015374261 -0.14203191 0.023568949 -0.13376243
0003c0 73 3e 9b 3d 91 00 82 bd 9f 18 f3 3c bf 2e f2 3d
       0.075802706 -0.06347764 0.029674826 0.11825322
0003d0 d9 d4 54 bd 19 75 12 3e 4d 8a 80 bd c0 54 e1 bc
       -0.0519608 0.14302482 -0.06276379 -0.027506232
0003e0 06 5a 8a 3d ae 05 97 bc 7c 45 2c be 91 e0 87 bc
       0.06755452 -0.018435325 -0.16823381 -0.016586574
0003f0 65 34 4f 3e 60 3b 20 bc 20 6d b7 bd 2e 48 1a 3d
       0.2023483 -0.009779781 -0.08956361 0.037666492

network_body._body_endoder.seq_layers.2.bias f4 [128]
000000 00 00 00 00 00 00 00 00 00 00 00 00 00 00 00 00
       0.0 0.0 0.0 0.0
000010 00 00 00 00 00 00 00 00 00 00 00 00 00 00 00 00
       0.0 0.0 0.0 0.0
000020 00 00 00 00 00 00 00 00 00 00 00 00 00 00 00 00
       0.0 0.0 0.0 0.0
000030 00 00 00 00 00 00 00 00 00 00 00 00 00 00 00 00
       0.0 0.0 0.0 0.0
000040 00 00 00 00 00 00 00 00 00 00 00 00 00 00 00 00
       0.0 0.0 0.0 0.0
000050 00 00 00 00 00 00 00 00 00 00 00 00 00 00 00 00
       0.0 0.0 0.0 0.0
000060 00 00 00 00 00 00 00 00 00 00 00 00 00 00 00 00
       0.0 0.0 0.0 0.0
000070 00 00 00 00 00 00 00 00 00 00 00 00 00 00 00 00
       0.0 0.0 0.0 0.0
000080 00 00 00 00 00 00 00 00 00 00 00 00 00 00 00 00
       0.0 0.0 0.0 0.0
000090 00 00 00 00 00 00 00 00 00 00 00 00 00 00 00 00
       0.0 0.0 0.0 0.0
0000a0 00 00 00 00 00 00 00 00 00 00 00 00 00 00 00 00
       0.0 0.0 0.0 0.0
0000b0 00 00 00 00 00 00 00 00 00 00 00 00 00 00 00 00
       0.0 0.0 0.0 0.0
0000c0 00 00 00 00 00 00 00 00 00 00 00 00 00 00 00 00
       0.0 0.0 0.0 0.0
0000d0 00 00 00 00 00 00 00 00 00 00 00 00 00 00 00 00
       0.0 0.0 0.0 0.0
0000e0 00 00 00 00 00 00 00 00 00 00 00 00 00 00 00 00
       0.0 0.0 0.0 0.0
0000f0 00 00 00 00 00 00 00 00 00 00 00 00 00 00 00 00
       0.0 0.0 0.0 0.0
000100 00 00 00 00 00 00 00 00 00 00 00 00 00 00 00 00
       0.0 0.0 0.0 0.0
000110 00 00 00 00 00 00 00 00 00 00 00 00 00 00 00 00
       0.0 0.0 0.0 0.0
000120 00 00 00 00 00 00 00 00 00 00 00 00 00 00 00 00
       0.0 0.0 0.0 0.0
000130 00 00 00 00 00 00 00 00 00 00 00 00 00 00 00 00
       0.0 0.0 0.0 0.0
000140 00 00 00 00 00 00 00 00 00 00 00 00 00 00 00 00
       0.0 0.0 0.0 0.0
000150 00 00 00 00 00 00 00 00 00 00 00 00 00 00 00 00
       0.0 0.0 0.0 0.0
000160 00 00 00 00 00 00 00 00 00 00 00 00 00 00 00 00
       0.0 0.0 0.0 0.0
000170 00 00 00 00 00 00 00 00 00 00 00 00 00 00 00 00
       0.0 0.0 0.0 0.0
000180 00 00 00 00 00 00 00 00 00 00 00 00 00 00 00 00
       0.0 0.0 0.0 0.0
000190 00 00 00 00 00 00 00 00 00 00 00 00 00 00 00 00
       0.0 0.0 0.0 0.0
0001a0 00 00 00 00 00 00 00 00 00 00 00 00 00 00 00 00
       0.0 0.0 0.0 0.0
0001b0 00 00 00 00 00 00 00 00 00 00 00 00 00 00 00 00
       0.0 0.0 0.0 0.0
0001c0 00 00 00 00 00 00 00 00 00 00 00 00 00 00 00 00
       0.0 0.0 0.0 0.0
0001d0 00 00 00 00 00 00 00 00 00 00 00 00 00 00 00 00
       0.0 0.0 0.0 0.0
0001e0 00 00 00 00 00 00 00 00 00 00 00 00 00 00 00 00
       0.0 0.0 0.0 0.0
0001f0 00 00 00 00 00 00 00 00 00 00 00 00 00 00 00 00
       0.0 0.0 0.0 0.0

value_heads.value_heads.extrinsic.weight f4 [1, 128]
000000 e0 7a 77 bd c8 fb 57 be f2 2d 28 be eb d2 de bd
       -0.060419917 -0.2109214 -0.16423777 -0.10880073
000010 77 ea 1c be 8a 3e 19 be e0 0e 5d bd 62 1c 37 be
       -0.15323816 -0.14965263 -0.053969264 -0.17881921
000020 00 c5 bc bc c0 47 23 be 18 5a 26 3d 1e 62 11 be
       -0.023043156 -0.15945339 0.040613264 -0.14197585
000030 f0 3e 34 3d c4 eb 4a be 12 a8 36 be c8 36 51 bd
       0.044005334 -0.198165 -0.17837551 -0.051077634
000040 f8 26 2e be e8 c2 1a 3d ea 48 fa bd 24 1c 1d bd
       -0.17007053 0.037783533 -0.122209385 -0.038356915
000050 90 6c bf 3c 10 82 80 3c 81 de 02 be 5b a7 58 be
       0.023367196 0.015687019 -0.12780191 -0.21157591
000060 b8 bc e9 3c 00 ec 7c b9 de 6a 16 be bc ef 89 3d
       0.02853237 -0.0002412051 -0.14689204 0.06735179
000070 c0 d9 b8 bd 80 53 0e be ea 9a 4d be 57 db be bd
       -0.090259075 -0.1389904 -0.20078626 -0.093191795
000080 4c b7 3c 3e 90 47 b2 bc 10 26 03 bc 1c 61 b1 bd
       0.18429297 -0.02176264 -0.00800468 -0.086611
000090 4f ea 36 be d4 a9 11 be 40 88 83 3d 38 0c 11 3e
       -0.17862819 -0.1422494 0.06422472 0.14164817
0000a0 08 7a b5 bc 00 b1 88 bd 28 63 08 be f4 8e 1e 3e
       -0.022152916 -0.06674385 -0.13319075 0.1548422
0000b0 d8 61 50 bd 1e 3b 87 bd bc 43 39 be e6 56 3e 3e
       -0.05087456 -0.066030726 -0.18092245 0.18587837
0000c0 48 2d 90 3d 8c 6d 4f bd d9 53 04 be 00 1b 30 ba
       0.07039887 -0.05064158 -0.1292261 -0.00067178905
0000d0 b8 14 be 3c c4 df 9b 3d 42 46 2e 3e 34 4f 3c bd
       0.023203239 0.07611039 0.17018989 -0.04597397
0000e0 bc a3 8b bd c2 1b 00 3e 54 7e 07 be 93 48 d5 bd
       -0.06818339 0.12510589 -0.13231784 -0.10414233
0000f0 84 4c a0 3d 28 4f 1c bd b8 39 f4 3d 3c 6a f9 3d
       0.07827094 -0.038161427 0.119250715 0.12178466
000100 92 e9 a6 bd 98 e1 ee 3d 88 8c b2 bd 52 01 9f bd
       -0.08150019 0.11664122 -0.087182105 -0.07763924
000110 76 cc 01 3e d8 bc 57 3d f2 69 04 3e 7c e2 ef 3d
       0.12675652 0.05267033 0.1293104 0.1171312
000120 0c e5 11 be b0 fb dc bd f0 5c b1 3d 8a 40 13 3e
       -0.1424753 -0.10790193 0.086603045 0.14380088
000130 8e 34 43 3e 82 9d 21 be ca 61 c3 bd 9c 93 22 3e
       0.19063017 -0.1578274 -0.09540136 0.15876621
000140 50 98 b8 3c fa 5e 24 3e 38 3a ef 3d 12 2a 2f 3e
       0.022533566 0.16051856 0.11681026 0.17105892
000150 00 c2 1b bb 48 80 12 3d b0 20 cd bc bc d7 23 3e
       -0.0023766756 0.03576687 -0.02504 0.16000265
000160 04 79 ba 3d 5e 4f 9c bd 24 08 45 3e 50 8a 23 3c
       0.09105113 -0.076323256 0.19241387 0.009981707
000170 f8 60 e5 3c 60 5b 54 bd 9b 78 2b be 4a 07 22 3e
       0.02800034 -0.051844954 -0.16745226 0.15823093
000180 a8 99 4f 3e 38 31 13 bd 1c a9 06 3d f6 2e 1b be
       0.20273459 -0.03593561 0.03287612 -0.15154633
000190 7a d1 5a 3e a0 22 97 3b b4 5a 18 bd a4 a8 19 3e
       0.21368971 0.004612282 -0.037195876 0.15005738
0001a0 18 bd b1 3d bc 4a 1b 3e f0 c6 01 bc 0c 31 12 3e
       0.08678645 0.15165228 -0.007920966 0.14276522
0001b0 8c b4 e0 3d 05 f2 c2 bd 60 cf 33 3d 94 7a 01 3e
       0.109719366 -0.09518818 0.04389894 0.12644416
0001c0 09 be fa bd 80 0b 6d 3b 5c e7 ae 3d 34 bd b7 3d
       -0.122432776 0.0036170185 0.08540222 0.089716345
0001d0 33 90 07 be 78 a7 29 3e 3a f6 11 be 30 6b 27 3c
       -0.13238601 0.1656779 -0.14254084 0.010218427
0001e0 1e 20 5a 3e a8 cf 5e 3d 06 01 2c be d8 8a 56 bd
       0.21301314 0.054397255 -0.16797265 -0.052378505
0001f0 18 a3 2e 3d f8 5c 65 bd f2 ef a7 bd 7a 04 3c 3e
       0.042636007 -0.055996865 -0.08200063 0.18361083
