results/ppo/Avoid Obstacle/Avoid Obstacle-4391.onnx (onnx, 73159 bytes, 7 tensors)

action_model._continuous_distribution.log_sigma f4 [1, 3]
000000 00 00 00 00 00 00 00 00 00 00 00 00
       0.0 0.0 0.0

action_model._continuous_distribution.mu.bias f4 [3]
000000 00 00 00 00 00 00 00 00 00 00 00 00
       0.0 0.0 0.0

action_model._continuous_distribution.mu.weight f4 [3, 128]
000000 7e 31 bd bc 1a a8 79 3b 92 14 59 3b 4d f7 f4 bb
       -0.023094889 0.003809458 0.0033123833 -0.0074757696
000010 13 ca 4f 3b 04 6f b0 3c ff d6 6b bc 95 b5 d7 ba
       0.003170614 0.021537311 -0.014394521 -0.0016457314
000020 8f 70 6a bc e2 3d 1e 3c 9a e7 56 bc 2f f2 89 3c
       -0.014309063 0.009658309 -0.013116742 0.016839115
000030 99 35 04 bd 27 af 6d 3c 78 74 d1 3c 2a 25 a4 3c
       -0.032277677 0.014507092 0.025568232 0.020037252
000040 a3 70 0d bc 3f 18 80 bc 53 e8 84 3c db 66 0a 3d
       -0.008632812 -0.015636561 0.016224062 0.033789497
000050 b7 12 a3 3b eb 10 bd 3c f0 7a 4e 3b 30 a3 86 bc
       0.004976596 0.023079356 0.0031506382 -0.016435236
000060 17 2e b8 bb b4 f0 a9 39 53 9e 8f 3b e3 f4 76 3b
       -0.0056207287 0.0003241353 0.0043828874 0.0037682585
000070 72 c8 99 3c 04 47 15 3c dd ba 00 bc 67 4e a4 3c
       0.018772338 0.00911117 -0.007857052 0.020056916
000080 48 f6 51 3d 02 0e 73 bc 7f 4a e5 bb c7 1d 4c bb
       0.051260263 -0.014834883 -0.006997406 -0.0031145678
000090 c6 86 c2 bb 7b 2e 7e bc 0d cd f5 3b af d1 99 bc
       -0.0059364764 -0.0155140115 0.0075012506 -0.018776743
0000a0 a3 8d 16 bc 40 fb 8d 3c f2 f3 15 3b 3b ba 9e 3b
       -0.009189042 0.01733172 0.0022880998 0.0048439777
0000b0 30 4b 23 3c bd ad 89 3c f7 20 e7 bc 7c 7f 3e bb
       0.009966657 0.016806478 -0.028213961 -0.0029067686
0000c0 9d 5f d3 bb d0 1f 9e bc af 41 65 3c 4a 24 45 3c
       -0.006450607 -0.019302279 0.013992711 0.012032578
0000d0 a8 f0 aa 3c 7f 80 4c bc d3 70 0a 3d ad c8 26 bc
       0.020866707 -0.012481808 0.033799004 -0.010179681
0000e0 b5 49 f9 bc 38 c1 1e 3d 5d c8 34 ba 7b 65 97 bb
       -0.030430654 0.038758487 -0.00068963115 -0.0046202517
0000f0 fb 43 b7 bc db 4f 9d ba b7 f3 7b bb b3 19 82 3c
       -0.022371283 -0.0012001948 -0.0038444826 0.015881395
000100 71 c6 38 bc 00 cb f9 3b f7 25 f2 bc a3 ca 44 bc
       -0.011277781 0.0076230764 -0.029559119 -0.012011203
000110 7d 71 ad ba 06 60 94 3c a3 e4 43 bd 32 c0 3e 3c
       -0.0013232675 0.018112194 -0.047825467 0.011642503
000120 0c e2 1c bc e7 66 9e 3a da 8d 06 3c 2b 8e b7 3c
       -0.009575378 0.0012085111 0.008212531 0.022406658
000130 64 40 84 bc 8a a9 eb bc db c8 46 bc ab a5 74 bc
       -0.016143985 -0.028767366 -0.012132849 -0.014932076
000140 82 25 05 bd db b4 fe 3c 55 8f 87 bc 1c f0 26 bc
       -0.032506473 0.031092098 -0.016547838 -0.0101890825
000150 4d ff 72 bc a0 96 f1 bb 89 f7 4a 3a 50 4f 11 3d
       -0.014831376 -0.007372692 0.0007742574 0.03547603
000160 bf dd 08 3d a2 84 5c 3c c3 64 c3 bc 18 2a 46 3c
       0.0334146 0.0134593565 -0.023851758 0.012094997
000170 48 01 e3 3c 0a ff c8 3a 58 b1 27 bd 41 e1 aa bc
       0.027710572 0.0015334797 -0.040940613 -0.020859363
000180 88 3f 6f 3b c8 4c 00 bd a4 14 89 bc 2c 5f 0c 3d
       0.0036506373 -0.031323224 -0.016733475 0.03427045
000190 9d 77 9d 3c d5 83 6e bb 87 b5 04 bc ca 94 c7 ba
       0.019222075 -0.0036394496 -0.00809992 -0.0015226838
0001a0 c7 d1 94 bc 8c bf 1d ba ed fc 57 bc 4f ca 01 bd
       -0.018166436 -0.00060176174 -0.013182861 -0.031687077
0001b0 27 8c fa 3c ed 7f 67 3c 2b 5f e0 bb aa 60 f2 3c
       0.030584408 0.014129621 -0.0068472824 0.029587109
0001c0 9d 07 63 bc 28 65 88 bc fa 90 60 3c 1e 4d 22 3d
       -0.013856796 -0.016649798 0.01370644 0.039624326
0001d0 b8 6a bc bc 22 12 36 39 7d 41 b2 bc 57 a3 c2 3c
       -0.023000106 0.00017363628 -0.021759743 0.023759527
0001e0 8d 4a d5 ba 1e 06 96 bb 1f 4b 7a bc c6 2a 08 bc
       -0.0016272828 -0.004578366 -0.015276699 -0.008310979
0001f0 9d ce c8 ba 16 45 1b 3b 25 44 77 3c f1 14 42 bb
       -0.0015320365 0.0023692301 0.0150919305 -0.0029614533
000200 4b a5 b5 3c f7 3f ab 3a 4f b7 a0 3a 09 71 34 3d
       0.022173544 0.0013065328 0.0012261661 0.04405311
000210 5d a6 fc 3a 3d 32 28 bc 28 be 86 3c db 83 cd bc
       0.0019275654 -0.010265884 0.016448095 -0.025087288
000220 78 15 67 3c a7 b1 9f bb b0 a9 e8 3c 18 86 90 bb
       0.01410424 -0.0048734727 0.028401226 -0.0044105165
000230 fe 26 c2 bc ef 34 74 3c 88 7e 5d 3c 16 4f 92 3c
       -0.023700234 0.0149051985 0.013518937 0.017859977
000240 aa 13 ae bc 1b 5b 76 bc e9 2e 38 3d d8 f4 03 3d
       -0.02124961 -0.01503637 0.044966612 0.032215923
000250 38 ff c3 ba 3f a9 16 bb c7 9b 80 3c b3 82 4d 3c
       -0.001495338 -0.0022989062 0.01569928 0.012543368
000260 bb e4 2b 3d 9f b3 ac bb 7b e4 cf 3b fc 0f 87 3c
       0.04196618 -0.005270436 0.0063443757 0.016487114
000270 c1 51 17 bb 0c ed 15 3c 43 cf 35 3a 37 cc 87 bb
       -0.00230895 0.009150755 0.00069354865 -0.0041442174
000280 83 5e ed 3c 7f 61 09 bc 1b e3 a3 bc 58 70 e6 3c
       0.02897573 -0.008385061 -0.020005753 0.028129742
000290 40 fa ef bb c6 ae 9e bc 3f 47 fa 3b 1a 97 57 bc
       -0.0073235333 -0.019370448 0.0076378877 -0.013158584
0002a0 cf a1 ad bb bb e0 fb 3c 2c 61 43 bc 0d 68 07 bd
       -0.00529883 0.030746808 -0.011925023 -0.033058215
0002b0 e7 ac 9e bb ff 07 34 3c 1c 00 37 3d 5d d6 07 bd
       -0.004842389 0.010988235 0.04467784 -0.033163417
0002c0 70 34 99 3c c7 f7 76 3b 41 93 96 ba af 08 56 bc
       0.018701762 0.0037684308 -0.0011487977 -0.013063594
0002d0 c2 46 65 bc 90 f2 f2 3c 9a 1e dd 3c e2 c4 00 3d
       -0.013993921 0.029656678 0.026992131 0.031437762
0002e0 20 f0 08 3d 02 4c 73 bb eb b5 59 bc 23 b5 07 3b
       0.033432126 -0.0037124162 -0.0132880015 0.002070733
0002f0 3a c4 83 3c 0b 83 2c 3d f3 b4 2d bb 3b 9c 1b bc
       0.016084779 0.04211716 -0.002650556 -0.009497697
000300 47 17 bf 3c e2 21 83 bc b8 f6 03 bc 0b 64 bb 3c
       0.02332653 -0.016007368 -0.008054428 0.022874853
000310 b7 f8 3d 3c 1a f4 90 39 88 84 d9 bc b7 21 9b 3b
       0.011594943 0.0002764769 -0.026552454 0.0047342437
000320 57 55 d8 b6 ea 35 5c bc ed 85 f5 bc 68 3a c1 bc
       -6.4472365e-06 -0.0134405885 -0.029971087 -0.02358742
000330 ef 9b 4e 3c 88 93 e5 3c ff ac 84 3b 87 65 64 3c
       0.01261042 0.02802445 0.004048943 0.013940222
000340 51 fe 49 bc 65 b4 5e 3c 3a 58 c8 3c 02 0c ba 3b
       -0.0123287 0.013592814 0.024456132 0.005677701
000350 ad 62 6b 3c be 4a 2e 3d 75 95 85 bc 32 9f 6b 3c
       0.014366788 0.04255175 -0.016306618 0.014381217
000360 ce f3 29 bc b8 f0 6f bc 60 b7 cd 3c 34 bc 2c 3c
       -0.010373069 -0.014644794 0.025111854 0.010542918
000370 71 c2 44 bd 77 05 ca bb 03 00 31 3c 51 17 a2 3a
       -0.048036996 -0.0061652022 0.010803225 0.0012366568
000380 44 9f c7 bc f7 ac 2e 3c 46 18 ba bb 03 48 68 bc
       -0.024367936 0.010661355 -0.005679163 -0.014177325
000390 16 36 9a 3a 42 6a 84 3c 1e 2a 1b bd 5f 30 a3 bc
       0.0011765386 0.016163949 -0.037881963 -0.019920526
0003a0 55 a8 30 bd 37 a6 b7 3c 2e 71 37 bd 90 f0 86 3c
       -0.043129284 0.022418125 -0.04478567 0.016472131
0003b0 e7 d6 a3 3c 07 82 eb 3a 0d f0 e7 bb 95 0e 98 bb
       0.019999934 0.0017967828 -0.007078177 -0.00464041
0003c0 19 1a ad bb c8 69 ee bb 7d f9 c3 3c 57 1f cc bb
       -0.005282652 -0.0072757937 0.023922676 -0.006229322
0003d0 20 ec 7b 3c 3c a3 22 bc 7f 4d 47 3c 0d 49 65 3c
       0.015376121 -0.009926613 0.012164473 0.013994467
0003e0 d9 cc 8e bc ce eb 06 bd 07 ba 45 bb f0 fe 76 3a
       -0.017431663 -0.032939725 -0.0030170695 0.0009422144
0003f0 53 78 58 39 17 7e 98 3b 73 e8 51 3c 92 78 cd 3c
       0.0002064419 0.004653703 0.012811768 0.025081906

network_body._body_endoder.seq_layers.0.bias f4 [128]
000000 00 00 00 00 00 00 00 00 00 00 00 00 00 00 00 00
       0.0 0.0 0.0 0.0
000010 00 00 00 00 00 00 00 00 00 00 00 00 00 00 00 00
       0.0 0.0 0.0 0.0
000020 00 00 00 00 00 00 00 00 00 00 00 00 00 00 00 00
       0.0 0.0 0.0 0.0
000030 00 00 00 00 00 00 00 00 00 00 00 00 00 00 00 00
       0.0 0.0 0.0 0.0
000040 00 00 00 00 00 00 00 00 00 00 00 00 00 00 00 00
       0.0 0.0 0.0 0.0
000050 00 00 00 00 00 00 00 00 00 00 00 00 00 00 00 00
       0.0 0.0 0.0 0.0
000060 00 00 00 00 00 00 00 00 00 00 00 00 00 00 00 00
       0.0 0.0 0.0 0.0
000070 00 00 00 00 00 00 00 00 00 00 00 00 00 00 00 00
       0.0 0.0 0.0 0.0
000080 00 00 00 00 00 00 00 00 00 00 00 00 00 00 00 00
       0.0 0.0 0.0 0.0
000090 00 00 00 00 00 00 00 00 00 00 00 00 00 00 00 00
       0.0 0.0 0.0 0.0
0000a0 00 00 00 00 00 00 00 00 00 00 00 00 00 00 00 00
       0.0 0.0 0.0 0.0
0000b0 00 00 00 00 00 00 00 00 00 00 00 00 00 00 00 00
       0.0 0.0 0.0 0.0
0000c0 00 00 00 00 00 00 00 00 00 00 00 00 00 00 00 00
       0.0 0.0 0.0 0.0
0000d0 00 00 00 00 00 00 00 00 00 00 00 00 00 00 00 00
       0.0 0.0 0.0 0.0
0000e0 00 00 00 00 00 00 00 00 00 00 00 00 00 00 00 00
       0.0 0.0 0.0 0.0
0000f0 00 00 00 00 00 00 00 00 00 00 00 00 00 00 00 00
       0.0 0.0 0.0 0.0
000100 00 00 00 00 00 00 00 00 00 00 00 00 00 00 00 00
       0.0 0.0 0.0 0.0
000110 00 00 00 00 00 00 00 00 00 00 00 00 00 00 00 00
       0.0 0.0 0.0 0.0
000120 00 00 00 00 00 00 00 00 00 00 00 00 00 00 00 00
       0.0 0.0 0.0 0.0
000130 00 00 00 00 00 00 00 00 00 00 00 00 00 00 00 00
       0.0 0.0 0.0 0.0
000140 00 00 00 00 00 00 00 00 00 00 00 00 00 00 00 00
       0.0 0.0 0.0 0.0
000150 00 00 00 00 00 00 00 00 00 00 00 00 00 00 00 00
       0.0 0.0 0.0 0.0
000160 00 00 00 00 00 00 00 00 00 00 00 00 00 00 00 00
       0.0 0.0 0.0 0.0
000170 00 00 00 00 00 00 00 00 00 00 00 00 00 00 00 00
       0.0 0.0 0.0 0.0
000180 00 00 00 00 00 00 00 00 00 00 00 00 00 00 00 00
       0.0 0.0 0.0 0.0
000190 00 00 00 00 00 00 00 00 00 00 00 00 00 00 00 00
       0.0 0.0 0.0 0.0
0001a0 00 00 00 00 00 00 00 00 00 00 00 00 00 00 00 00
       0.0 0.0 0.0 0.0
0001b0 00 00 00 00 00 00 00 00 00 00 00 00 00 00 00 00
       0.0 0.0 0.0 0.0
0001c0 00 00 00 00 00 00 00 00 00 00 00 00 00 00 00 00
       0.0 0.0 0.0 0.0
0001d0 00 00 00 00 00 00 00 00 00 00 00 00 00 00 00 00
       0.0 0.0 0.0 0.0
0001e0 00 00 00 00 00 00 00 00 00 00 00 00 00 00 00 00
       0.0 0.0 0.0 0.0
0001f0 00 00 00 00 00 00 00 00 00 00 00 00 00 00 00 00
       0.0 0.0 0.0 0.0

network_body._body_endoder.seq_layers.0.weight f4 [128, 6]
000000 47 fc 3b 3e dc 7d a1 3e e6 a1 85 3e 74 c3 de 3e
       0.18357955 0.31541336 0.2610008 0.43508494
000010 dc b0 1a be 4d 3a 1b be 6a 12 46 be 91 3c c7 be
       -0.15106529 -0.15158959 -0.19342962 -0.38913396
000020 9b fa 30 3d 92 5e e0 3e 91 00 91 3e 4f 9c f2 bd
       0.043207746 0.4382215 0.28320745 -0.1184622
000030 9e 12 af 3e 23 e0 1f bf 90 89 00 3f a6 f7 99 3e
       0.3419389 -0.6245138 0.50209904 0.30071753
000040 75 d1 96 be 47 49 b8 be 2f 70 55 be 26 5c 13 be
       -0.29456678 -0.35993406 -0.20843576 -0.1439062
000050 92 cc b3 be 8d 71 c5 be c1 95 6a bd 0a d1 18 3f
       -0.35117012 -0.38563195 -0.057271723 0.5969397
000060 a5 be f5 3c e7 ca 85 3d c4 7a 38 be 31 21 3d bf
       0.029998133 0.06532841 -0.18015581 -0.7387877
000070 ed bd 81 bc 4e 40 d4 bb 77 70 6b bd 92 4f 2c 3e
       -0.015837634 -0.0064773923 -0.0574803 0.16827229
000080 1a fd 02 bf 18 87 1b 3e 19 58 f4 be 48 38 5b 3e
       -0.5116745 0.15188253 -0.47723463 0.21408188
000090 dc ce 4c 3f 10 17 ee be 65 ea 4e bd 76 aa 0a 3e
       0.8000314 -0.4650197 -0.050516505 0.13541588
0000a0 e0 43 40 3f 79 e1 20 3f 2f 46 9f be 66 42 c5 3e
       0.7510357 0.62844044 -0.31108233 0.3852722
0000b0 0a d2 3e 3d 7e b1 44 be 34 98 83 be ad 53 06 3f
       0.046587028 -0.19208333 -0.2570206 0.5247143
0000c0 ba b9 13 3e 0d 6b 2f 3e 32 23 c6 3d cb f9 1d 3d
       0.14426318 0.1713068 0.09674682 0.0385683
0000d0 44 e0 13 3f 4d d6 35 bd 1a 08 c5 be 28 bc cd 3e
       0.5776408 -0.044393826 -0.38482744 0.40182614
0000e0 c5 e4 18 bf 33 e8 76 bb 6b e9 54 be 7e 49 80 3e
       -0.59724075 -0.0037675023 -0.20792167 0.2505607
0000f0 4b d5 36 bf 57 cd 24 3e 93 29 ea 3e 15 88 1e 3e
       -0.7141921 0.16093956 0.45734844 0.15481599
000100 55 34 21 3e 3a 90 b0 3e 57 e0 0c bf 1b db f7 3e
       0.1574262 0.34485036 -0.55029815 0.48409352
000110 92 91 67 bd 42 19 cb be 96 4a 3c bd 8b ce ad 3c
       -0.05653531 -0.39667708 -0.04596957 0.021216651
000120 f4 a8 01 3f 49 d0 9f be 78 2c 91 bd 4f 6b 10 bf
       0.50648427 -0.31213596 -0.0708856 -0.5641374
000130 4f eb 5b 3f 80 61 83 3d 30 f0 39 bf 9d 45 12 bf
       0.8590593 0.06415081 -0.7263212 -0.5713747
000140 8c d8 02 3e d9 b9 8e 3e e0 0e 01 bf db 9a 24 3e
       0.12777919 0.27876166 -0.5041332 0.16074698
000150 0b c8 db be d1 d2 ea be d8 5f db 3e 9b 2b 19 bf
       -0.42926058 -0.45863965 0.4284656 -0.5983216
000160 e8 66 93 3f 57 e6 92 bd d4 dc 97 be 12 88 5f bf
       1.151578 -0.0717284 -0.29660666 -0.87317
000170 3d 10 94 be bb c5 fa 3e 5e ac 83 bd 8b 75 6b bd
       -0.2891864 0.4897898 -0.06429361 -0.057485145
000180 ac ef 79 3e 03 f2 9d 3e f5 b7 a9 be 95 13 04 3f
       0.24407834 0.30848703 -0.3314816 0.5159238
000190 95 d3 8d be 8d d7 81 3e 7a 93 91 3f b0 08 de be
       -0.27700487 0.25359765 1.1373131 -0.43366003
0001a0 33 d0 c7 3e 35 a9 ed 3e a5 d6 fa be f2 f3 c1 be
       0.3902603 0.46418157 -0.48991886 -0.37881428
0001b0 dc 22 27 be 30 56 bd be 94 51 96 bd c0 bf 00 bf
       -0.16321892 -0.36979818 -0.073397785 -0.5029259
0001c0 1f ed 67 3e 60 5d b6 3d a3 83 19 bf 20 dd 99 be
       0.22649048 0.089045286 -0.59966487 -0.30051517
0001d0 4b 51 fb bd c4 0c 78 be bc 59 37 bf 53 1c f3 be
       -0.12271365 -0.2422362 -0.716213 -0.47482547
0001e0 46 69 1d 3f f5 b0 e0 be c3 b5 a7 3e d3 e2 a4 3e
       0.6148876 -0.43885008 0.3275586 0.32204303
0001f0 76 61 c1 3e 29 fb cd 3e f1 8e ee be 8a 32 34 bf
       0.3776967 0.40230682 -0.4659343 -0.70389616
000200 b2 8f b1 3c 67 ae 49 bf f5 39 75 3e 50 76 1a be
       0.021674965 -0.7878174 0.2394789 -0.15084195
000210 15 15 33 3f c5 78 3b be 4b 83 ab be 92 a1 48 3f
       0.69954044 -0.18307789 -0.33498606 0.78371537
000220 23 ed 83 bd 9a 05 35 3e e5 17 22 3f c2 f2 27 be
       -0.064417146 0.17677918 0.6331771 -0.16401199
000230 2d ea a8 be 7a 4b 24 3d 0a 66 6f 3e 8e b9 52 3e
       -0.32991162 0.040111043 0.23378769 0.20578596
000240 2d 49 ab be a3 18 0e bf a7 3a 4b bc bd c1 1f 3d
       -0.33454266 -0.5550634 -0.0124041205 0.039003123
000250 36 bd e4 3e bd 32 1c bf 02 c7 1e bf a6 50 c1 be
       0.44675606 -0.6101492 -0.6202241 -0.37756842
000260 23 a6 17 bd 84 4f 01 bf 07 28 0d 3f 7a bd b3 3e
       -0.037023675 -0.50511956 0.551392 0.35105497
000270 6f 45 ed bd 94 93 41 3f 25 71 f8 be a2 04 30 3e
       -0.11585509 0.7561581 -0.48523822 0.17189267
000280 da b5 b8 be 3c fb e8 3e 91 fc 50 3e 63 9e 49 3f
       -0.36076242 0.45504177 0.20408846 0.78757304
000290 47 37 42 be 5b 09 84 be f7 f3 77 be a0 bb 2e 3d
       -0.18966399 -0.25788388 -0.24214159 0.042659402
0002a0 f9 ac a4 3e 25 7d 93 be b5 f1 f7 be ab 2a 1f 3e
       0.32163218 -0.28806415 -0.48426595 0.1554362
0002b0 f7 a8 51 3f 7e c4 d8 bd bd 6e 08 3f 56 9b 00 3e
       0.81898445 -0.10584353 0.53293973 0.12559256
0002c0 67 93 b3 bb 0c 1b fb bd e1 fa 65 3e 6e 44 c6 bd
       -0.005480218 -0.12261018 0.22458984 -0.09681021
0002d0 bd 75 37 3f 05 1d 66 be b3 67 55 3f 4b bc 03 bf
       0.7166403 -0.22472008 0.8336136 -0.5145919
0002e0 15 61 3b be f7 22 a9 be f6 94 2e 3f f1 b1 38 be
       -0.18298753 -0.3303449 0.68196046 -0.1803663
0002f0 c8 33 c0 3e b6 e5 94 3e c7 f3 1b bf a5 7a 39 bf
       0.37539506 0.29081506 -0.6091885 -0.72452766
000300 26 b7 21 be 32 3b 18 be 5d 5d 37 be 3f 53 ff 3e
       -0.15792522 -0.14866331 -0.17906709 0.498682
000310 37 b9 81 be 55 0c 91 be bb 28 3a 3f 55 3e b8 be
       -0.2533662 -0.2832972 0.727184 -0.35985056
000320 55 66 a9 be bf 77 44 3e b7 f0 ab bd e2 83 b1 be
       -0.33085886 0.19186305 -0.08395522 -0.3467093
000330 16 bd 8e 3e bf ed d2 bd 4b 11 85 3e 0f ce 06 be
       0.27878636 -0.10299253 0.25989756 -0.13164543
000340 9e 8b e1 3e 99 29 89 be ec a3 fa be 53 16 25 3f
       0.44051832 -0.2678955 -0.48953187 0.6448719
000350 67 d5 a6 3d dc 85 0e bf e1 72 f8 bc 57 d7 90 bd
       0.08146172 -0.55673003 -0.030328216 -0.07072323
000360 82 87 f3 3c 8b a4 05 bf c0 7a 07 be 18 14 97 be
       0.029727701 -0.522042 -0.13230419 -0.29507518
000370 bb 43 b1 be 69 89 73 bf 73 3b 5c bf 9c 93 55 3f
       -0.34621987 -0.95131546 -0.8602821 0.8342836
000380 45 97 98 be 2f a8 6b 3e 27 ce dd bc 1b a3 19 be
       -0.2980291 0.23013376 -0.02707584 -0.15003626
000390 0b 65 06 bf c4 ac 52 be 51 5d cd bc 86 94 42 3c
       -0.5249793 -0.20573717 -0.02506891 0.011876231
0003a0 9b 2e 3a 3f 40 04 fa 3e 84 93 bf be 56 ae 56 be
       0.72727364 0.48831367 -0.37417233 -0.20964941
0003b0 b0 54 22 bf 13 e5 1c be 27 e9 0b be 18 ab 6b be
       -0.6341047 -0.1532176 -0.1366316 -0.23014486
0003c0 01 10 9a be e8 c8 93 3e 41 3c 0e 3e 99 b9 77 be
       -0.30090335 0.28864217 0.13890173 -0.24191894
0003d0 b8 6d 8d 3e 09 35 66 bf 26 78 ca be a3 16 19 3f
       0.2762277 -0.89924675 -0.3954479 0.59800166
0003e0 aa 5f 81 3e fa bc 94 bd 6d c8 99 be b3 be 5f be
       0.25268298 -0.07262607 -0.30035725 -0.2185009
0003f0 a4 75 66 3e e8 5e 15 3f 92 2b 13 3e 4f 6e 37 3e
       0.22505814 0.5834794 0.1437209 0.17913173

network_body._body_endoder.seq_layers.2.bias f4 [128]
000000 00 00 00 00 00 00 00 00 00 00 00 00 00 00 00 00
       0.0 0.0 0.0 0.0
000010 00 00 00 00 00 00 00 00 00 00 00 00 00 00 00 00
       0.0 0.0 0.0 0.0
000020 00 00 00 00 00 00 00 00 00 00 00 00 00 00 00 00
       0.0 0.0 0.0 0.0
000030 00 00 00 00 00 00 00 00 00 00 00 00 00 00 00 00
       0.0 0.0 0.0 0.0
000040 00 00 00 00 00 00 00 00 00 00 00 00 00 00 00 00
       0.0 0.0 0.0 0.0
000050 00 00 00 00 00 00 00 00 00 00 00 00 00 00 00 00
       0.0 0.0 0.0 0.0
000060 00 00 00 00 00 00 00 00 00 00 00 00 00 00 00 00
       0.0 0.0 0.0 0.0
000070 00 00 00 00 00 00 00 00 00 00 00 00 00 00 00 00
       0.0 0.0 0.0 0.0
000080 00 00 00 00 00 00 00 00 00 00 00 00 00 00 00 00
       0.0 0.0 0.0 0.0
000090 00 00 00 00 00 00 00 00 00 00 00 00 00 00 00 00
       0.0 0.0 0.0 0.0
0000a0 00 00 00 00 00 00 00 00 00 00 00 00 00 00 00 00
       0.0 0.0 0.0 0.0
0000b0 00 00 00 00 00 00 00 00 00 00 00 00 00 00 00 00
       0.0 0.0 0.0 0.0
0000c0 00 00 00 00 00 00 00 00 00 00 00 00 00 00 00 00
       0.0 0.0 0.0 0.0
0000d0 00 00 00 00 00 00 00 00 00 00 00 00 00 00 00 00
       0.0 0.0 0.0 0.0
0000e0 00 00 00 00 00 00 00 00 00 00 00 00 00 00 00 00
       0.0 0.0 0.0 0.0
0000f0 00 00 00 00 00 00 00 00 00 00 00 00 00 00 00 00
       0.0 0.0 0.0 0.0
000100 00 00 00 00 00 00 00 00 00 00 00 00 00 00 00 00
       0.0 0.0 0.0 0.0
000110 00 00 00 00 00 00 00 00 00 00 00 00 00 00 00 00
       0.0 0.0 0.0 0.0
000120 00 00 00 00 00 00 00 00 00 00 00 00 00 00 00 00
       0.0 0.0 0.0 0.0
000130 00 00 00 00 00 00 00 00 00 00 00 00 00 00 00 00
       0.0 0.0 0.0 0.0
000140 00 00 00 00 00 00 00 00 00 00 00 00 00 00 00 00
       0.0 0.0 0.0 0.0
000150 00 00 00 00 00 00 00 00 00 00 00 00 00 00 00 00
       0.0 0.0 0.0 0.0
000160 00 00 00 00 00 00 00 00 00 00 00 00 00 00 00 00
       0.0 0.0 0.0 0.0
000170 00 00 00 00 00 00 00 00 00 00 00 00 00 00 00 00
       0.0 0.0 0.0 0.0
000180 00 00 00 00 00 00 00 00 00 00 00 00 00 00 00 00
       0.0 0.0 0.0 0.0
000190 00 00 00 00 00 00 00 00 00 00 00 00 00 00 00 00
       0.0 0.0 0.0 0.0
0001a0 00 00 00 00 00 00 00 00 00 00 00 00 00 00 00 00
       0.0 0.0 0.0 0.0
0001b0 00 00 00 00 00 00 00 00 00 00 00 00 00 00 00 00
       0.0 0.0 0.0 0.0
0001c0 00 00 00 00 00 00 00 00 00 00 00 00 00 00 00 00
       0.0 0.0 0.0 0.0
0001d0 00 00 00 00 00 00 00 00 00 00 00 00 00 00 00 00
       0.0 0.0 0.0 0.0
0001e0 00 00 00 00 00 00 00 00 00 00 00 00 00 00 00 00
       0.0 0.0 0.0 0.0
0001f0 00 00 00 00 00 00 00 00 00 00 00 00 00 00 00 00
       0.0 0.0 0.0 0.0

network_body._body_endoder.seq_layers.2.weight f4 [128, 128]
000000 4b fd c7 bd 06 3f 77 bd ba 88 8c 3d ed 63 fb bd
       -0.09765109 -0.06036284 0.06862016 -0.12274919
000010 18 07 96 bd 36 09 e5 3d 4a 05 aa 3c c3 be 96 3c
       -0.07325572 0.111833975 0.020754475 0.01840151
000020 55 14 a3 3d 92 cc fe 3d 49 80 3d 3c 9b 15 21 3d
       0.079628624 0.124413624 0.01156623 0.039327245
000030 f8 91 9b 3d 94 68 d4 bb 4a 3c a5 bd 39 ba 2c 3e
       0.07596201 -0.0064821932 -0.0806814 0.16867913
000040 6d ed 72 3b 7e 99 1c be 61 f7 44 3b 4f 5e da bd
       0.0037067786 -0.15292928 0.0030054676 -0.10662519
000050 0b 1e 1a 3d 9a 41 20 3e 5a 4f 67 3d 57 ed ba bc
       0.037626307 0.15650025 0.05647216 -0.02281825
000060 8b c9 50 3c d0 c2 dc 3d cc 43 a4 bd 01 c9 ea 3c
       0.012743364 0.10779345 -0.08020744 0.0286603
000070 62 99 31 be e9 43 21 be 10 03 05 3c 70 fc f2 bd
       -0.17343667 -0.15748562 0.008118406 -0.11864555
000080 53 30 80 bd cf 3b f1 3d 55 db e0 3d c0 a6 cb 3d
       -0.06259217 0.11778986 0.10979334 0.099439144
000090 fa 66 c9 3d ad f3 29 3d b2 c3 36 bd 58 51 95 3d
       0.09834094 0.041492153 -0.044620223 0.07290906
0000a0 5b 34 b7 3d 57 aa 37 3e b8 f8 81 3d 23 b9 18 be
       0.08945533 0.17936073 0.063462675 -0.14914374
0000b0 25 84 df 3d f5 34 14 bc e1 a5 18 3d 48 cb aa 3b
       0.109138764 -0.009045829 0.03726757 0.0052122213
0000c0 4c 5d 8f 3d 8e ba 81 3d 1e 2d bf 3d a8 df 64 be
       0.07000217 0.063344106 0.09334777 -0.22350943
0000d0 50 45 3a bd cb de c9 bd d9 46 96 bd f1 2f 8c bd
       -0.045476258 -0.098569475 -0.07337732 -0.068450816
0000e0 05 ce f8 bd 80 90 cb 3d ca 34 aa 3c 53 71 0d 3b
       -0.1214867 0.099396706 0.020777125 0.002158244
0000f0 d8 1a 4b 3e a8 e3 98 3c ab 8b 11 3e 84 8e 93 3d
       0.19834459 0.018663242 0.14213435 0.07204917
000100 75 2b 53 3d d7 97 c6 bd f5 f8 63 bc 01 d9 8c bd
       0.051555116 -0.0969693 -0.013914336 -0.06877328
000110 91 28 18 bb 9d 99 a6 3d 7f b0 84 3c 1c 76 b7 bd
       -0.002321754 0.08134768 0.016197441 -0.089580745
000120 b6 cf 9b bd c3 22 50 3d 34 96 94 3a c2 6d df bb
       -0.07607977 0.0508144 0.0011336268 -0.006818504
000130 64 f5 6a bb 16 f3 06 3d cc 05 b0 3d be a3 ed bd
       -0.003585183 0.03294667 0.08594856 -0.11603497
000140 88 b2 82 bb 41 ff b5 bc f5 c7 21 be 44 74 b3 bd
       -0.0039885677 -0.022216441 -0.15798934 -0.0876241
000150 99 81 04 3d 34 cb 7d 3c 24 17 5e 3d 56 6b ac 3d
       0.032350156 0.015490342 0.054221287 0.0841891
000160 0b b8 17 be 29 13 d9 3d 10 8b 20 bd c5 42 dd 3d
       -0.148163 0.10599358 -0.03919512 0.10803751
000170 df 16 03 3e 36 14 49 ba 3c 64 bd 3d 1a 3a 3e bc
       0.12801693 -0.0007670553 0.09247634 -0.011610532
000180 7e 51 dc bd 2f b4 0e bd 4c 4d 85 39 66 24 8a bd
       -0.10757731 -0.034839805 0.00025425327 -0.06745224
000190 d4 17 53 3d 0e 69 91 be f8 14 19 be 86 bf e5 3d
       0.051536396 -0.28400463 -0.14949405 0.11218171
0001a0 85 b0 26 3b f5 82 95 bd 6e 04 ba 3c e5 c3 7e ba
       0.0025434804 -0.07300369 0.02270719 -0.00097185216
0001b0 6b 51 f2 3d 96 3a b2 3d bc 1c a8 3d f1 ff d4 bd
       0.118319355 0.08702581 0.08208606 -0.104003794
0001c0 f4 07 41 3e fc 1c b7 bc 9d a8 38 bd 86 f6 6d bd
       0.1885069 -0.022352688 -0.045082677 -0.05809643
0001d0 29 27 05 3d f8 cc 57 be 8a c5 a2 3d 5d ac 6f bd
       0.03250805 -0.21074283 0.07947834 -0.058513988
0001e0 14 4c 02 bd 8e 04 00 3d d9 ec 1e 3d da c9 8b bd
       -0.031810835 0.031254344 0.038800094 -0.068256095
0001f0 62 47 5e 3d d0 94 6d bd 40 93 35 3e 6b 18 b5 3d
       0.054267295 -0.058003247 0.17731953 0.08842548
000200 8a 19 70 3d d1 f1 7d 3d 03 92 b4 bd e4 69 10 be
       0.058618106 0.061998192 -0.08816912 -0.14102894
000210 ac cd 04 3d 13 c8 11 be f3 1b 0c 3d d4 4b 58 be
       0.032422706 -0.14236479 0.034206342 -0.21122676
000220 b4 15 c9 bc ec 30 07 bd bd dc 49 3e 98 1c 00 3d
       -0.024546482 -0.03300564 0.19713111 0.03127727
000230 83 a2 99 3d ab 84 fd bd 19 df 78 bd 9d 3f 1f be
       0.075017 -0.1237882 -0.060759638 -0.1555161
000240 bb 0b 29 bd 2a ec 98 bc c4 ac 35 bd 99 5c 1c bd
       -0.041270953 -0.0186673 -0.044354215 -0.038174246
000250 80 e5 1c 3d 69 19 fd bd 34 d8 b3 bd 7a 6b 1c bd
       0.038304806 -0.12358362 -0.08781472 -0.038188435
000260 8d 83 27 bd 44 42 c5 3c d3 38 1d bb e5 da 07 bd
       -0.04089694 0.02407945 -0.0023990169 -0.03316774
000270 3e 22 b4 3d 0f c4 d8 3d 82 96 5b bd fb 5a 0e 3e
       0.08795594 0.1058427 -0.053610332 0.13901894
000280 b4 3b d0 bd 6a 81 7e b9 7b 24 9f 3d e5 2b 48 3d
       -0.101676375 -0.00024271538 0.0777063 0.048869986
000290 56 5e e9 bc 62 95 51 be e8 8d 05 bd d8 c1 b3 bd
       -0.028487366 -0.20467141 -0.032606035 -0.08777207
0002a0 53 a4 3b 3b f4 28 1b bd 98 cf 34 bd 74 73 ac 3d
       0.002863188 -0.037880853 -0.04414329 0.084204584
0002b0 04 39 73 3d 78 6a 1c be bb ff 27 bd 81 ee 95 3d
       0.059380546 -0.1527499 -0.041015368 0.07320882
0002c0 72 64 8c 3d 8f df 53 3c d2 b1 2a be d6 28 66 3d
       0.06855096 0.0129317185 -0.16669396 0.056191288
0002d0 06 b9 ef 3c 2c cc 79 3c fa 32 c9 3d 0e ba 9d bd
       0.02926303 0.015246432 0.09824176 -0.07701503
0002e0 de c4 20 3e ed ab ab 3c 88 65 21 3e 63 b0 c2 3d
       0.15700099 0.020956004 0.15761387 0.09506299
0002f0 8b 16 a9 3c e6 69 23 3d ff 3b 65 3d 7a 2b 0a bb
       0.020640632 0.039895914 0.05596542 -0.0021083043
000300 c0 44 73 bb 2e 04 4a 3d f4 20 40 bd f5 36 66 be
       -0.0037119836 0.049320392 -0.046906427 -0.22481902
000310 19 dd 45 3d a4 0c f8 bc 57 c4 ba 3d 93 e6 d1 3d
       0.04830656 -0.030279465 0.0911948 0.10249057
000320 93 65 07 3c da 66 be 3b 53 46 a9 bd 99 ac c2 bc
       0.008263963 0.0058106007 -0.082653664 -0.023763942
000330 bc bc 49 be d4 25 80 3c 9b 9d 3e bd a1 fe 85 3d
       -0.19700903 0.015643038 -0.046537023 0.06542707
000340 27 87 e0 bd 4b 2e ba bc d5 ab 86 3d ef 75 63 3d
       -0.10963278 -0.022727152 0.06575743 0.055532392
000350 8f 7b 28 be ec 7c 03 be aa c5 cc bd 4c ac 30 3d
       -0.16453384 -0.12840623 -0.09998639 0.043133065
000360 41 a2 85 3d 36 83 ac be 06 17 c2 bc e2 71 1d ba
       0.06525088 -0.33693856 -0.023692619 -0.00060060446
000370 f0 64 5a 3e ca ee 79 3c ca 70 85 bd 65 97 65 b9
       0.21327567 0.015254686 -0.065156534 -0.0002189554
000380 e3 d9 d9 bd 5c 6e 5d 3d 84 9d c4 3d b3 69 14 3e
       -0.10637262 0.054060325 0.09600356 0.14493446
000390 02 a2 fe bd d2 56 7a 3c 00 ef 6b 3c a7 6d 97 bd
       -0.12433244 0.015279489 0.014400244 -0.073939614
0003a0 20 99 82 bd a4 60 39 3d f5 8f f4 bc 0a c6 cb bc
       -0.063768625 0.04525818 -0.0298538 -0.024874706
0003b0 5c 1f 28 3d 40 41 17 3b 77 8f 35 be ae 5e 98 bd
       0.04104553 0.0023079664 -0.17730509 -0.07439934
0003c0 4f 79 d4 3d d6 77 d9 3d da f6 9e 3d cc 9c 4a bd
       0.103747 0.1061856 0.07761927 -0.04946594
0003d0 b0 a4 8a bd 4f 60 a1 bd 9e 26 07 bd 9e c0 44 bd
       -0.06769693 -0.078796975 -0.032995813 -0.048035257
0003e0 c9 ed 44 bd 38 06 9e bc 45 55 8f bb 4d 55 dc 3b
       -0.048078332 -0.019290075 -0.0043741786 0.006724036
0003f0 6f ac 21 bd ab 5c bf bd 0b 46 37 bd 21 ee 2c bd
       -0.039471086 -0.09343847 -0.044744533 -0.042219285
