results/ppo/Avoid Obstacle/Avoid Obstacle-1395.pt (torch, 149775 bytes, 12 tensors)

network_body._body_endoder.seq_layers.0.weight f4 [128, 6]
0	0xbe103738	-0.14083564
1	0xbe815bfc	-0.2526549
2	0x3df805d0	0.12110484
3	0xbea9ef98	-0.33190608
4	0xbe696867	-0.22793733
5	0x3e8c5ba4	0.27413666
6	0x3ecd133c	0.40053737
7	0xbebaac66	-0.36459655
8	0x3c60a94b	0.013712238
9	0x3dcf9ad0	0.1013695
10	0xbef320e0	-0.4748602
11	0xbe91fe22	-0.285142
12	0xbe2ea425	-0.17054804
13	0x3f0c2120	0.54738045
14	0xbe67f159	-0.2265066
15	0xbcdcb25a	-0.026940513
16	0xbcfb48b1	-0.03067431
17	0x3f0c7951	0.54872614
18	0xbf0ff6f3	-0.5623619
19	0xbe51e5e4	-0.20497853
20	0x3e893353	0.2679697
21	0xbe09f776	-0.13473305
22	0x3ce18f59	0.027534174
23	0x3ec9118b	0.39271197
24	0xbecf2bad	-0.4046301
25	0xbd8f2294	-0.06989017
26	0xbcc210ac	-0.02368959
27	0x3e3e0bcd	0.18559189
28	0x3e95bfe7	0.29247972
29	0x3e9cb8b3	0.30609664
30	0xbe419f6c	-0.18908471
31	0xbf857928	-1.0427599
32	0xbe7c4fd7	-0.24639831
33	0x3e9f6e1c	0.31138694
34	0xbe92a9fb	-0.2864531
35	0xbeb1785c	-0.3466214
36	0xbe34602b	-0.1761481
37	0xbf58196e	-0.844138
38	0x3dd17b7a	0.102286294
39	0x3e8253d8	0.25454593
40	0xbebbf9be	-0.36713976
41	0xbe9ea178	-0.30982566
42	0xbe3ed6c5	-0.18636616
43	0x3ef037d7	0.46917602
44	0xbc51f1f1	-0.012814031
45	0xbd768eb1	-0.060194675
46	0xbd36fbc6	-0.044673704
47	0x3f3ee986	0.7457508
48	0xbc47de32	-0.012198972
49	0xbe58f659	-0.21187724
50	0xbee99b8b	-0.45626482
51	0x3e359712	0.1773341
52	0x3eb0abe9	0.34506157
53	0x3ed26df1	0.41099504
54	0xbeb45da0	-0.3522768
55	0x3f4f10b4	0.8088486
56	0xbdd058f5	-0.10173217
57	0xbea5ed65	-0.3240768
58	0x3eefd5fb	0.46842942
59	0xbe036f64	-0.12835461
60	0x3f21aeae	0.63157165
61	0xbebbeb19	-0.36702803
62	0xbeef04de	-0.466834
63	0x3e19d52d	0.15022726
64	0xbe88ebe4	-0.2674247
65	0x3e2bb58b	0.16768472
66	0xbe1cb17f	-0.15302084
67	0x3efe1423	0.49624738
68	0x3ec645f6	0.3872525
69	0x3ea1126c	0.31459367
70	0x3f045ea4	0.5170691
71	0x3f3864b9	0.7202869
72	0x3f08e7c3	0.5347864
73	0xbeeecaef	-0.466392
74	0x3ec74c58	0.38925433
75	0x3d6cc7ae	0.057807617
76	0xbebf905e	-0.3741483
77	0xbd08b330	-0.03337401
78	0x3ec9bf03	0.39403543
79	0x3d31324e	0.043260865
80	0x3f13fa34	0.57803655
81	0xbd5d892e	-0.054085903
82	0x3e26c2e8	0.16285288
83	0xbd571201	-0.052507404
84	0x3efaaae0	0.48958492
85	0x3e4586ad	0.19289656
86	0xbd18a3ef	-0.037265714
87	0x3ede904f	0.43469474
88	0xbd8a8216	-0.06763093
89	0xbd9db816	-0.07701127
90	0x3d3d7a72	0.04625935
91	0x3f441b05	0.7660373
92	0xbddd40e5	-0.10803393
93	0x3e78b5ef	0.24288152
94	0xbf51691d	-0.81801015
95	0x3e81bac1	0.25337794
96	0x3ed37d72	0.41306645
97	0xbdc4bb16	-0.09605996
98	0x3e8d749b	0.27628025
99	0x3f2cf859	0.6756645
100	0x3e78237e	0.24232289
101	0xbed2023a	-0.41017324
102	0x3d1662f9	0.03671548
103	0xbf568c46	-0.8380779
104	0x3cb29124	0.021797724
105	0x3ecb332d	0.39687482
106	0xbf649a55	-0.8929799
107	0x3bfc0b3d	0.0076917694
108	0x3f5165fb	0.81796235
109	0x3de3f390	0.1113044
110	0xbe6df7ea	-0.23239103
111	0xbeed1231	-0.4630294
112	0xbe10e381	-0.14149286
113	0xbe83fb6e	-0.25777763
114	0xbe25f020	-0.16204882
115	0xbdcd8120	-0.10034394
116	0x3f2c24af	0.67243475
117	0xbe856a1c	-0.26057518
118	0xbee68818	-0.45025706
119	0x3f7398cf	0.9515504
120	0xbe3dbb61	-0.1852851
121	0xbf1b2d48	-0.6061597
122	0x3e217683	0.15767865
123	0x3e6ad70f	0.22933601
124	0xbe5014ae	-0.20320389
125	0xbe9b8d21	-0.3038111
126	0x3dd82fe7	0.10556012
127	0xbebf191f	-0.37323853
128	0xbe7d406a	-0.24731603
129	0x3f895be3	1.0731167
130	0x3e94ad32	0.29038388
131	0x3f0046df	0.5010814
132	0xbc0437be	-0.008069931
133	0xbd98cbec	-0.0746077
134	0xbf074c2f	-0.5285062
135	0xbf14fbf3	-0.58196944
136	0xbf829890	-1.0202808
137	0x3d8afff2	0.06787099
138	0x3f1be968	0.60903025
139	0xbd606e48	-0.054792672
140	0xbefc9483	-0.49332055
141	0x3f0dca61	0.5538693
142	0xbebe49a7	-0.37165567
143	0xbd1552b2	-0.036455818
144	0x3ce883e4	0.028383203
145	0x3e58a1f8	0.21155536
146	0xbb9e4362	-0.00482981
147	0xbdb56db7	-0.08858817
148	0x3f6fcc0d	0.9367073
149	0x3ef1dc5c	0.47238433
150	0x3f1304cb	0.5742919
151	0x3e1d6851	0.15371825
152	0xbc3ba069	-0.011451819
153	0xbe33b805	-0.17550667
154	0x3d6b39e3	0.057428252
155	0xbe0cc201	-0.13745882
156	0xbe66caa2	-0.22538236
157	0x3f2085a7	0.6270394
158	0x3e4650a3	0.19366698
159	0xbde7145e	-0.112831816
160	0xbe126c9e	-0.14299247
161	0xbecef35a	-0.40420038
162	0x3b5a8cad	0.003334801
163	0xbec20fee	-0.37902778
164	0x3f0493e8	0.5178819
165	0xbebd8228	-0.37013364
166	0xbe771c09	-0.24131788
167	0xbdcf7691	-0.101300366
168	0xbe9b394e	-0.30317158
169	0xbe65c3de	-0.22437999
170	0xbeb7351d	-0.3578271
171	0x3dba0534	0.09083024
172	0xbe9b3884	-0.30316556
173	0xbd335783	-0.04378463
174	0x3d8b9182	0.06814863
175	0xbe1d846c	-0.15382546
176	0xbeabd6f0	-0.33562422
177	0x3d96c9f9	0.07362742
178	0x3f659a68	0.8968873
179	0x3e207267	0.15668641
180	0xbe3101fc	-0.17285913
181	0xbe425266	-0.18976745
182	0xbf4bdf82	-0.7963792
183	0x3eb6e1fd	0.3571929
184	0x3ec97458	0.39346576
185	0x3dc5052d	0.09620128
186	0xbeeb0c0d	-0.45907632
187	0xbf32169e	-0.6956576
188	0xbe209157	-0.15680443
189	0xbe4c8615	-0.19973023
190	0x3f2669a0	0.6500492
191	0x3e860f54	0.2618357
192	0x3f055755	0.52086383
193	0x3dcf50ed	0.10122857
194	0xbf7f39b3	-0.9969742
195	0x3ef09e47	0.46995756
196	0x3ec3d133	0.38245544
197	0x3f632e52	0.88742554
198	0x3e582b33	0.21110229
199	0x3eff2117	0.49829933
200	0x3e94bd75	0.29050794
201	0xbe0693ac	-0.1314227
202	0x3e958e6d	0.29210225
203	0x3c88a8af	0.016681997
204	0x3eb09410	0.34487963
205	0x3f841965	1.032025
206	0x3e8d2491	0.2756696
207	0xbf5a1f9c	-0.8520448
208	0xbe3306e5	-0.17483099
209	0xbe6d55b7	-0.23177229
210	0x3eb5e81b	0.35528645
211	0x3e082c0c	0.13298053
212	0xbd2d9457	-0.042377796
213	0x3e96f639	0.29484728
214	0xbf664433	-0.89947814
215	0x3ed619d9	0.41816595
216	0xbf07d406	-0.530579
217	0x3d95ff88	0.07324129
218	0x3daf3c96	0.08556478
219	0xbe722dac	-0.23650235
220	0xbe44dbbc	-0.19224447
221	0xbf38f85b	-0.7225396
222	0x3e09a4a8	0.13441718
223	0x3ef83a59	0.48482016
224	0x3cce94c8	0.025217429
225	0xbe0023a8	-0.12513602
226	0x3e7bb1ce	0.24579546
227	0xbcb4d155	-0.022072474
228	0x3f88b10d	1.0679032
229	0x3f2fdd0e	0.6869668
230	0xbf97f83e	-1.1872633
231	0xbe846b64	-0.25863183
232	0x3e9f6f80	0.31139755
233	0xbea95fa2	-0.33080775
234	0xbe8080bf	-0.25098225
235	0xbf00d4f5	-0.50324947
236	0x3eb42ace	0.35188907
237	0x3e801b02	0.25020605
238	0x3e1646ac	0.14675397
239	0x3f1cd752	0.6126605
240	0xbe945cee	-0.2897715
241	0xbe9e5ef5	-0.3093182
242	0x3f56926a	0.8381716
243	0xbefb672c	-0.4910215
244	0xbea29d62	-0.317607
245	0x3f004f57	0.50121063
246	0x3f0fb899	0.5614105
247	0x3d02f3e8	0.03197089
248	0x3ee65c22	0.44992167
249	0x3ee9987e	0.45624155
250	0x3c6b18e4	0.014349196
251	0x3e13c24b	0.14429586
252	0xbe8d8bd2	-0.27645737
253	0x3e3185b7	0.17336164
254	0xbf482c10	-0.78192234
255	0xbec38b5e	-0.38192266

network_body._body_endoder.seq_layers.0.bias f4 [128]
0	0x00000000	0.0
1	0x00000000	0.0
2	0x00000000	0.0
3	0x00000000	0.0
4	0x00000000	0.0
5	0x00000000	0.0
6	0x00000000	0.0
7	0x00000000	0.0
8	0x00000000	0.0
9	0x00000000	0.0
10	0x00000000	0.0
11	0x00000000	0.0
12	0x00000000	0.0
13	0x00000000	0.0
14	0x00000000	0.0
15	0x00000000	0.0
16	0x00000000	0.0
17	0x00000000	0.0
18	0x00000000	0.0
19	0x00000000	0.0
20	0x00000000	0.0
21	0x00000000	0.0
22	0x00000000	0.0
23	0x00000000	0.0
24	0x00000000	0.0
25	0x00000000	0.0
26	0x00000000	0.0
27	0x00000000	0.0
28	0x00000000	0.0
29	0x00000000	0.0
30	0x00000000	0.0
31	0x00000000	0.0
32	0x00000000	0.0
33	0x00000000	0.0
34	0x00000000	0.0
35	0x00000000	0.0
36	0x00000000	0.0
37	0x00000000	0.0
38	0x00000000	0.0
39	0x00000000	0.0
40	0x00000000	0.0
41	0x00000000	0.0
42	0x00000000	0.0
43	0x00000000	0.0
44	0x00000000	0.0
45	0x00000000	0.0
46	0x00000000	0.0
47	0x00000000	0.0
48	0x00000000	0.0
49	0x00000000	0.0
50	0x00000000	0.0
51	0x00000000	0.0
52	0x00000000	0.0
53	0x00000000	0.0
54	0x00000000	0.0
55	0x00000000	0.0
56	0x00000000	0.0
57	0x00000000	0.0
58	0x00000000	0.0
59	0x00000000	0.0
60	0x00000000	0.0
61	0x00000000	0.0
62	0x00000000	0.0
63	0x00000000	0.0
64	0x00000000	0.0
65	0x00000000	0.0
66	0x00000000	0.0
67	0x00000000	0.0
68	0x00000000	0.0
69	0x00000000	0.0
70	0x00000000	0.0
71	0x00000000	0.0
72	0x00000000	0.0
73	0x00000000	0.0
74	0x00000000	0.0
75	0x00000000	0.0
76	0x00000000	0.0
77	0x00000000	0.0
78	0x00000000	0.0
79	0x00000000	0.0
80	0x00000000	0.0
81	0x00000000	0.0
82	0x00000000	0.0
83	0x00000000	0.0
84	0x00000000	0.0
85	0x00000000	0.0
86	0x00000000	0.0
87	0x00000000	0.0
88	0x00000000	0.0
89	0x00000000	0.0
90	0x00000000	0.0
91	0x00000000	0.0
92	0x00000000	0.0
93	0x00000000	0.0
94	0x00000000	0.0
95	0x00000000	0.0
96	0x00000000	0.0
97	0x00000000	0.0
98	0x00000000	0.0
99	0x00000000	0.0
100	0x00000000	0.0
101	0x00000000	0.0
102	0x00000000	0.0
103	0x00000000	0.0
104	0x00000000	0.0
105	0x00000000	0.0
106	0x00000000	0.0
107	0x00000000	0.0
108	0x00000000	0.0
109	0x00000000	0.0
110	0x00000000	0.0
111	0x00000000	0.0
112	0x00000000	0.0
113	0x00000000	0.0
114	0x00000000	0.0
115	0x00000000	0.0
116	0x00000000	0.0
117	0x00000000	0.0
118	0x00000000	0.0
119	0x00000000	0.0
120	0x00000000	0.0
121	0x00000000	0.0
122	0x00000000	0.0
123	0x00000000	0.0
124	0x00000000	0.0
125	0x00000000	0.0
126	0x00000000	0.0
127	0x00000000	0.0

network_body._body_endoder.seq_layers.2.weight f4 [128, 128]
0	0xbe2b2d58	-0.16716516
1	0xbe78ab44	-0.24284083
2	0x3d47017f	0.04858541
3	0xbdd402c1	-0.10352088
4	0xbd8c502c	-0.06851229
5	0xbd795938	-0.0608761
6	0xbe38bd8d	-0.18041058
7	0xbcae8c20	-0.021307051
8	0xbda030c4	-0.07821801
9	0x3dbfec9b	0.09371301
10	0xbc6371d4	-0.013882119
11	0x3e3a10e1	0.18170501
12	0x3dd6cca2	0.10488249
13	0xbe0cc5b2	-0.1374729
14	0xbd885f72	-0.0665883
15	0xbe043467	-0.12910615
16	0xbe1be0d5	-0.15222485
17	0x3d373cca	0.044735707
18	0xbe1f1c8d	-0.15538235
19	0x3e423688	0.18966115
20	0xbd2bb336	-0.041918956
21	0x3dbe2ec8	0.092862666
22	0x3d58fa37	0.052973
23	0xbba3c6c2	-0.004998059
24	0x3e173db6	0.14769635
25	0xbd8f083c	-0.069839925
26	0xbda0966e	-0.07841192
27	0x3dd10cec	0.10207543
28	0xbd988bc1	-0.07448531
29	0x3cbb91d8	0.022896692
30	0x3d0f4a09	0.034982715
31	0x3df64868	0.12025529
32	0xbcc4a41a	-0.024004031
33	0x3d1a5e1c	0.037687406
34	0x3dab92c8	0.08377606
35	0xbcb02036	-0.021499734
36	0x3c9d8c94	0.019232072
37	0x3d9c8534	0.07642594
38	0x3bbcabf3	0.0057578026
39	0x3c715629	0.014730015
40	0x3d950537	0.07276385
41	0x3d1f6a70	0.038919866
42	0x3bcd6a5f	0.006268784
43	0x3cff8fc6	0.031196486
44	0x3c67aa40	0.014139712
45	0xbd69f809	-0.05712131
46	0x3ca5382f	0.020168392
47	0xbd6f3ddf	-0.058408614
48	0xbd7b61da	-0.061372615
49	0xbcfc137b	-0.030771008
50	0xbdb2c419	-0.08728809
51	0x3d69739d	0.056995023
52	0xbdb73d03	-0.08947184
53	0x3df9d94f	0.121996514
54	0x3cd584b8	0.026064262
55	0x3db1e2d8	0.08685845
56	0x3dcec511	0.10096181
57	0xbd2d6e84	-0.042341724
58	0x3d43f594	0.047841623
59	0x3b286d62	0.0025699963
60	0x3c06ac1d	0.008219746
61	0xbda975f0	-0.08274448
62	0x3d727d06	0.059201263
63	0x3c2af091	0.010433332
64	0xbd9cc207	-0.07654195
65	0xbb448eae	-0.002999227
66	0xbd007365	-0.03136005
67	0x3cc429a4	0.023945637
68	0xbc842cdf	-0.016134677
69	0xbbfd2dc7	-0.0077264044
70	0x3dc8df98	0.09808272
71	0x3ca68754	0.020328201
72	0x3dc7d828	0.097580254
73	0x3c26c899	0.010179662
74	0xbda769a2	-0.08174445
75	0xbe021a87	-0.12705432
76	0x3a68634c	0.0008864894
77	0xbe55df73	-0.2088602
78	0xbcc76ebe	-0.024344798
79	0x3dd88bc9	0.10573537
80	0x3d2c64e4	0.042088404
81	0x3db02c7b	0.08602234
82	0x3c6abcae	0.014327211
83	0xbd56d784	-0.052451625
84	0xbde22f6c	-0.11044201
85	0xbdec847f	-0.11548709
86	0x3ddb2202	0.10699846
87	0xbe08fb04	-0.13377005
88	0x3e185ad3	0.14878397
89	0xbd8c0cbb	-0.06838366
90	0x3d91669f	0.070996515
91	0x3cd6aeec	0.026206456
92	0x3dcf9284	0.101353675
93	0xbe80eb97	-0.2517974
94	0x3d6312cb	0.055437844
95	0x3d1ffb3f	0.039057966
96	0x3d331c07	0.0437279
97	0x3d3a72ca	0.045519628
98	0xbd16e802	-0.036842354
99	0x3e0d64c3	0.13807969
100	0x3dca5e8f	0.09881317
101	0x3d13fcfc	0.036129937
102	0xbd238822	-0.03992475
103	0x3e034b75	0.12821753
104	0xbdd275a8	-0.102763474
105	0xbd1e3d90	-0.03863293
106	0xbb6d21c5	-0.0036183458
107	0x3d11549c	0.03548108
108	0x3d183e32	0.03716869
109	0xba9e6de7	-0.0012087197
110	0x3d65aa1f	0.056070443
111	0x3d9f9949	0.07792909
112	0xbe1f73c0	-0.15571499
113	0x3e03cae6	0.12870368
114	0xbc9e239a	-0.019304086
115	0xbd42c4e8	-0.047551066
116	0xbc6936f9	-0.014234298
117	0xbe12c1da	-0.14331761
118	0xb690470c	-4.2998054e-06
119	0x3de4a1c6	0.11163668
120	0xbd5114c0	-0.05104518
121	0xbd864d60	-0.06557727
122	0xbc67a6fd	-0.014138934
123	0xbd225fda	-0.039642192
124	0x3d529b36	0.051417552
125	0xbcd3fc5a	-0.025877167
126	0x3d8d6a0c	0.069049925
127	0x3cbe60c1	0.023239495
128	0x3d7d7cf9	0.06188676
129	0x3d88222c	0.06647143
130	0x3e3dcdb7	0.18535505
131	0x3e08f97c	0.1337642
132	0x3d53bfea	0.051696695
133	0x3e29a44a	0.16566578
134	0xbd319606	-0.043355964
135	0x3daeaee9	0.08529455
136	0xbc171c73	-0.009223091
137	0x3cf1cfcb	0.029518029
138	0x3d527773	0.051383447
139	0xbd2c69bd	-0.042093027
140	0xbcf06567	-0.029345227
141	0xbd1dc250	-0.03851539
142	0x3d062314	0.032748297
143	0xbd85f930	-0.06541669
144	0xbe0f4f9d	-0.13995214
145	0xbdf71e24	-0.12066296
146	0x3de842e5	0.11340884
147	0x3c3db786	0.0115794
148	0xbd00fd63	-0.03149165
149	0x3e0a84a6	0.13527164
150	0xbd44fce2	-0.04809273
151	0xbe02f7c3	-0.12789826
152	0x3d81dd9b	0.06341096
153	0x3c9290e1	0.01789135
154	0x3da06d9b	0.078334056
155	0x3d204e88	0.039137393
156	0xbd766b9d	-0.06016122
157	0x3d6fd812	0.05855567
158	0xbce43e33	-0.02786169
159	0xbcd250bc	-0.025673263
160	0xbd1677be	-0.03673529
161	0x3d8f9437	0.070106916
162	0xbc6311eb	-0.013859252
163	0x3d4e93ba	0.05043385
164	0x3cb69d18	0.022291705
165	0xbd250928	-0.040291935
166	0x3d855f22	0.06512286
167	0xbc95f95f	-0.018307386
168	0x3a7a23db	0.0009542086
169	0x3de3ad5d	0.11117051
170	0xbdde41c4	-0.108523875
171	0xbc992ea8	-0.018699005
172	0x3c0d5b67	0.008627749
173	0x3ba4ca23	0.0050289794
174	0xbd2c6445	-0.042087812
175	0xbe050994	-0.12991935
176	0x3dad4423	0.08460262
177	0x3dcfdaa7	0.101491265
178	0xbdcc9ddf	-0.09991049
179	0xbc685ca5	-0.014182244
180	0x3e1aad93	0.15105276
181	0x3e113a3f	0.14182375
182	0xbcb9f25e	-0.022698577
183	0xbce9a344	-0.028520234
184	0x3d57f5e9	0.052724753
185	0x3cf8e712	0.03038362
186	0x3c9c4dc6	0.019080054
187	0x3d174884	0.03693439
188	0x3d69b905	0.057061214
189	0x3da952f6	0.08267777
190	0xbc85fcae	-0.016355839
191	0x3dbd48e6	0.0924242
192	0xbb4a0ec6	-0.003083156
193	0x3d9868f7	0.074418955
194	0xbd52c769	-0.051459704
195	0x3c7f1b1f	0.015570431
196	0xbd4c7d8b	-0.049924415
197	0x3e3e5945	0.18588741
198	0xbcea64cf	-0.028612522
199	0xbe00a5c5	-0.12563236
200	0x3cb3d468	0.02195187
201	0x3d5cb446	0.05388286
202	0x3e2720e7	0.16321145
203	0xbe17e989	-0.1483518
204	0xbdaca538	-0.084299505
205	0x3e1406b6	0.14455685
206	0x3dbcae12	0.09212889
207	0x3e35ae15	0.17742188
208	0x3d340c47	0.04395702
209	0xbe336675	-0.17519553
210	0xbe1d0828	-0.15335143
211	0x3d7dede9	0.061994467
212	0x3cf6ea57	0.030141039
213	0xbde1489b	-0.110001765
214	0x3db1dccc	0.08684692
215	0xbbdf0272	-0.0068057114
216	0xbdc693b8	-0.09696144
217	0x3c8c693f	0.017140029
218	0xbc92d76c	-0.017924987
219	0x3dfb895a	0.12282057
220	0xbcb03f42	-0.021514539
221	0x3d26a415	0.040683825
222	0x3e361c5f	0.1778426
223	0xbe3bc3b6	-0.18336377
224	0x3e255d69	0.16148914
225	0xbd90740f	-0.070533864
226	0xbe46fb25	-0.19431742
227	0xbce245e3	-0.027621215
228	0x3d8afc2f	0.067863815
229	0x3db0a0ca	0.08624418
230	0xbd9f21db	-0.07770129
231	0x3cb35f99	0.02189617
232	0xbd591855	-0.05300172
233	0xbdb01dd7	-0.085994415
234	0xbc9b3360	-0.018945396
235	0xbd49710b	-0.04918007
236	0xbd083228	-0.033250958
237	0x3b821039	0.003969219
238	0x3da2d1f6	0.07950203
239	0xbbb51aba	-0.0055268677
240	0x3e376762	0.17910531
241	0xbccab966	-0.024746608
242	0xbe0bc79f	-0.13650368
243	0xbd395721	-0.04524911
244	0x3dd356c0	0.103192806
245	0x3dbe8f94	0.09304729
246	0x3c45e75b	0.012079085
247	0xba7f94fb	-0.0009749678
248	0xbc2aecad	-0.0104324045
249	0xbccd0b94	-0.025029935
250	0x3d786c1b	0.060649972
251	0x3d429691	0.047506873
252	0xbd3659d9	-0.04451928
253	0x3de9c0e8	0.11413747
254	0x3dedac6d	0.11605153
255	0xbdb47697	-0.08811682

network_body._body_endoder.seq_layers.2.bias f4 [128]
0	0x00000000	0.0
1	0x00000000	0.0
2	0x00000000	0.0
3	0x00000000	0.0
4	0x00000000	0.0
5	0x00000000	0.0
6	0x00000000	0.0
7	0x00000000	0.0
8	0x00000000	0.0
9	0x00000000	0.0
10	0x00000000	0.0
11	0x00000000	0.0
12	0x00000000	0.0
13	0x00000000	0.0
14	0x00000000	0.0
15	0x00000000	0.0
16	0x00000000	0.0
17	0x00000000	0.0
18	0x00000000	0.0
19	0x00000000	0.0
20	0x00000000	0.0
21	0x00000000	0.0
22	0x00000000	0.0
23	0x00000000	0.0
24	0x00000000	0.0
25	0x00000000	0.0
26	0x00000000	0.0
27	0x00000000	0.0
28	0x00000000	0.0
29	0x00000000	0.0
30	0x00000000	0.0
31	0x00000000	0.0
32	0x00000000	0.0
33	0x00000000	0.0
34	0x00000000	0.0
35	0x00000000	0.0
36	0x00000000	0.0
37	0x00000000	0.0
38	0x00000000	0.0
39	0x00000000	0.0
40	0x00000000	0.0
41	0x00000000	0.0
42	0x00000000	0.0
43	0x00000000	0.0
44	0x00000000	0.0
45	0x00000000	0.0
46	0x00000000	0.0
47	0x00000000	0.0
48	0x00000000	0.0
49	0x00000000	0.0
50	0x00000000	0.0
51	0x00000000	0.0
52	0x00000000	0.0
53	0x00000000	0.0
54	0x00000000	0.0
55	0x00000000	0.0
56	0x00000000	0.0
57	0x00000000	0.0
58	0x00000000	0.0
59	0x00000000	0.0
60	0x00000000	0.0
61	0x00000000	0.0
62	0x00000000	0.0
63	0x00000000	0.0
64	0x00000000	0.0
65	0x00000000	0.0
66	0x00000000	0.0
67	0x00000000	0.0
68	0x00000000	0.0
69	0x00000000	0.0
70	0x00000000	0.0
71	0x00000000	0.0
72	0x00000000	0.0
73	0x00000000	0.0
74	0x00000000	0.0
75	0x00000000	0.0
76	0x00000000	0.0
77	0x00000000	0.0
78	0x00000000	0.0
79	0x00000000	0.0
80	0x00000000	0.0
81	0x00000000	0.0
82	0x00000000	0.0
83	0x00000000	0.0
84	0x00000000	0.0
85	0x00000000	0.0
86	0x00000000	0.0
87	0x00000000	0.0
88	0x00000000	0.0
89	0x00000000	0.0
90	0x00000000	0.0
91	0x00000000	0.0
92	0x00000000	0.0
93	0x00000000	0.0
94	0x00000000	0.0
95	0x00000000	0.0
96	0x00000000	0.0
97	0x00000000	0.0
98	0x00000000	0.0
99	0x00000000	0.0
100	0x00000000	0.0
101	0x00000000	0.0
102	0x00000000	0.0
103	0x00000000	0.0
104	0x00000000	0.0
105	0x00000000	0.0
106	0x00000000	0.0
107	0x00000000	0.0
108	0x00000000	0.0
109	0x00000000	0.0
110	0x00000000	0.0
111	0x00000000	0.0
112	0x00000000	0.0
113	0x00000000	0.0
114	0x00000000	0.0
115	0x00000000	0.0
116	0x00000000	0.0
117	0x00000000	0.0
118	0x00000000	0.0
119	0x00000000	0.0
120	0x00000000	0.0
121	0x00000000	0.0
122	0x00000000	0.0
123	0x00000000	0.0
124	0x00000000	0.0
125	0x00000000	0.0
126	0x00000000	0.0
127	0x00000000	0.0

action_model._continuous_distribution.log_sigma f4 [1, 3]
0	0x00000000	0.0
1	0x00000000	0.0
2	0x00000000	0.0

action_model._continuous_distribution.mu.weight f4 [3, 128]
0	0xbc73f342	-0.01488954
1	0x3bc03534	0.0058657173
2	0x3b7a26aa	0.0038170018
3	0x3d383573	0.04497285
4	0x3cb0ee30	0.021597952
5	0xbc659708	-0.014013059
6	0xbc3c182b	-0.0114803715
7	0xbc705613	-0.014668959
8	0x3c8d884d	0.017276907
9	0x3bb3a767	0.0054826024
10	0x3c97f3fe	0.018548962
11	0x3c439213	0.011936682
12	0xbc6132a0	-0.01374498
13	0x39873ef3	0.00025796107
14	0xbcb54fdd	-0.022132808
15	0xbd0b21c3	-0.033967745
16	0xbbbca4a7	-0.005756933
17	0x3c972918	0.018452212
18	0xbcedc21d	-0.029023224
19	0x3c170e2b	0.0092196865
20	0x3b55e83d	0.0032639646
21	0xbc98098e	-0.018559244
22	0x3c3e12a9	0.011601129
23	0xbc46c339	-0.012131506
24	0xbc8bab95	-0.01704959
25	0xbbd2c31a	-0.0064319493
26	0x3a184863	0.00058091263
27	0x3bd535d2	0.00650666
28	0xbc9401c8	-0.018067256
29	0xbcb78216	-0.022400897
30	0x3bd2a263	0.0064280494
31	0x3b9ee6eb	0.004849305
32	0x3c9d1346	0.01917423
33	0xba508b5d	-0.0007955337
34	0x3c26540f	0.010151877
35	0xba8559db	-0.0010173874
36	0x3caa9589	0.020823257
37	0xbc54c91d	-0.012987402
38	0xbb5d910b	-0.0033808376
39	0xbb0c9ba7	-0.002145508
40	0x3c05c046	0.008163517
41	0x3cb83490	0.022486001
42	0xbad9b6ab	-0.0016610225
43	0xbc17a265	-0.0092550265
44	0xbcf46798	-0.029834554
45	0x3aec4c78	0.001802816
46	0x3bda5fcb	0.0066642514
47	0xbbee88ba	-0.0072794827
48	0x3b80d258	0.003931325
49	0xbc73aba7	-0.014872468
50	0xbb08d8cc	-0.0020881174
51	0x3c59f4f8	0.013303034
52	0x3be8c4b7	0.0071035284
53	0x3c050c89	0.008120664
54	0x3c81b767	0.015834523
55	0x3c331fe4	0.010932896
56	0xbc5d72b0	-0.013516113
57	0xbc1aa4d6	-0.009438714
58	0x3c9ae294	0.018906869
59	0x3cacbc0e	0.021085765
60	0xbaaa949d	-0.0013014261
61	0x3c8e5c77	0.017378075
62	0x3c51a39b	0.012795354
63	0x3b6d8922	0.0036245068
64	0xbd3530db	-0.044236045
65	0x3c11b8de	0.008894173
66	0xbb7f35c0	-0.003894195
67	0xbc15c527	-0.009141243
68	0x3c8055bb	0.01566588
69	0xbcc646ec	-0.02420374
70	0xbc13379b	-0.008985425
71	0x3ad57e15	0.0016288186
72	0xbc728ed3	-0.01480456
73	0xbc3391fa	-0.0109600965
74	0xbc203d73	-0.009780276
75	0xbc99a317	-0.018754525
76	0xbbd5fb82	-0.006530226
77	0xbc4bd9f3	-0.0124421
78	0xbcc8c877	-0.024509652
79	0xbbdbb755	-0.0067052045
80	0xbca43c1c	-0.020048194
81	0x39aef63b	0.00033371322
82	0x3c1aefe4	0.009456608
83	0x3c8db1c7	0.017296685
84	0x3c5cf7aa	0.013486782
85	0x3bb80ece	0.005616999
86	0xbcc90739	-0.024539577
87	0xbc3a7577	-0.011380545
88	0xbc03f808	-0.008054741
89	0x3cb01a36	0.021496873
90	0x3c6000f8	0.013672106
91	0x3ce1fa03	0.027585035
92	0xbc172373	-0.00922476
93	0x3c1af17c	0.009456988
94	0xbc237c05	-0.009978299
95	0x3bc99348	0.0061515905
96	0xbaadd89b	-0.0013263406
97	0x3cfbcced	0.030737365
98	0xbc668f4b	-0.01407225
99	0xbb8dbf77	-0.004325803
100	0xba544f7a	-0.0008099001
101	0x3cdcb873	0.026943421
102	0xbc01cdc8	-0.007922597
103	0x3c1cfeb8	0.009582214
104	0xbbdd317f	-0.006750285
105	0xbc8fe60d	-0.017565751
106	0xbc35dc1b	-0.0110998405
107	0x3c98c05b	0.01864641
108	0x3b86decb	0.0041159145
109	0x3b34d2c8	0.0027591456
110	0xbca54772	-0.02017567
111	0x3b865986	0.0041000275
112	0xbc2c1752	-0.010503607
113	0xbc91c150	-0.017792374
114	0x3bd5c07d	0.0065231905
115	0xbb8e2e86	-0.004339042
116	0xbc8e5fb5	-0.017379621
117	0xbcc5527b	-0.024087181
118	0x3cc94ca0	0.02457267
119	0x3c9d0973	0.019169545
120	0xba9d0276	-0.0011978883
121	0xbd1d1d4c	-0.038358018
122	0xbc39dd15	-0.011344214
123	0xbc5395bf	-0.01291412
124	0x3ba3f805	0.0050039315
125	0xbbdd66c5	-0.006756636
126	0xbc25b230	-0.010113284
127	0x3aaf54c0	0.0013376698
128	0x3d18f576	0.037343465
129	0x3c0ffc6c	0.008788209
130	0x3ba9d44f	0.00518278
131	0x3c2c4045	0.01051337
132	0xbc847bc9	-0.016172307
133	0x3ca17000	0.019706726
134	0x3a282351	0.0006413954
135	0xba788925	-0.00094808853
136	0x3c8d5a55	0.017254988
137	0x3b856e6b	0.0040720007
138	0x3d1acfdb	0.037795883
139	0xbc044d67	-0.008075095
140	0x3b8d733e	0.0043167165
141	0x3c19bf9f	0.009384065
142	0x3cd886a2	0.026431385
143	0xbba5e919	-0.005063188
144	0xbce5b07d	-0.028038258
145	0x3aa00ddc	0.0012211162
146	0x3c970412	0.018434558
147	0xbc73eb7d	-0.014887688
148	0xbbca2c84	-0.0061698575
149	0xbcde76ed	-0.027156318
150	0x390961d6	0.00013101785
151	0xbcc8cd93	-0.024512088
152	0xbbda2af3	-0.006657952
153	0xbc7860c0	-0.015159786
154	0xbc099d19	-0.008399271
155	0x3ac427f5	0.0014965521
156	0xbd1ec53c	-0.038762316
157	0x3c6493da	0.013951266
158	0xbcaa7aa6	-0.020810436
159	0xbc27e2fd	-0.010246989
160	0x3c13018b	0.008972536
161	0x3d38b33a	0.0450928
162	0xbc7d0300	-0.01544261
163	0xbc93e095	-0.018051425
164	0xbd13ab37	-0.036051955
165	0x3ccb7ff4	0.024841286
166	0xbab81c77	-0.0014046569
167	0xbc1b0014	-0.009460468
168	0x3cd432fa	0.025903214
169	0x3b9f8c04	0.004868986
170	0xbb292fd1	-0.0025815854
171	0x3c00d7d8	0.007863961
172	0x3c4aef2b	0.012386124
173	0xbbd3b258	-0.006460469
174	0x3cef9685	0.029246578
175	0x3ba3a293	0.0049937456
176	0x3c367461	0.011136145
177	0x3bfe05dd	0.007752164
178	0x3aa3715f	0.00124697
179	0x3c39141f	0.011296301
180	0xbc6f336d	-0.014599663
181	0xbc034737	-0.008012584
182	0xbbde4d57	-0.006784122
183	0xbc7ed560	-0.015553802
184	0xba9781ee	-0.0011559108
185	0x3b3b879b	0.0028614763
186	0xbc36c867	-0.011156178
187	0xbc2e2c32	-0.010630654
188	0xbbd7c77a	-0.0065850588
189	0xbcc2e275	-0.023789624
190	0xbad7f353	-0.0016475715
191	0x3c9286cd	0.017886544
192	0xbc9b3426	-0.018945765
193	0x3c2bfb9f	0.010497003
194	0x3c5e9ad2	0.013586717
195	0x3d763688	0.0601106
196	0x3bfd2277	0.007725056
197	0x3d195b5a	0.037440635
198	0x3a7600dd	0.0009384284
199	0x3cde8823	0.027164524
200	0x3c5a2afb	0.013315911
201	0x3c800e74	0.015631892
202	0x3bd8985a	0.0066099586
203	0x3bc0195d	0.0058623985
204	0xbcbe2467	-0.023210717
205	0xbb883c13	-0.004157552
206	0xbc7ad792	-0.015310185
207	0x3c28df8b	0.010307203
208	0x3d1e5799	0.03865776
209	0x3b2b95d3	0.0026181831
210	0xbcbc689f	-0.022999106
211	0x3b93d9b8	0.004512038
212	0x3bf0aeed	0.0073450715
213	0xbbbdc63f	-0.005791455
214	0x3c1ac58f	0.009446516
215	0xbd047a53	-0.03234322
216	0x3b831c5e	0.0040011844
217	0xbc3d7533	-0.011563587
218	0x3c201eff	0.009773015
219	0xbc74e54d	-0.014947248
220	0x3c2bab22	0.010477813
221	0x3c96e619	0.018420266
222	0xbcb5cfd6	-0.02219383
223	0x3c8d1a38	0.017224416
224	0x3c8054b3	0.015665388
225	0x3c1c6823	0.0095463125
226	0x3ced09b0	0.028935283
227	0x3ca2d7a3	0.019878214
228	0xbc5f7ffa	-0.013641352
229	0xbc6b6f4d	-0.014369798
230	0xbc871e5d	-0.01649397
231	0xbcfda7aa	-0.030963738
232	0xbc854e43	-0.01627267
233	0xbb059eef	-0.0020388921
234	0xbb76ce00	-0.0037659407
235	0xbbb76ceb	-0.005597701
236	0xbc4ce2f7	-0.0125052845
237	0x3c08de39	0.008353763
238	0x3ab56169	0.0013838235
239	0xbc81080b	-0.015750905
240	0xbccea280	-0.02522397
241	0x3ca35c43	0.019941455
242	0xbcaff47b	-0.021478882
243	0x3b855ea6	0.004070121
244	0x3c132b93	0.008982557
245	0x3be80585	0.007080736
246	0x3cf764f2	0.030199502
247	0xbc762255	-0.015022834
248	0xbc459a6c	-0.012060743
249	0xbc9011cc	-0.017586611
250	0x3ba4a982	0.0050250897
251	0xbcb364c5	-0.021898637
252	0xbc6fa24b	-0.014626096
253	0x3cb3359a	0.021876145
254	0x3cb5cc54	0.022192158
255	0x3cc4922e	0.023995485

action_model._continuous_distribution.mu.bias f4 [3]
0	0x00000000	0.0
1	0x00000000	0.0
2	0x00000000	0.0

network_body._body_endoder.seq_layers.0.weight f4 [128, 6]
0	0xbd6886ee	-0.056769304
1	0x3c673fc3	0.014114323
2	0x3dcf2665	0.10114745
3	0x3f06a33e	0.5259284
4	0xbf145f96	-0.5795835
5	0x3ec618c9	0.38690785
6	0x3df31d67	0.118708424
7	0x3f2126ff	0.6295013
8	0xbe446175	-0.19177802
9	0x3ecf8a4e	0.40535206
10	0x3d44dd4e	0.048062615
11	0xbd360457	-0.044437733
12	0xbc2e98ef	-0.010656579
13	0xbe2540a2	-0.16137937
14	0x3ee2e474	0.4431492
15	0x3db742db	0.089482985
16	0xbdffbdc4	-0.12487367
17	0x3e895b6d	0.26827565
18	0xbd8c4ffb	-0.068511926
19	0xbee5ddce	-0.44895786
20	0xbeb2e48c	-0.34939992
21	0xbe951b37	-0.29122326
22	0xbf05c88a	-0.52259123
23	0x3f36dbdb	0.7142922
24	0x3e7e9120	0.24860048
25	0xbe66984a	-0.22519031
26	0x3cbce258	0.023057148
27	0xbee42cdb	-0.44565472
28	0xbf36e2d8	-0.71439886
29	0xbf3f3e1e	-0.7470416
30	0x3e978905	0.29596725
31	0xbe3bbcf7	-0.18333803
32	0x3f2e9982	0.68202984
33	0xbdd92ebe	-0.106046185
34	0x3edc5381	0.43032458
35	0xbea620c3	-0.3244687
36	0x3f3bbf2d	0.73338586
37	0xbdbc340b	-0.09189614
38	0x3e37e3e9	0.17958035
39	0x3e8e8777	0.27837726
40	0x3ced9ba5	0.029004881
41	0xbebc5816	-0.36785954
42	0x3f210414	0.6289685
43	0xbe9e3312	-0.3089834
44	0xbee9745a	-0.45596582
45	0x3debc65f	0.11512446
46	0xbe1de593	-0.15419607
47	0x3e61315e	0.21991488
48	0xbf0762d9	-0.52885205
49	0x3e8a2cc5	0.2698728
50	0xbf236ccc	-0.63837886
51	0xbece706a	-0.4032014
52	0x3e4fdac1	0.20298292
53	0xbd9790c1	-0.074006565
54	0xbf2015e7	-0.6253342
55	0xbe015a13	-0.12632017
56	0xbf77e9fa	-0.96841395
57	0xbd5f7263	-0.054552447
58	0x3da5ee2b	0.081020676
59	0xbdb2a9d2	-0.08723797
60	0xbed22dcb	-0.41050562
61	0x3eaa4b4d	0.33260575
62	0xbe1d7cce	-0.1537964
63	0x3dde906e	0.108673915
64	0x3f322689	0.6959005
65	0x3ef5ad55	0.47983804
66	0xbf145f73	-0.57958144
67	0xbe4963e6	-0.19667014
68	0x3eb9b27d	0.36268988
69	0x3c0ba101	0.008522273
70	0xbd839fe1	-0.06426979
71	0xbd30ec1b	-0.043193918
72	0x3d8c768c	0.068585485
73	0xbdcca81e	-0.09993003
74	0x3ec8e363	0.39235982
75	0xbefac17e	-0.48975748
76	0xbe858252	-0.2607599
77	0xbee11213	-0.43959102
78	0x3e868481	0.26272967
79	0x3e7eb037	0.24871908
80	0x3ca6c398	0.020356938
81	0x3c13ae3c	0.009013709
82	0xbf0742ef	-0.5283651
83	0x3f088965	0.5333465
84	0x3e5a16c8	0.21297753
85	0x3e242464	0.16029507
86	0xbe4dfc2f	-0.20115732
87	0x3db4ea38	0.08833736
88	0xbda1f8e6	-0.07908802
89	0xbf14e542	-0.5816232
90	0xbe920c4c	-0.28525007
91	0xbcdaa74f	-0.026691107
92	0xbbf557e9	-0.0074872863
93	0x3e20537f	0.15656851
94	0x3ec493e1	0.38394073
95	0x3f176ac5	0.5914729
96	0x3e874fda	0.2642811
97	0x3f365115	0.7121747
98	0xbe441a1f	-0.1915059
99	0x3ead5504	0.33853924
100	0x3e335ddb	0.17516272
101	0x3d5cf881	0.05394793
102	0xbf94377e	-1.1579435
103	0x3e585f1c	0.21130031
104	0x3e951c0c	0.2912296
105	0x3e91303f	0.2835712
106	0xbe776aae	-0.24161789
107	0x3da32009	0.079650946
108	0xbe9d9672	-0.30778843
109	0x3d884679	0.066540666
110	0x3f15b04a	0.5847212
111	0xbe91c902	-0.2847367
112	0x3f0debe8	0.5543809
113	0xbe81039f	-0.25198075
114	0xbee61728	-0.44939542
115	0xbeb30320	-0.34963322
116	0xbea0337c	-0.3128928
117	0xbe0f9531	-0.14021756
118	0xbed8e0f7	-0.42359135
119	0x3e07f367	0.13276444
120	0xbe3542af	-0.17701219
121	0x3ea8b9fd	0.32954398
122	0x3bb939e1	0.0056526517
123	0xbe8b926b	-0.27260146
124	0xbe905bd4	-0.2819506
125	0x3e267580	0.1625576
126	0x3e2db7c3	0.16964631
127	0x3f04f26c	0.51932406
128	0x3f091b66	0.5355743
129	0x3dba7733	0.09104767
130	0xbed12ce4	-0.4085456
131	0xbd8427c0	-0.06452894
132	0x3f01bf70	0.50682735
133	0x3ebf5b6a	0.3737443
134	0xbf3e8eb0	-0.74436474
135	0xbf28a4ca	-0.6587645
136	0xbd321c35	-0.04348393
137	0xbf081f9a	-0.5317322
138	0x3f0f03b4	0.55865026
139	0x3e39058a	0.18068519
140	0xbe8a569e	-0.2701921
141	0x3f076259	0.5288444
142	0x3e921e27	0.2853863
143	0xbef31759	-0.4747875
144	0x3df3228f	0.11871826
145	0xbebf84ac	-0.37405908
146	0xbdcca7ba	-0.09992929
147	0xbef24531	-0.47318414
148	0xbe8e6757	-0.27813217
149	0x3e6dfeed	0.23241778
150	0x3f3cea9b	0.7379548
151	0xbc2dbef1	-0.010604606
152	0xbf14d854	-0.5814259
153	0x3e85b158	0.26111865
154	0x3e0204b2	0.12697104
155	0xbe564232	-0.20923689
156	0xbeb6cc8f	-0.3570294
157	0x3f09e069	0.5385805
158	0x3f3a7974	0.7284157
159	0xbdae548f	-0.08512222
160	0x3f0c66db	0.54844445
161	0x3e3b9b84	0.18321043
162	0x3d2dc10c	0.042420432
163	0xbe80da77	-0.25166675
164	0x3f21cae4	0.6320021
165	0x3eaa7915	0.33295503
166	0xbe162861	-0.14663841
167	0xbf096dae	-0.5368298
168	0xbf37e4cd	-0.718335
169	0x3e91af34	0.28453982
170	0xbf2a2471	-0.66461855
171	0x3e6d5fea	0.2318112
172	0x3f7aa4e4	0.97907853
173	0x3d083ef0	0.033263147
174	0xbf17cf2a	-0.5930048
175	0x3e01cb7c	0.1267528
176	0xbf009afa	-0.50236475
177	0x3f02e0f6	0.51124513
178	0xbf05301f	-0.5202655
179	0xbeb04253	-0.344256
180	0xbe86dedc	-0.26341903
181	0x3e64bd0a	0.22337738
182	0xbf1a293f	-0.60219187
183	0x3eeeb778	0.4662435
184	0xbe2f8f38	-0.17144477
185	0xbe6919e6	-0.22763786
186	0x3d799665	0.060934443
187	0x3ede6a24	0.43440354
188	0x3f2987fa	0.6622311
189	0x3dde3b35	0.108511366
190	0xbd9157ec	-0.07096848
191	0xbe64e50c	-0.22353
192	0x3e18c139	0.14917459
193	0xbdfb870a	-0.12281616
194	0x3e7a655f	0.24452733
195	0xbe1e96b0	-0.1548717
196	0x3f06398a	0.5243155
197	0xbec9d015	-0.39416566
198	0xbefd0117	-0.49414894
199	0x3dd7597b	0.10515114
200	0xbe6f9039	-0.2339486
201	0xbead0c87	-0.3379862
202	0x3e252ef3	0.16131191
203	0x3f3b0d36	0.73067033
204	0x3efa1c67	0.48849794
205	0xbf15bf11	-0.5849467
206	0x3efba756	0.49151105
207	0x3ea9b4b0	0.33145666
208	0xbf026531	-0.50935656
209	0x3d9e2d52	0.07723488
210	0xbf043dd1	-0.51656824
211	0xbea4b9a4	-0.32172883
212	0xbe5b18b8	-0.21396148
213	0xbe8010c8	-0.25012803
214	0x3ce14273	0.027497506
215	0xbeb04df9	-0.34434488
216	0x3ee68ff2	0.45031697
217	0x3f0b1176	0.5432352
218	0x3ec57950	0.38569117
219	0x3ecfa520	0.40555668
220	0x3f2c6f21	0.6735707
221	0x3e6a328e	0.22870848
222	0x3ef2acf6	0.47397584
223	0xbed19053	-0.40930423
224	0xbec53e9e	-0.38524336
225	0x3f1146f0	0.5674887
226	0x3efa73de	0.48916525
227	0xbec67e72	-0.38768345
228	0x3e1d2323	0.15345435
229	0x3f8ee7ed	1.1164528
230	0xbe833e5b	-0.2563351
231	0xbe94f476	-0.2909276
232	0x3e7ad1a5	0.24494036
233	0x3f2d7600	0.6775818
234	0xbe93d806	-0.2887575
235	0xbe424a47	-0.18973647
236	0xbec85c0b	-0.39132723
237	0x3f346eba	0.70481455
238	0xbf2164b5	-0.6304429
239	0xbeb7680b	-0.35821566
240	0x3da40667	0.08009034
241	0xbe140e11	-0.14458491
242	0xbe16674e	-0.14687845
243	0xbdd20a1e	-0.10255836
244	0xbb89d05d	-0.004205747
245	0x3f42df68	0.7612214
246	0xbe871cb3	-0.26389083
247	0xbe072b28	-0.13200057
248	0xbe65102e	-0.22369453
249	0x3f444a96	0.7667631
250	0x3e5f936b	0.21833579
251	0x3d8309bb	0.0639834
252	0xbe18a8f6	-0.14908203
253	0x3f0ae91f	0.54261965
254	0x3ef0896a	0.4697984
255	0x3f27bf82	0.6552659

network_body._body_endoder.seq_layers.0.bias f4 [128]
0	0x00000000	0.0
1	0x00000000	0.0
2	0x00000000	0.0
3	0x00000000	0.0
4	0x00000000	0.0
5	0x00000000	0.0
6	0x00000000	0.0
7	0x00000000	0.0
8	0x00000000	0.0
9	0x00000000	0.0
10	0x00000000	0.0
11	0x00000000	0.0
12	0x00000000	0.0
13	0x00000000	0.0
14	0x00000000	0.0
15	0x00000000	0.0
16	0x00000000	0.0
17	0x00000000	0.0
18	0x00000000	0.0
19	0x00000000	0.0
20	0x00000000	0.0
21	0x00000000	0.0
22	0x00000000	0.0
23	0x00000000	0.0
24	0x00000000	0.0
25	0x00000000	0.0
26	0x00000000	0.0
27	0x00000000	0.0
28	0x00000000	0.0
29	0x00000000	0.0
30	0x00000000	0.0
31	0x00000000	0.0
32	0x00000000	0.0
33	0x00000000	0.0
34	0x00000000	0.0
35	0x00000000	0.0
36	0x00000000	0.0
37	0x00000000	0.0
38	0x00000000	0.0
39	0x00000000	0.0
40	0x00000000	0.0
41	0x00000000	0.0
42	0x00000000	0.0
43	0x00000000	0.0
44	0x00000000	0.0
45	0x00000000	0.0
46	0x00000000	0.0
47	0x00000000	0.0
48	0x00000000	0.0
49	0x00000000	0.0
50	0x00000000	0.0
51	0x00000000	0.0
52	0x00000000	0.0
53	0x00000000	0.0
54	0x00000000	0.0
55	0x00000000	0.0
56	0x00000000	0.0
57	0x00000000	0.0
58	0x00000000	0.0
59	0x00000000	0.0
60	0x00000000	0.0
61	0x00000000	0.0
62	0x00000000	0.0
63	0x00000000	0.0
64	0x00000000	0.0
65	0x00000000	0.0
66	0x00000000	0.0
67	0x00000000	0.0
68	0x00000000	0.0
69	0x00000000	0.0
70	0x00000000	0.0
71	0x00000000	0.0
72	0x00000000	0.0
73	0x00000000	0.0
74	0x00000000	0.0
75	0x00000000	0.0
76	0x00000000	0.0
77	0x00000000	0.0
78	0x00000000	0.0
79	0x00000000	0.0
80	0x00000000	0.0
81	0x00000000	0.0
82	0x00000000	0.0
83	0x00000000	0.0
84	0x00000000	0.0
85	0x00000000	0.0
86	0x00000000	0.0
87	0x00000000	0.0
88	0x00000000	0.0
89	0x00000000	0.0
90	0x00000000	0.0
91	0x00000000	0.0
92	0x00000000	0.0
93	0x00000000	0.0
94	0x00000000	0.0
95	0x00000000	0.0
96	0x00000000	0.0
97	0x00000000	0.0
98	0x00000000	0.0
99	0x00000000	0.0
100	0x00000000	0.0
101	0x00000000	0.0
102	0x00000000	0.0
103	0x00000000	0.0
104	0x00000000	0.0
105	0x00000000	0.0
106	0x00000000	0.0
107	0x00000000	0.0
108	0x00000000	0.0
109	0x00000000	0.0
110	0x00000000	0.0
111	0x00000000	0.0
112	0x00000000	0.0
113	0x00000000	0.0
114	0x00000000	0.0
115	0x00000000	0.0
116	0x00000000	0.0
117	0x00000000	0.0
118	0x00000000	0.0
119	0x00000000	0.0
120	0x00000000	0.0
121	0x00000000	0.0
122	0x00000000	0.0
123	0x00000000	0.0
124	0x00000000	0.0
125	0x00000000	0.0
126	0x00000000	0.0
127	0x00000000	0.0

network_body._body_endoder.seq_layers.2.weight f4 [128, 128]
0	0xbe25578e	-0.1614668
1	0xbd1a0b38	-0.037608355
2	0xbd61759d	-0.055043805
3	0xbbfee777	-0.0077790576
4	0xbd4abfa4	-0.04949917
5	0x3cd18f47	0.025581015
6	0xbda28231	-0.07934988
7	0x3de49ddd	0.111629225
8	0x3d664738	0.056220263
9	0xbe2a5280	-0.16633034
10	0x3d063096	0.03276118
11	0x3b33732b	0.0027381878
12	0x3ccaeaa2	0.024770085
13	0x3d847c78	0.06469053
14	0x3cd08027	0.025451733
15	0xbde3f53b	-0.111307584
16	0xbc5b4349	-0.013382741
17	0x3b28674d	0.0025696338
18	0xbcd2edb6	-0.025748115
19	0x3c2b084b	0.010438989
20	0x3cd94469	0.026521878
21	0x3d5a569e	0.05330526
22	0x3c89ec9b	0.016836455
23	0x3db0e3cd	0.086371996
24	0xbc1cb536	-0.009564688
25	0xbde0da90	-0.109791875
26	0x3cc4d120	0.0240255
27	0x3dd32860	0.10310435
28	0x3c95448b	0.01822116
29	0x3bad9c6d	0.0052981884
30	0x3d6bb78f	0.057548102
31	0x3cf16f5c	0.029472046
32	0x3c317376	0.010830751
33	0x3d3d644a	0.04623822
34	0x3c47292d	0.012155813
35	0x3e22f722	0.15914586
36	0xbdfdf4d8	-0.12400216
37	0xbd7d25bf	-0.061803576
38	0x3a92e2e8	0.0011206539
39	0x3e26dce6	0.16295204
40	0x3d163ec3	0.036680948
41	0xbdd92dc0	-0.10604429
42	0xbd500be7	-0.0507926
43	0xbd7c95f4	-0.061666444
44	0x3c714165	0.014725064
45	0x3d0a91ed	0.033830572
46	0xbd5749bb	-0.05256055
47	0x39e77d0a	0.00044152915
48	0x3d9842c8	0.074346125
49	0xbcfd76fd	-0.030940527
50	0xbd0d200f	-0.0344544
51	0xbd3fc31c	-0.04681693
52	0xbe160fec	-0.14654511
53	0x3dc49268	0.09598237
54	0x3c7550fb	0.0149729205
55	0x3cdb999a	0.026806641
56	0x3db0bad9	0.08629388
57	0x3dbbd20c	0.09170923
58	0x3d66ce29	0.056348953
59	0xbb233ef5	-0.0024909351
60	0x3cff1f06	0.031142723
61	0xbd4745b4	-0.04865046
62	0x3b24701b	0.0025091234
63	0xbda18ee3	-0.078885816
64	0x3db3ec2d	0.08785281
65	0x3dd352ce	0.10318528
66	0xbcb5c9d0	-0.022190958
67	0x3ddaf7db	0.10691806
68	0xbcaa288e	-0.020771291
69	0xbd4a30a8	-0.04936281
70	0x3be8b5ce	0.007101751
71	0x3dadf931	0.08494795
72	0xbe6227e8	-0.22085536
73	0x3c81b53f	0.015833495
74	0x3ce6ba6a	0.028165061
75	0xbe2b013c	-0.1669969
76	0x3d89998c	0.0671874
77	0xbd3c9639	-0.0460417
78	0x3cffef0b	0.031241914
79	0x3d4ca2d0	0.049959958
80	0xbdcf8b4c	-0.10133991
81	0xbccc0c0f	-0.024908094
82	0x3cab89b5	0.020939687
83	0xbc20eb44	-0.009821717
84	0x3afe4cc2	0.0019401538
85	0x3da7cac8	0.08192974
86	0x3d036a49	0.032083783
87	0xbd475b7f	-0.04867124
88	0xbd7fab00	-0.062418938
89	0x3d05f07e	0.032700054
90	0x3e0e7812	0.1391299
91	0x3c4fd444	0.012684885
92	0x3e5abe5b	0.21361677
93	0xbe7ff7b0	-0.24996829
94	0xbdaa79ed	-0.08324037
95	0xbd423679	-0.04741523
96	0xbd1b2d20	-0.03788483
97	0x3c8fa1a0	0.017533123
98	0x3d9cce54	0.076565415
99	0x3de68bcb	0.11257132
100	0xba4bff44	-0.0007781873
101	0xbbc2baf6	-0.0059426976
102	0xbda0e09f	-0.07855343
103	0xbbfa3c6d	-0.007636598
104	0xbe354bda	-0.17704716
105	0x3d95bf67	0.07311898
106	0xbbc421e1	-0.005985484
107	0xbdda7809	-0.10667426
108	0xbd243315	-0.040087778
109	0xbcae6c17	-0.021291776
110	0x3dbf3e6c	0.09338078
111	0x3d33d3a9	0.043903027
112	0x3ca18fc0	0.019721866
113	0xbc5691bd	-0.01309627
114	0x3b1db84d	0.002406615
115	0xbdbab30f	-0.09116184
116	0xbe04a581	-0.1295376
117	0x3c3ba32c	0.011452477
118	0xbd2b8f56	-0.041884743
119	0xbcf787f3	-0.030216193
120	0xbda32461	-0.07965923
121	0xbd8379b4	-0.064196974
122	0xbe704820	-0.23465014
123	0x3d251253	0.04030068
124	0xbd96e325	-0.07367543
125	0x3d34170d	0.043967295
126	0xbd898dad	-0.06716476
127	0x3d40cc80	0.047070026
128	0x3e843353	0.25820407
129	0xbd42d295	-0.047564108
130	0x3caa8dee	0.02081963
131	0xbe790511	-0.24318339
132	0x3de75dba	0.11297174
133	0xbb048d68	-0.0020225886
134	0xbdd816d4	-0.10551229
135	0xbd112879	-0.03543899
136	0x3e033b9c	0.12815708
137	0xbe1decf5	-0.15422423
138	0xbcc39971	-0.023876878
139	0xbab346c4	-0.0013677706
140	0xbd8c8d5b	-0.06862899
141	0xbc2e26d5	-0.010629375
142	0xbdfc1e22	-0.12310435
143	0xbd009508	-0.031392127
144	0xbe5153de	-0.20442149
145	0xbd89619a	-0.06708069
146	0xbd305a03	-0.043054592
147	0x3e38b695	0.180384
148	0xbd93f7ae	-0.072249755
149	0xbcccb70d	-0.02498963
150	0x3e2e2194	0.17004997
151	0x3d793857	0.060844745
152	0xbd586348	-0.052829057
153	0xbcc1d768	-0.023662284
154	0xbe3092ab	-0.1724345
155	0x3cd5b9e4	0.026089616
156	0x3e7a3c93	0.2443717
157	0x3e2f2fd7	0.17108093
158	0xbd2c5356	-0.042071663
159	0x3df0934e	0.11746846
160	0xbdb996f8	-0.09061998
161	0x3d6d6bf5	0.057964284
162	0x3e3469fa	0.17618552
163	0x3d816938	0.06318897
164	0x3e0ad913	0.1355937
165	0x3e376d06	0.17912683
166	0x3c201775	0.009771218
167	0xbdbd8d09	-0.09255416
168	0x3e1fc468	0.15602267
169	0xbe21575e	-0.15755984
170	0x3e0a1527	0.13484631
171	0xbd822b89	-0.0635596
172	0x3d6e8952	0.058236428
173	0x3db2da19	0.08733005
174	0x3dff3601	0.12461472
175	0xbd11ac93	-0.03556497
176	0xbe4dae43	-0.20086007
177	0xbe3b19b9	-0.18271531
178	0xbd42ca20	-0.047556043
179	0xbc147dfe	-0.009063242
180	0x3d42043b	0.047367316
181	0x3cf216dd	0.029551918
182	0xbcf7c525	-0.030245373
183	0x3bbd164f	0.0057704817
184	0xbc7d6813	-0.015466708
185	0xbc7edac1	-0.015555085
186	0xbdd4708a	-0.103730276
187	0xbe0903c6	-0.13380346
188	0x3db8d175	0.09024326
189	0xbe2374fb	-0.15962593
190	0xbd837f83	-0.06420805
191	0xbd9fa66f	-0.077954166
192	0x3db58add	0.08864377
193	0xbd6ccd41	-0.057812933
194	0xbc22d92c	-0.009939473
195	0xbe7472db	-0.23871939
196	0x3d68be15	0.0568219
197	0xbdeb685d	-0.11494515
198	0xbe43d120	-0.19122744
199	0xbcf2c0ae	-0.029632892
200	0xbd307f9f	-0.04309046
201	0x3e0ab48a	0.13545433
202	0x3d92cf15	0.07168404
203	0xbce95be0	-0.028486192
204	0x3ccc36f7	0.024928553
205	0x3d3ec5f0	0.046575487
206	0x3c96796c	0.018368445
207	0x3cdc957e	0.026926752
208	0x3db9fa91	0.09080995
209	0x3ddcdaf0	0.107839465
210	0x3c274f7e	0.0102118235
211	0xbd96c6c4	-0.0736213
212	0x3da8cc99	0.08242149
213	0xbe0cfccd	-0.13768311
214	0x3db20f2c	0.086943
215	0x3cebdb06	0.028790962
216	0x3db40ea6	0.087918565
217	0xbc83c0a2	-0.016083065
218	0x3cd85e9e	0.026412304
219	0xbd35f055	-0.04441865
220	0xbd2b68b0	-0.041847885
221	0x3de6068c	0.112317175
222	0x3d5430f7	0.05180451
223	0xbd41ea19	-0.047342394
224	0xbdb236ee	-0.08701883
225	0x3df73fde	0.120727286
226	0x3cec2f5e	0.02883118
227	0xbce76072	-0.02824423
228	0x3d29ae89	0.041426215
229	0xbe0a1f6e	-0.13488552
230	0xbc44a6a5	-0.012002622
231	0xbdf9dae2	-0.12199952
232	0x3de4cf89	0.11172397
233	0x3d2a3437	0.041553702
234	0xba8bd3e1	-0.0010668003
235	0xbd108ecb	-0.035292428
236	0xbc227a04	-0.009916786
237	0xbd134440	-0.03595376
238	0xbd9cb5ec	-0.07651886
239	0xbd8e4645	-0.069469966
240	0x3df068f9	0.11738772
241	0x3d8683d3	0.06568112
242	0xbde4ce92	-0.11172213
243	0x3d20de2b	0.039274376
244	0x3d0821f5	0.03323551
245	0xbd8424be	-0.064523205
246	0xbe22d62a	-0.1590201
247	0x3defa42a	0.11701234
248	0x3e31c91a	0.1736187
249	0x3d409939	0.047021125
250	0x3d8c51fe	0.06851576
251	0x3d951f7b	0.07281395
252	0xbcff24b2	-0.031145427
253	0xbdae099c	-0.084979266
254	0x3c68f159	0.014217698
255	0x3ce06ae4	0.02739472

network_body._body_endoder.seq_layers.2.bias f4 [128]
0	0x00000000	0.0
1	0x00000000	0.0
2	0x00000000	0.0
3	0x00000000	0.0
4	0x00000000	0.0
5	0x00000000	0.0
6	0x00000000	0.0
7	0x00000000	0.0
8	0x00000000	0.0
9	0x00000000	0.0
10	0x00000000	0.0
11	0x00000000	0.0
12	0x00000000	0.0
13	0x00000000	0.0
14	0x00000000	0.0
15	0x00000000	0.0
16	0x00000000	0.0
17	0x00000000	0.0
18	0x00000000	0.0
19	0x00000000	0.0
20	0x00000000	0.0
21	0x00000000	0.0
22	0x00000000	0.0
23	0x00000000	0.0
24	0x00000000	0.0
25	0x00000000	0.0
26	0x00000000	0.0
27	0x00000000	0.0
28	0x00000000	0.0
29	0x00000000	0.0
30	0x00000000	0.0
31	0x00000000	0.0
32	0x00000000	0.0
33	0x00000000	0.0
34	0x00000000	0.0
35	0x00000000	0.0
36	0x00000000	0.0
37	0x00000000	0.0
38	0x00000000	0.0
39	0x00000000	0.0
40	0x00000000	0.0
41	0x00000000	0.0
42	0x00000000	0.0
43	0x00000000	0.0
44	0x00000000	0.0
45	0x00000000	0.0
46	0x00000000	0.0
47	0x00000000	0.0
48	0x00000000	0.0
49	0x00000000	0.0
50	0x00000000	0.0
51	0x00000000	0.0
52	0x00000000	0.0
53	0x00000000	0.0
54	0x00000000	0.0
55	0x00000000	0.0
56	0x00000000	0.0
57	0x00000000	0.0
58	0x00000000	0.0
59	0x00000000	0.0
60	0x00000000	0.0
61	0x00000000	0.0
62	0x00000000	0.0
63	0x00000000	0.0
64	0x00000000	0.0
65	0x00000000	0.0
66	0x00000000	0.0
67	0x00000000	0.0
68	0x00000000	0.0
69	0x00000000	0.0
70	0x00000000	0.0
71	0x00000000	0.0
72	0x00000000	0.0
73	0x00000000	0.0
74	0x00000000	0.0
75	0x00000000	0.0
76	0x00000000	0.0
77	0x00000000	0.0
78	0x00000000	0.0
79	0x00000000	0.0
80	0x00000000	0.0
81	0x00000000	0.0
82	0x00000000	0.0
83	0x00000000	0.0
84	0x00000000	0.0
85	0x00000000	0.0
86	0x00000000	0.0
87	0x00000000	0.0
88	0x00000000	0.0
89	0x00000000	0.0
90	0x00000000	0.0
91	0x00000000	0.0
92	0x00000000	0.0
93	0x00000000	0.0
94	0x00000000	0.0
95	0x00000000	0.0
96	0x00000000	0.0
97	0x00000000	0.0
98	0x00000000	0.0
99	0x00000000	0.0
100	0x00000000	0.0
101	0x00000000	0.0
102	0x00000000	0.0
103	0x00000000	0.0
104	0x00000000	0.0
105	0x00000000	0.0
106	0x00000000	0.0
107	0x00000000	0.0
108	0x00000000	0.0
109	0x00000000	0.0
110	0x00000000	0.0
111	0x00000000	0.0
112	0x00000000	0.0
113	0x00000000	0.0
114	0x00000000	0.0
115	0x00000000	0.0
116	0x00000000	0.0
117	0x00000000	0.0
118	0x00000000	0.0
119	0x00000000	0.0
120	0x00000000	0.0
121	0x00000000	0.0
122	0x00000000	0.0
123	0x00000000	0.0
124	0x00000000	0.0
125	0x00000000	0.0
126	0x00000000	0.0
127	0x00000000	0.0

value_heads.value_heads.extrinsic.weight f4 [1, 128]
0	0x3dca3098	0.0987255
1	0xbe417850	-0.18893552
2	0xbdfa9836	-0.12236063
3	0x3b0ad240	0.0021182448
4	0xbe565a8b	-0.20932977
5	0x3e438f88	0.19097722
6	0xbe5c22fc	-0.2149772
7	0xbdf41055	-0.119171776
8	0xbdff49a8	-0.12465221
9	0x3d921830	0.0713352
10	0x3e117460	0.1420455
11	0x3c991bc0	0.01868999
12	0xbe0fcc05	-0.14042671
13	0x3e524a58	0.20536172
14	0xbe1aac4a	-0.15104786
15	0x3e3a0fe2	0.18170121
16	0x3cb7b060	0.02242297
17	0x3e1f1612	0.15535763
18	0xbdff4566	-0.124644086
19	0xbe07adc2	-0.13249877
20	0x3e34bd56	0.17650351
21	0x3d9ac268	0.07556611
22	0x3e053800	0.13009644
23	0xbe0f9896	-0.1402305
24	0xbcce98c8	-0.025219336
25	0xbe1c1294	-0.15241462
26	0xbd6e7e00	-0.05822563
27	0xbdb82aa6	-0.089925095
28	0x3d4e0648	0.05029896
29	0xbe4f42ef	-0.20240377
30	0x3de615d8	0.11234635
31	0xbe344987	-0.17606173
32	0x3e128dc2	0.14311889
33	0x3ddd5a28	0.108082116
34	0x3e32b212	0.17450741
35	0xbe587ae0	-0.21140623
36	0x3d32a320	0.0436126
37	0x3dd22580	0.10261059
38	0x3e243ff6	0.16040024
39	0xbcb6a798	-0.022296712
40	0xbddfa661	-0.10920406
41	0xbc8a0fc0	-0.016853213
42	0x3e1e4454	0.15455753
43	0x3d8c8c74	0.06862727
44	0x3bee52e0	0.007273063
45	0xbd8a0e3e	-0.06740998
46	0xbb15e2c0	-0.002287075
47	0x3df3e7ac	0.11909422
48	0x3e4ce312	0.20008495
49	0x3dcb429c	0.09924814
50	0x3e13f412	0.14448574
51	0x3e59a35c	0.21253723
52	0xbd3d83b0	-0.046268165
53	0x3d7dd5e8	0.061971575
54	0x3d5892f0	0.052874506
55	0xbb7cdf00	-0.0038585067
56	0x3d65d8d8	0.056115
57	0xbd740388	-0.05957368
58	0xbdc1614d	-0.09442387
59	0x3da398a8	0.07988101
60	0x3d459d10	0.04824549
61	0x3e599de0	0.21251631
62	0x3e4a37d2	0.19747856
63	0x3e036f9e	0.12835547
64	0xbd89302e	-0.06698643
65	0x3e12aa32	0.14322737
66	0x3e063bcc	0.13108748
67	0x3d4b7680	0.049673557
68	0x3df6a83c	0.12043807
69	0x3e454700	0.19265366
70	0xbdf2bb3b	-0.11852118
71	0x3e1f0150	0.15527844
72	0x3e1da246	0.15393934
73	0xbdc09777	-0.094038896
74	0x3d67acc0	0.05656123
75	0x3d213068	0.039352804
76	0x3d873fbc	0.06603953
77	0xbce1cf10	-0.027564555
78	0x3e048b9a	0.12943879
79	0x3dd52c1c	0.10408804
80	0xbbb3c480	-0.005486071
81	0xbc9ecdc0	-0.019385219
82	0x3c3fa230	0.011696383
83	0xbdd1e0ec	-0.102479786
84	0x3cb3d728	0.02195318
85	0xbdbea41a	-0.09308644
86	0x3d087a1c	0.033319578
87	0xbe03919f	-0.12848519
88	0x3e2d235a	0.16908017
89	0x3b67dfc0	0.0035381168
90	0xbdea09e2	-0.11427666
91	0x3d060994	0.03272398
92	0x3e54f06e	0.20794842
93	0x3dd42c3c	0.103599995
94	0xbdb4d62a	-0.08829911
95	0x3e2071f0	0.15668464
96	0x3d841800	0.0644989
97	0xbe1086ec	-0.14113969
98	0xbe2ebc51	-0.17064025
99	0xbd947e1a	-0.072506145
100	0xbe5b8f51	-0.2144139
101	0xbd29c1a0	-0.04144442
102	0x3e1d774e	0.15377542
103	0xbdd4c34e	-0.10388814
104	0x3da395ec	0.0798758
105	0x3e1dd482	0.15413097
106	0xbe0c1cb8	-0.1368283
107	0x3d9f21f0	0.07770145
108	0x3cede790	0.029041082
109	0x3e2faaea	0.17155042
110	0x3e0118b8	0.12607086
111	0x3e25e142	0.1619921
112	0xbd0faec0	-0.035078764
113	0xbdc27b8d	-0.09496222
114	0x3defa52c	0.11701426
115	0xbe40e7c7	-0.18838416
116	0xbe401657	-0.18758522
117	0x3de77ff0	0.11303699
118	0x3d96f188	0.07370287
119	0xbd6b402c	-0.057434246
120	0xbddbd792	-0.10734476
121	0xbe1a5e49	-0.1507503
122	0xbdf4516c	-0.119295925
123	0xbddcc39a	-0.107794955
124	0x3dede328	0.11615592
125	0x3e448bdc	0.19193977
126	0xbd6c4f04	-0.057692543
127	0x3e3d3d38	0.18480384
