results/ppo/Avoid Obstacle/Avoid Obstacle-499944.onnx (onnx, 72119 bytes, 5 tensors)

action_model._continuous_distribution.mu.weight f4 [1, 128]
000000 ea f7 21 3d d0 11 57 3d 30 24 01 3d 23 02 36 bd
       0.03954307 0.05250722 0.03152865 -0.04443563
000010 cb 58 21 3d 19 15 85 3c ba 56 93 3d 7d de 6b bc
       0.03939132 0.016245412 0.07194276 -0.014396307
000020 dc 23 8d 3d 2b 86 06 bb a6 d9 88 bc 07 ad 99 bd
       0.06891605 -0.0020526748 -0.016705345 -0.075037055
000030 81 9c 2e 3d 7c 3e 43 3c 1c 26 19 bc 73 f0 af bd
       0.042629723 0.011916753 -0.009347465 -0.08590784
000040 1d 3e 99 bc 2b 75 88 3c 55 d5 f1 bd f3 e3 88 3d
       -0.018706376 0.016657433 -0.11808268 0.06684103
000050 23 d6 5c 3c 45 c3 b6 3c 34 fa 94 bc 6d 09 bd bb
       0.013478789 0.022309909 -0.018185712 -0.005768946
000060 b8 b2 56 bd 83 28 1c bd 1b 13 a1 3d b6 6d 73 3d
       -0.052416533 -0.038124572 0.07864972 0.0594308
000070 47 da 8f bd 8e 06 c0 bd ac d4 ec bb 7f b6 19 3d
       -0.07024055 -0.0937625 -0.007227501 0.037527557
000080 3d 63 d3 3c f6 a4 a4 bd 18 72 cb bc 7a ea be bd
       0.025804156 -0.08039276 -0.024834678 -0.093220666
000090 40 24 8f bd 57 b6 73 bd 61 4e af 3c 8e bc 10 3d
       -0.06989336 -0.059500065 0.021399679 0.03533607
0000a0 f9 8d 39 3d 5a fc 8d bc 06 81 0d bd d7 08 4f 3d
       0.04530141 -0.017332245 -0.034546874 0.05054554
0000b0 e6 89 11 3d b5 c7 83 bd 4b 33 62 bd 7a 2f 1b bd
       0.0355319 -0.064345755 -0.055224698 -0.037887074
0000c0 ce 1d 90 3c 7f ea c5 3b d7 4b f4 bc 7f b3 54 bd
       0.017592337 0.006039917 -0.02982132 -0.051928993
0000d0 3f 04 8b 3d 98 29 b2 3d 48 83 b8 bd c2 e2 f4 3c
       0.06787919 0.0869934 -0.09009415 0.029893283
0000e0 29 fb 49 bd 84 5f 57 3c 0a 20 9e bd 33 60 5c 3d
       -0.04931179 0.013145331 -0.07720955 0.05380268
0000f0 a6 c0 20 3d 31 ec 2b 3d 7e 42 58 bb 08 ee a7 bc
       0.039246224 0.041973297 -0.0032998617 -0.020499244
000100 dd 86 99 ba 5d 10 47 bd 09 de c5 3c c7 f2 a0 bd
       -0.0011713166 -0.04859959 0.024153726 -0.07858806
000110 35 02 af bc 93 fc 38 3d 1f f7 fd bc 5b 60 c7 3c
       -0.021363357 0.04516275 -0.031001626 0.024337938
000120 b2 3f cb bc 31 58 af bd da 81 6a 3c ea a7 05 3d
       -0.024810646 -0.08561743 0.014313186 0.03263084
000130 40 c7 b2 bc 6f c3 7e bd f8 65 0e bd cf 80 97 bd
       -0.021823525 -0.0621981 -0.034765214 -0.07397615
000140 55 93 7e bc 66 42 f2 bc 1d 6e f0 bc e7 cf 4f 3d
       -0.015538056 -0.029572677 -0.029349381 0.05073538
000150 fe 55 8f bb 69 d7 05 3d 15 e4 fb 3c 26 09 bc 3c
       -0.0043742647 0.032676134 0.030748406 0.022953581
000160 50 84 88 bd 94 19 53 bd fd 80 ab bd 1e 00 db bc
       -0.066658616 -0.051538065 -0.08374212 -0.026733454
000170 68 d2 a5 3d a0 e3 26 3d 9a 48 b4 3d 2f f2 03 3d
       0.080967724 0.040744424 0.0880291 0.032213386
000180 40 71 bd 3c f8 bc 12 bb 21 ce 29 bd e9 95 77 3d
       0.02312529 -0.0022390466 -0.041456345 0.0604457
000190 8c 7d 84 bd 11 b2 9f 3d 2b 02 81 3d 1c 04 7e 3d
       -0.06469259 0.07797635 0.06299242 0.062015638
0001a0 74 67 16 3d 17 76 ab bd b6 2d 4d 3d bf 27 2c 3d
       0.036719754 -0.08372133 0.05009242 0.042030092
0001b0 a3 f0 ca bd bc 31 fc bc 69 c5 01 bd 15 34 0e 3d
       -0.09909179 -0.030785434 -0.031682406 0.034717638
0001c0 44 3a 7d bd c9 08 14 bd a8 cb e4 3b 70 7c 3b bd
       -0.061823145 -0.03614119 0.0069822855 -0.04577297
0001d0 bc 40 99 bd f6 05 f9 3c 55 a9 d3 3c 29 86 af bc
       -0.0748305 0.03039835 0.02583758 -0.021426277
0001e0 75 2d 57 3d ae 13 66 bc 3c 7e 85 3d 7e ce 77 3d
       0.052533586 -0.014042778 0.06518218 0.06049966
0001f0 b1 41 42 bc 96 07 0e bd 77 77 5a bd 3c df 0b 3d
       -0.011856482 -0.034675203 -0.053336587 0.03414844

network_body._body_endoder.seq_layers.0.bias f4 [128]
000000 27 fd 63 3d 75 4c 02 3d 7e 35 3b 3b 5a fc 55 3c
       0.055661347 0.031811196 0.002856582 0.013060654
000010 da f3 89 3d 1f b2 2e 3d b4 07 8e 3b df 3d a2 bc
       0.06735964 0.04265034 0.0043344144 -0.019804893
000020 52 53 a4 bc 18 8e 26 bc 8d f1 55 3d e8 ac ac 3c
       -0.020059261 -0.010165714 0.052232314 0.021078542
000030 b3 c1 97 bc 33 e6 1a bc 64 8d de 3b 81 4a d1 3d
       -0.01852498 -0.009454298 0.0067917574 0.102192886
000040 7a ed 79 bb 64 fe 9e 3c 71 28 e7 3c 55 ca 4e bb
       -0.0038135932 0.019408412 0.028217526 -0.0031553705
000050 d6 e2 e7 ba dd 40 a6 3c 78 78 d2 3b 69 8f bd 3c
       -0.0017691504 0.020294601 0.0064230524 0.023139672
000060 a8 68 80 bc 65 00 80 3c 07 5d 80 bc d2 fa 5b bb
       -0.015674904 0.015625188 -0.015669359 -0.0033566249
000070 04 d4 4c 3d 88 2e 4c 3d 65 84 a5 bb f5 1e 27 bd
       0.05000688 0.049849063 -0.005051183 -0.040801007
000080 a3 0c 38 3c 90 3a 5e bc 4b 20 65 3d 5c cf 7f bb
       0.011233482 -0.013563767 0.055939 -0.0039033508
000090 6b 8a f5 bb b6 52 50 bc 21 e9 94 bc 31 bd 91 3b
       -0.0074933073 -0.012715032 -0.01817757 0.004447602
0000a0 e5 4c e4 bc ec b3 29 3c bd 7c 7b 3d 53 49 4f bb
       -0.027868697 0.010357838 0.061398257 -0.0031629398
0000b0 74 29 ec bc d2 ff 35 bd 6e 57 7a 3a aa c8 07 bd
       -0.02882836 -0.044433422 0.0009549771 -0.033150353
0000c0 96 4c 16 3c 2a 88 79 3d a2 1e df bc 0d e6 a8 3c
       0.009173533 0.06092087 -0.027236287 0.02061751
0000d0 4f f0 15 3d f4 06 e2 3b 95 a9 c4 3b e2 e8 c3 bb
       0.03660613 0.0068978015 0.006001661 -0.0059786895
0000e0 ab fa 6f bc bb 11 af 3c 86 c6 52 3d 14 f1 af bc
       -0.014647166 0.02137076 0.051458858 -0.02147726
0000f0 53 ef c2 3c 06 8a 7d bc 2d 43 dc 3c 37 f8 16 3d
       0.02379576 -0.015474802 0.0268875 0.03685781
000100 ae 41 22 3d ac 3a 67 3d 2b 09 81 3b bc c7 7a 3d
       0.03961342 0.05645244 0.0039378605 0.061225638
000110 c9 e0 0b 3d e2 a7 13 3d f9 4b 5e bb 83 3b d9 3c
       0.03414992 0.036048777 -0.0033919795 0.026517635
000120 56 52 af 3c 30 d4 ab 3c 38 1f e7 3b e0 de 27 3d
       0.021401566 0.020975202 0.007053282 0.040984035
000130 19 9f 95 bc 1a 63 54 3b 85 95 83 bb 9c 9c 56 bb
       -0.01826434 0.0032407702 -0.004015627 -0.0032747155
000140 a3 43 12 3d 24 59 f7 3b 6a a2 49 3c 95 ee 4c 3b
       0.035709035 0.007548468 0.012306789 0.0031270136
000150 42 50 1f bd 0b 93 44 3d ec b3 0c 3d fd 06 82 3c
       -0.0388949 0.047991794 0.034351274 0.015872473
000160 bd a6 b1 bb 9d 03 43 bc 76 01 9a 3c 28 7f b8 3c
       -0.005421488 -0.011902717 0.018799525 0.02252157
000170 5a 21 37 3c b1 2f b1 bc 17 74 0a 3d 85 94 a0 ba
       0.011177385 -0.021629186 0.03380212 -0.0012251294
000180 b7 9f ca 3c 1f 0f 44 3c 3f 4b 03 3d bc 14 8e 3b
       0.024734361 0.011966496 0.032054182 0.004335968
000190 49 b4 48 3c 86 1f 04 bd 1f dc 51 bc 03 b4 72 bc
       0.012250015 -0.032256626 -0.012808829 -0.014813426
0001a0 05 08 d6 bb 76 8a 56 3b 90 61 cf 3c 06 87 2b 3c
       -0.0065317177 0.0032736338 0.025315076 0.010469204
0001b0 25 37 9e bc bd fe 9a 3d e5 8c fb 3c 11 31 bf ba
       -0.019313404 0.07568119 0.030706832 -0.0014586766
0001c0 3b b0 62 3b 12 f9 00 3d 1e 1a 8a 3c d1 fa 59 bc
       0.0034589905 0.031487532 0.016858157 -0.013304428
0001d0 18 e5 bc 3c 76 fd b8 bb fd 7d 36 3c 87 8c 7a 3c
       0.02305846 -0.0056454493 0.011138436 0.015292293
0001e0 9a 6a 5e 3d 3a d5 37 3d 4b d3 18 3c 1f 76 d0 3c
       0.054300882 0.044881083 0.00932772 0.02544695
0001f0 49 3a 43 3d 69 f1 b0 3c e4 49 b7 bb e5 b1 9f 3c
       0.047663007 0.021599488 -0.0055935252 0.019494006

network_body._body_endoder.seq_layers.0.weight f4 [128, 6]
000000 8f 7a 4e bf b9 e4 08 bf 42 af 17 bd 93 29 3d bf
       -0.8065576 -0.53474003 -0.037032373 -0.7389156
000010 b6 34 1c bf d9 a4 b5 3d 1a 39 5c 3f b8 66 03 3e
       -0.6101793 0.08869333 0.8602463 0.12832153
000020 12 ce 4b bf 3e 54 ef be b3 ae a8 3e c0 82 d0 3e
       -0.79611313 -0.4674396 0.32945785 0.40724754
000030 7f 91 18 3e 76 e9 b7 3d 9d d0 33 be ee 4c 8c 3e
       0.14899252 0.08980076 -0.17560048 0.27402443
000040 72 96 17 3e 69 5b 25 3f 0f fb be 3e 9e c3 d1 be
       0.14803484 0.64592606 0.37300918 -0.40969557
000050 a2 7e 88 3e 73 27 3b 3e eb 50 c3 bd 09 40 a3 be
       0.26659113 0.18276767 -0.09536918 -0.31884792
000060 0c 1f f0 3e a7 e3 0a bf c6 6e 16 3f 2e fb 6e be
       0.46898687 -0.5425362 0.58762777 -0.23338005
000070 45 16 43 3e 62 ab 5a bf 43 f4 34 3d fa 7d bf 3e
       0.19051464 -0.8541776 0.04417826 0.374008
000080 98 b8 18 bf 91 b5 ac 3e a9 26 e8 bd d1 26 ee 3e
       -0.5965667 0.33732274 -0.11335499 0.4651399
000090 0d 1a 18 3d 27 fb 04 bf c8 2f 0b 3f 80 5c a7 be
       0.03713422 -0.5194573 0.54369783 -0.3268776
0000a0 eb 9d 2f 3f b0 60 93 be 9d da 8c be 09 80 8e bb
       0.6860034 -0.28784704 -0.2751054 -0.004348759
0000b0 a4 42 75 3d d3 82 17 3e d0 4f 42 3e b2 20 ed 3e
       0.059878007 0.14795999 0.18975759 0.46314007
0000c0 ef 2c 37 be 81 92 89 be 73 4e 00 bd a5 1f ee be
       -0.17888235 -0.26869586 -0.031324815 -0.46508518
0000d0 fb 01 91 3c a5 06 8f bc 9c f4 fc be e1 6b d5 be
       0.01770114 -0.017459223 -0.49405372 -0.41683868
0000e0 2b 46 c0 bd 12 a4 e6 bd 65 77 37 3d 6e 89 ab 3f
       -0.093883835 -0.11261763 0.044791598 1.3401315
0000f0 f5 3b 11 3c 96 56 cd be 3a ba 4c 3e 68 c4 76 be
       0.0088643925 -0.40105122 0.19992915 -0.2409836
000100 1f 3f e3 3e 8d d6 b7 be c8 49 76 be a6 43 87 3e
       0.44384095 -0.35905877 -0.24051583 0.264188
000110 3e 43 64 3e f0 31 00 bf 9a 31 b3 3e 77 b0 a0 3e
       0.22291276 -0.500762 0.3499878 0.31384632
000120 59 5c 22 be 06 d1 14 bf e6 3b c1 be 43 5b 5e 3e
       -0.1585554 -0.58131444 -0.3774101 0.21714501
000130 a6 b5 5c 3c 39 40 5b 3e 35 d9 27 3f 31 0f 03 3f
       0.013471043 0.21411218 0.65565807 0.51195055
000140 1c 81 8d 3e 0c 2b b5 bd 41 cc 2b 3e 6e da 33 bf
       0.27637565 -0.08846101 0.16777135 -0.7025517
000150 36 06 1b bf 51 db 88 3d 44 60 20 3e 51 ad f8 3e
       -0.6055635 0.06682456 0.15661722 0.4856973
000160 0f ef 2c 3e dd 18 66 bf 64 b8 a0 3e 73 ee 03 3e
       0.16888069 -0.8988169 0.3139068 0.1288393
000170 51 58 74 3e fb 13 b8 be 46 98 f9 bd da 03 00 bf
       0.23861815 -0.35952744 -0.12187247 -0.50005877
000180 9d e4 3d bf 5b b0 00 3f 16 bf c8 3e 14 a5 1d bf
       -0.7417696 0.502691 0.39208287 -0.61580014
000190 ce 45 a2 be ba 66 e2 3e 68 f7 e9 3e 2a 07 64 be
       -0.31693882 0.44219 0.45696568 -0.22268358
0001a0 fd d3 94 be 8b 1b 25 be 9c 7d 00 3f 46 28 37 3e
       -0.29067984 -0.16123788 0.50191665 0.17886457
0001b0 34 ea 89 be 52 c6 51 3e 67 7d ef be 05 23 21 bb
       -0.26936495 0.2048581 -0.46775362 -0.0024587524
0001c0 bf ba 90 3e 8c 10 e1 3d 1b 9a 62 3e 9f 8f 89 3e
       0.28267476 0.10989484 0.22129099 0.26867387
0001d0 2d 42 74 be 07 7a 2b 3f 30 f9 3a 3d bb 79 27 3d
       -0.23853369 0.66983074 0.0456478 0.040887576
0001e0 7b 15 12 be 38 77 e7 3e 89 23 e8 bd 28 4e ef 3d
       -0.14266007 0.45208144 -0.11334903 0.11684829
0001f0 9f df 19 3f d6 a5 03 3f 6c e0 53 be 56 61 2f bf
       0.60106844 0.5142492 -0.20691079 -0.685079
000200 18 66 d6 bc 8e b2 70 3f 89 ca 75 3e 96 4b ef be
       -0.026171729 0.9402245 0.24003042 -0.46737355
000210 1f db 14 be e1 0d d9 be 15 c5 a7 3e 40 dc 3f 3d
       -0.14536713 -0.423934 0.3276755 0.046840906
000220 c9 c9 34 3e fa 29 b9 3e c9 92 b7 be 02 1b e4 be
       0.176551 0.36164838 -0.35854176 -0.44551855
000230 af d4 25 3f e0 f1 a8 be 21 49 8f be a4 fc e7 3c
       0.64777654 -0.32997036 -0.2798548 0.02831871
000240 5f d2 47 3e af 70 56 3f 25 cd 95 3e 73 13 e2 3e
       0.19513844 0.8376569 0.29258075 0.44155464
000250 9c f0 f6 be fb 3e 0e 3f 17 4e 61 3d 2a 18 d2 bd
       -0.48230445 0.5556485 0.055006113 -0.10258515
000260 ce 07 e0 be a0 a3 f1 3e 86 81 1d bf a7 66 06 bf
       -0.43755955 0.47195148 -0.6152576 -0.52500385
000270 b6 03 17 bf 50 c4 3e bf 4d e0 51 bb cb 19 a2 3d
       -0.5899004 -0.745183 -0.0032024563 0.07915076
000280 49 fa 47 bd ab 5c 6d 3f 94 01 04 3f 77 fe b3 be
       -0.048822675 0.92719525 0.5156491 -0.3515508
000290 80 65 d1 bd b1 69 c9 3d 3c 1b a2 be b2 0f a1 be
       -0.10224438 0.09834612 -0.31661403 -0.31457287
0002a0 26 7f dd be 09 61 c7 3e 36 60 00 be 9a 1d 1d bd
       -0.4326107 0.3894122 -0.12536702 -0.03835831
0002b0 21 52 02 3e 8d 5e 5c be ee 33 df 3e 87 a2 16 bf
       0.12726642 -0.21520443 0.43594307 -0.5884175
0002c0 f3 39 d8 3e 2c 35 63 be bf f1 21 be 17 b6 5f 3e
       0.42231712 -0.22188252 -0.15814875 0.21846806
0002d0 1f 22 e8 3e 81 8e df be f4 8a 5c be db 3b 49 3f
       0.45338532 -0.4366341 -0.21537381 0.7860696
0002e0 b3 28 94 be 19 2f e4 3e ae fe 81 be df 3e 17 bf
       -0.289373 0.44567183 -0.25389618 -0.5908031
0002f0 74 bc d5 be d6 c6 7f be 44 9c c4 be 4a 7a 14 be
       -0.4174534 -0.24978194 -0.3840047 -0.14499775
000300 be ae 84 be 60 0f 30 be 96 3e 7a 3f 12 84 9f 3e
       -0.25914568 -0.17193365 0.9775175 0.3115545
000310 9f 0e 68 3f 32 b0 e2 bd 53 9a 11 3f 34 b2 be be
       0.9064731 -0.11068763 0.56876105 -0.37245333
000320 e0 0a 85 bd 21 58 98 3e 0e 76 a0 bb 8f 0c 8f bf
       -0.06496215 0.29754737 -0.0048968857 -1.1175708
000330 5f f4 8c bf ae 96 4c 3d e3 50 3f 3e e9 a3 2e 3e
       -1.1012076 0.049948387 0.186832 0.17054714
000340 ac a4 32 be 44 28 07 bd 91 d0 cc 3d 9d 39 69 be
       -0.1744563 -0.032997385 0.100007184 -0.22775884
000350 20 2f 43 3d c8 f3 17 bc 76 a9 d5 3e 96 3f 2e bf
       0.047652364 -0.009274431 0.4173085 -0.68065774
000360 f4 20 75 be e2 bc dc bb b8 10 a5 3c c0 9d 8a 3e
       -0.23938352 -0.006736384 0.020149574 0.2707348
000370 d4 d6 4e bd 41 68 c2 3e 45 a0 94 3d 3a a8 2e 3f
       -0.050497845 0.37970164 0.072571315 0.68225443
000380 b8 d7 17 3e 63 62 43 bc 25 47 5d be d7 9b 62 3f
       0.14828384 -0.011925313 -0.2160917 0.8851904
000390 72 bb 27 3f 94 50 27 be b2 8e 22 3e 3c fa 81 bd
       0.65520394 -0.16339332 0.15874746 -0.063465565
0003a0 65 ea 74 3c 9c 35 d2 3e ed 68 30 be 0e 49 8f be
       0.014948462 0.41056526 -0.17227526 -0.27985424
0003b0 2f 2e db 3e 3f be ae be 48 81 0f 3f a8 91 27 3d
       0.42808673 -0.3412952 0.5605664 0.040910393
0003c0 cf 8d 8b be 02 c8 62 3d 26 29 30 be 1e 4f b7 3e
       -0.2725663 0.055366524 -0.17203197 0.3580255
0003d0 35 83 0b 3e 6f 98 9c 3c b4 f1 55 bf a0 65 83 3e
       0.1362427 0.019115655 -0.83571935 0.2566347
0003e0 27 4d 42 be 2b 66 d1 be c8 36 45 3d 62 50 3d 3f
       -0.18974744 -0.4089826 0.048147947 0.7395078
0003f0 7e 43 4b 3f 66 bc ad 3e aa a6 fb be d4 16 cb be
       0.7939986 0.339328 -0.49150592 -0.39665854

network_body._body_endoder.seq_layers.2.bias f4 [128]
000000 14 f9 38 3c 98 78 ae 3c c8 1e 5c 3c e9 a0 0e bc
       0.011289854 0.021297738 0.013435073 -0.008705356
000010 64 c5 d2 3c 94 18 46 3c f9 fc ee 3c 11 8f 86 bb
       0.025728889 0.012090821 0.029173361 -0.0041064103
000020 31 21 0c 3d c8 f1 54 b9 02 ec 24 bc 5e 6d a4 3b
       0.03421134 -0.00020307966 -0.010066034 0.0050179204
000030 2f 4b e7 3c 2b 37 16 3d 7f e0 df bb 9f 75 8f 3c
       0.028234093 0.036673706 -0.006832182 0.01751214
000040 b2 4b 93 bc 86 0c 96 3c 01 dc 4c 3c e6 05 f0 3c
       -0.01798043 0.018316519 0.012503625 0.029299688
000050 4e ca 35 3c cb 95 b5 3c 81 69 0e bc 8b 4e 29 bc
       0.0110955965 0.022166153 -0.008692146 -0.0103336675
000060 93 8a bb ba de b7 d6 bb 17 58 41 3d 3d 21 ff 3c
       -0.0014308266 -0.0065526804 0.04720315 0.031143779
000070 a0 fc c8 3a 55 ad b9 3b ef d1 17 bc 91 50 cd 3c
       0.0015334077 0.0056664147 -0.009266361 0.025062831
000080 42 a4 12 3c a3 0f c1 3a c6 73 52 bc 26 75 b6 ba
       0.008950295 0.0014729392 -0.012844985 -0.0013920411
000090 a6 9e 08 3c 22 28 2a bb ee 5b 17 3d c2 65 b2 3c
       0.008338606 -0.0025963862 0.036952905 0.021777038
0000a0 d0 b0 59 3c 64 3b 38 bc 6d 68 16 bc 87 f9 97 3c
       0.013286784 -0.011244629 -0.0091801705 0.018551601
0000b0 d7 37 4b 3c 90 e7 bc ba ad 3d 3d bb 15 73 3f bb
       0.01240345 -0.0014412273 -0.0028875873 -0.0029212881
0000c0 13 11 df 3c 3d 44 24 ba 73 10 d9 bb 5e 50 3c bb
       0.027229821 -0.0006266272 -0.0066242754 -0.0028734426
0000d0 f9 33 21 3d 1c bc c7 3c ec 62 8a 3b 4e 45 97 3c
       0.039356206 0.02438169 0.004223218 0.018465664
0000e0 12 85 05 bb 67 10 8a 3c 24 1d 8b 3c 52 74 c3 3c
       -0.0020373506 0.016853524 0.016981669 0.023859177
0000f0 1f 4e a8 3c 19 b6 ac 3c e6 b2 28 bc 44 2d 16 bc
       0.020545064 0.021082925 -0.010296559 -0.009166066
000100 3e 1c 20 bc 73 58 57 bc ac 60 31 3c 73 db c5 ba
       -0.009772358 -0.0131436465 0.010826271 -0.0015095308
000110 33 3a 0e bc 16 35 38 3c 0e 46 42 bc 0b 8c 43 3c
       -0.008680868 0.011243125 -0.011857523 0.011935244
000120 d3 b0 f3 bb 6b 6a ab 39 82 04 80 3c 89 e7 8f 3c
       -0.0074368506 0.0003269495 0.01562715 0.01756646
000130 b4 c2 35 bb ea 89 ad bb 52 99 43 bc ba a6 cb bb
       -0.002773446 -0.0052959817 -0.01193841 -0.0062149437
000140 09 f9 52 bc ca 50 3c bc 8f 71 8b bc aa 32 c5 3c
       -0.012876757 -0.011493871 -0.017021922 0.02407201
000150 77 b3 eb bb da ae 71 3c 2e 76 a8 3c 19 5b 37 3c
       -0.0071930247 0.0147511605 0.020564165 0.011191153
000160 10 e7 09 bb 47 6e 68 b9 f5 8b 0a 3c 3c 0b 2a bb
       -0.0021042265 -0.00022166326 0.00845622 -0.0025946638
000170 dc cf ae 3c 01 34 86 3c 58 0a 0f 3d ec 13 b7 3c
       0.02133935 0.01638222 0.034921974 0.022348367
000180 bf 3b 8b 3c 77 19 41 bc c6 2b cc bb 7b c2 13 3d
       0.016996263 -0.011785856 -0.006230804 0.036074143
000190 cf b4 38 3b 79 53 e6 3c 91 0a 83 3c 0d cf a0 3c
       0.0028183942 0.028115975 0.01599625 0.01962998
0001a0 ec 8a c3 3c b1 c9 a3 3b 79 45 8d 3c e3 25 97 3c
       0.023869954 0.0049984087 0.017245041 0.018450683
0001b0 09 31 87 3b 8e bb 29 bc 98 80 83 bc 79 ca 96 3c
       0.0041257185 -0.010359658 -0.01605253 0.018407093
0001c0 6b 11 c2 3c 69 11 47 bc 4a e3 2c 3b 07 e5 e2 bb
       0.023689946 -0.012150147 0.0026380592 -0.006924275
0001d0 db 81 eb 3b 43 33 b3 3c 3b 01 58 3c ca 5d f5 39
       0.007187111 0.02187503 0.013183887 0.0004679992
0001e0 03 bd 30 3d cc fa 44 bc f5 69 ad 3c 12 9e cb 3c
       0.043149006 -0.012022685 0.021168688 0.024855647
0001f0 bf 4a 36 bc 5f 09 5b bc 33 7e 83 bc 9b 4b 1a 3d
       -0.011126219 -0.013368933 -0.016051387 0.03766976

network_body._body_endoder.seq_layers.2.weight f4 [128, 128]
000000 c3 14 22 bd 7e 81 92 3d bc 7b df 3d 1b ff e2 bc
       -0.03957058 0.07153605 0.10912272 -0.027709534
000010 e5 90 3b bc 8c f7 c4 3d 10 cb 86 3d f0 c9 c5 3d
       -0.01144812 0.09617528 0.065817 0.09657657
000020 27 bf fa 3c 9a bc 69 3c ee c1 d4 3a 11 a9 87 3d
       0.030608727 0.0142661575 0.0016232112 0.06624044
000030 c5 67 f9 bd e8 35 8e bc b6 07 92 bd 74 b1 88 bd
       -0.121779956 -0.017359689 -0.07130377 -0.066744715
000040 64 be 28 bc b6 b7 a5 3d 34 51 1e be 24 d5 47 3e
       -0.010299299 0.08091681 -0.15460664 0.195149
000050 e8 ab 6b be a4 8b a8 3c 35 01 1f 3d 36 b4 d9 3b
       -0.23014796 0.020574398 0.03881951 0.0066437973
000060 9d 1a 5e 3d d4 a5 33 3d bf ca 06 3e 10 8a 30 3d
       0.0542246 0.043859318 0.13163279 0.043100417
000070 46 95 ec 3c 7b db 36 3e 6e f5 70 be 32 46 94 3d
       0.028879773 0.17857163 -0.23531124 0.07239951
000080 12 45 e3 3d a6 d0 4c 3c 2f ea 4f be d4 40 ee 3b
       0.110971585 0.012500918 -0.20304178 0.0072709117
000090 ae 87 c3 bd e9 ec a2 bd 35 12 fb 3c 0a 7e 06 3e
       -0.09547363 -0.07955343 0.03064833 0.13134018
0000a0 14 d1 60 bd f9 ce a7 bc 18 65 b5 bc af d8 98 bc
       -0.054886892 -0.020484434 -0.022142932 -0.01865801
0000b0 78 7f 6e 3e 18 3f f2 3d 50 25 6a bd a6 d2 42 3d
       0.23290813 0.118284404 -0.05716449 0.04756417
0000c0 13 75 7d 3d b9 2a e5 3c 75 6f 94 3d 24 e2 d9 bd
       0.06187923 0.027974473 0.07247821 -0.10638836
0000d0 82 c4 e4 3d 4e 20 3b 3c ff 1f 47 bd 82 d9 b4 bd
       0.111702934 0.011421276 -0.0486145 -0.08830549
0000e0 bf b5 1b 3c 47 51 7b bd c4 3e 86 3d 2c e8 d6 bd
       0.009503781 -0.06135681 0.0655494 -0.10493502
0000f0 ab 82 c1 bd 76 82 b3 bc 2c f0 cf bc d1 a9 0b be
       -0.09448751 -0.021912795 -0.025383078 -0.13638999
000100 48 b2 40 be 94 dc 50 3c 5e 79 fc bd 03 1a c3 bd
       -0.18818009 0.012747902 -0.123278365 -0.09526446
000110 a4 46 06 be ba bc 43 3d 10 3b 57 3c be 76 56 bd
       -0.13112885 0.047787406 0.01313664 -0.052359335
000120 95 7f 61 bc b2 8a 40 3e 6e d9 08 be 14 15 05 3e
       -0.013763328 0.18802908 -0.13364193 0.12996322
000130 09 a5 22 3e 07 e1 ed 3c 86 e6 9d 3d 19 7e ea bd
       0.15883268 0.029037965 0.077099845 -0.114498325
000140 6d b9 ff 3d 48 2c a1 bd b8 3a b9 bd 05 be bd 3d
       0.12486539 -0.07869774 -0.09044403 0.09264759
000150 ba 13 27 be 19 64 53 3d 53 23 b6 3d bd 7f 27 3e
       -0.16316119 0.051609132 0.08893456 0.16357322
000160 a3 dd 1a 3d 32 ed c3 3c e3 2f 48 3b 83 4a 10 bc
       0.037809025 0.023916814 0.003054612 -0.0088068275
000170 6f f5 81 3d ed bb 53 bc e6 30 cc 3d 31 48 17 3c
       0.06345641 -0.012923223 0.09970264 0.00923352
000180 67 05 4d 3e 9f bf 77 3d 05 d2 ec bd 37 e1 d0 bd
       0.20021592 0.06048548 -0.115634955 -0.10199206
000190 2a b5 db bd 11 21 c2 3c a7 d0 8c 3c b0 a7 26 be
       -0.10727914 0.023697408 0.017189337 -0.16274905
0001a0 fa bb 36 3d 3c b3 1c be 6f 05 b9 bd 86 bb 93 3d
       0.044612862 -0.15302747 -0.090342395 0.07213502
0001b0 8b 5e 0d 3e 17 a5 52 bb 62 e2 3b be 2c 29 e9 bc
       0.13805597 -0.0032141858 -0.18348077 -0.028462015
0001c0 45 d3 a4 bd 7a f9 89 3d 6b a8 46 be ae 8c 38 3c
       -0.08048109 0.06737037 -0.19400184 0.011264009
0001d0 0b 72 ac 3c ff b5 1b be 7d 8a 28 bd 8c 97 3f bc
       0.021050474 -0.15206145 -0.041147698 -0.011693846
0001e0 51 4e c6 3a bb f3 47 3d 50 c1 a3 bd 6a bc da 3d
       0.0015129541 0.048816424 -0.07995856 0.106804684
0001f0 ae 46 1d bd 1c b0 12 3e 68 89 e8 3c 3d e1 29 bd
       -0.038397484 0.14324993 0.028385833 -0.04147457
000200 46 70 b2 bc 9c c9 f6 3c 4e 6e 2f bd ba 2e 09 be
       -0.021782052 0.030125432 -0.042829804 -0.13396731
000210 da b4 81 bd 48 f2 b9 bd 16 8e bc bc 7d ce c4 3c
       -0.06333323 -0.090794146 -0.02301697 0.024024243
000220 98 d4 22 b9 6f 74 d2 bd 25 9e 6d 3d 02 89 b6 3d
       -0.00015528721 -0.10276114 0.058012147 0.08912851
000230 c3 de dc 39 40 b2 b7 3c 7d 61 4e bd 98 7c 8e bc
       0.0004212764 0.022423863 -0.05038594 -0.017393395
000240 4d 6a 3b 3e 74 7a 92 bd e3 8d 0f be 89 59 30 bb
       0.1830227 -0.07152262 -0.14018969 -0.0026908836
000250 2d dd 2a bd fc d2 6c 3d 33 67 83 3c cf 89 5f 3d
       -0.041714836 0.057818398 0.01604042 0.054574784
000260 2f 96 24 be 2b 66 38 3d 47 18 81 3d 9f 2a 52 3d
       -0.16072915 0.04501931 0.06303459 0.051310178
000270 db 37 96 bd f7 ba 53 bc ea 93 83 3d 7a b0 8b be
       -0.07334872 -0.012922994 0.06424697 -0.27283078
000280 d1 13 9b 3d ca f5 0b be 57 9a 1e 3e ab 62 8c 3b
       0.07572139 -0.1366798 0.15488563 0.004284223
000290 69 38 9e 3d a9 bd 15 3b 64 6b 7c 3d eb 02 9c 3d
       0.07725603 0.0022848642 0.061625853 0.07617744
0002a0 f8 38 bb bd d3 5f e1 bd 08 ee d3 bc 36 5b 83 3d
       -0.09141725 -0.11004605 -0.025870338 0.064138815
0002b0 38 a4 9d 3d 52 15 b4 bd 97 ca fb bd 9c b7 a8 bd
       0.07697338 -0.08793129 -0.122945 -0.08238146
0002c0 54 cd d3 bc aa b1 18 3e 83 14 c2 3d 70 d2 c9 3c
       -0.025854744 0.14911523 0.094765685 0.024636477
0002d0 a3 a0 9d 3c 76 2f e5 bd 74 d5 57 bd 34 df 99 bd
       0.019241637 -0.11190693 -0.0526938 -0.07513276
0002e0 a7 3a d1 bd a5 9a 60 b9 85 16 c7 3c 87 fc 58 bd
       -0.10216265 -0.00021419914 0.02430273 -0.052975204
0002f0 44 e8 c8 bd c1 9e 48 3d 4e 2e 35 3d 16 0c 77 bd
       -0.09809926 0.048979525 0.044233613 -0.06031426
000300 42 5e 93 3c 70 21 57 3d e8 55 04 bc d9 79 00 3e
       0.017989282 0.052522123 -0.008077122 0.12546481
000310 94 e0 8c bd d8 8c 46 bd 54 e9 e6 3d 2b b0 bf 3d
       -0.068787724 -0.048474163 0.112749726 0.09359773
000320 9b 23 0e be 8c ed bb bd eb 95 2c bc 15 3a 30 3e
       -0.1388077 -0.09176168 -0.01053379 0.17209657
000330 aa a7 91 bd b9 41 b7 3c 8e 4f 06 3d 41 87 ad 3d
       -0.071120575 0.022370206 0.032790713 0.08473063
000340 0c fe ae 3d e0 0b 13 be 09 4c 74 3d 67 ed 21 bd
       0.08544549 -0.14359999 0.059642825 -0.039533045
000350 08 98 9d 3c 2b 2c a4 bd 60 42 ed 3d a1 10 87 bd
       0.019237533 -0.08016237 0.11584926 -0.065949686
000360 bc 47 22 3e 7c bc f0 3d 97 cb 15 3e 2b a4 99 bb
       0.15847677 0.117547005 0.14628445 -0.00468876
000370 cd 9c 3f 3d d5 78 27 3e 01 fa 6f 3d 63 ac 6b bd
       0.046780396 0.16354688 0.05858803 -0.057537448
000380 dc 54 56 bc d3 ac 00 3e 53 ff 97 3d 3a 3b be 3c
       -0.0130817555 0.12565927 0.07421746 0.0232216
000390 a0 c2 71 3c 49 74 48 3d 50 4f 90 3d 62 8a dc 3d
       0.014755875 0.048939023 0.07046378 0.10768582
0003a0 4f 0a c5 bc 07 ab 55 3e ad 92 77 be e4 4a 04 be
       -0.024052767 0.20866023 -0.24177046 -0.12919194
0003b0 ff 3d fb bd 48 6b 46 3c b7 27 0b 3e 20 d5 5e 3d
       -0.12267684 0.012110539 0.13589369 0.05440247
0003c0 e1 fb 63 3d 3c e1 a3 3d 98 a1 35 3d 10 0b 93 bd
       0.055660132 0.080019444 0.04434356 -0.071798444
0003d0 1f 30 b7 3d 15 1f 7c ba 62 ca c0 bd ab 5e bd 3d
       0.08944725 -0.00096176687 -0.094136015 0.09246572
0003e0 0a 44 f8 3c 1a 11 8c bb e5 42 77 bd d9 0c 4b bd
       0.030305881 -0.0042744996 -0.06036653 -0.0495728
0003f0 31 cb a3 bc f9 d1 bf bd c9 4b bc 3c ff 8f a7 bc
       -0.01999435 -0.09366221 0.022985356 -0.020454405
