results/ppo/Avoid Obstacle/Avoid Obstacle-1395.onnx (onnx, 73159 bytes, 7 tensors)

action_model._continuous_distribution.log_sigma f4 [1, 3]
00000000: 0000 0000 0000 0000 0000 0000
0.0 0.0 0.0

action_model._continuous_distribution.mu.bias f4 [3]
00000000: 0000 0000 0000 0000 0000 0000
0.0 0.0 0.0

action_model._continuous_distribution.mu.weight f4 [3, 128]
00000000: 42f3 73bc 3435 c03b aa26 7a3b 7335 383d
00000010: 30ee b03c 0897 65bc 2b18 3cbc 1356 70bc
00000020: 4d88 8d3c 67a7 b33b fef3 973c 1392 433c
00000030: a032 61bc f33e 8739 dd4f b5bc c321 0bbd
00000040: a7a4 bcbb 1829 973c 1dc2 edbc 2b0e 173c
00000050: 3de8 553b 8e09 98bc a912 3e3c 39c3 46bc
00000060: 95ab 8bbc 1ac3 d2bb 6348 183a d235 d53b
00000070: c801 94bc 1682 b7bc 63a2 d23b ebe6 9e3b
00000080: 4613 9d3c 5d8b 50ba 0f54 263c db59 85ba
00000090: 8995 aa3c 1dc9 54bc 0b91 5dbb a79b 0cbb
000000a0: 46c0 053c 9034 b83c abb6 d9ba 65a2 17bc
000000b0: 9867 f4bc 784c ec3a cb5f da3b ba88 eebb
000000c0: 58d2 803b a7ab 73bc ccd8 08bb f8f4 593c
000000d0: b7c4 e83b 890c 053c 67b7 813c e41f 333c
000000e0: b072 5dbc d6a4 1abc 94e2 9a3c 0ebc ac3c
000000f0: 9d94 aaba 775c 8e3c 9ba3 513c 2289 6d3b
00000100: db30 35bd deb8 113c c035 7fbb 27c5 15bc
00000110: bb55 803c ec46 c6bc 9b37 13bc 157e d53a
00000120: d38e 72bc fa91 33bc 733d 20bc 17a3 99bc
00000130: 82fb d5bb f3d9 4bbc 77c8 c8bc 55b7 dbbb
00000140: 1c3c a4bc 3bf6 ae39 e4ef 1a3c c7b1 8d3c
00000150: aaf7 5c3c ce0e b83b 3907 c9bc 7775 3abc
00000160: 08f8 03bc 361a b03c f800 603c 03fa e13c
00000170: 7323 17bc 7cf1 1a3c 057c 23bc 4893 c93b
00000180: 9bd8 adba edcc fb3c 4b8f 66bc 77bf 8dbb
00000190: 7a4f 54ba 73b8 dc3c c8cd 01bc b8fe 1c3c
000001a0: 7f31 ddbb 0de6 8fbc 1bdc 35bc 5bc0 983c
000001b0: cbde 863b c8d2 343b 7247 a5bc 8659 863b
000001c0: 5217 2cbc 50c1 91bc 7dc0 d53b 862e 8ebb
000001d0: b55f 8ebc 7b52 c5bc a04c c93c 7309 9d3c
000001e0: 7602 9dba 4c1d 1dbd 15dd 39bc bf95 53bc
000001f0: 05f8 a33b c566 ddbb 30b2 25bc c054 af3a
00000200: 76f5 183d 6cfc 0f3c 4fd4 a93b 4540 2c3c
00000210: c97b 84bc 0070 a13c 5123 283a 2589 78ba
00000220: 555a 8d3c 6b6e 853b dbcf 1a3d 674d 04bc
00000230: 3e73 8d3b 9fbf 193c a286 d83c 19e9 a5bb
00000240: 7db0 e5bc dc0d a03a 1204 973c 7deb 73bc
00000250: 842c cabb ed76 debc d661 0939 93cd c8bc
00000260: f32a dabb c060 78bc 199d 09bc f527 c43a
00000270: 3cc5 1ebd da93 643c a67a aabc fde2 27bc
00000280: 8b01 133c 3ab3 383d 0003 7dbc 95e0 93bc
00000290: 37ab 13bd f47f cb3c 771c b8ba 1400 1bbc
000002a0: fa32 d43c 048c 9f3b d12f 29bb d8d7 003c
000002b0: 2bef 4a3c 58b2 d3bb 8596 ef3c 93a2 a33b
000002c0: 6174 363c dd05 fe3b 5f71 a33a 1f14 393c
000002d0: 6d33 6fbc 3747 03bc 574d debb 60d5 7ebc
000002e0: ee81 97ba 9b87 3b3b 67c8 36bc 322c 2ebc
000002f0: 7ac7 d7bb 75e2 c2bc 53f3 d7ba cd86 923c
00000300: 2634 9bbc 9ffb 2b3c d29a 5e3c 8836 763d
00000310: 7722 fd3b 5a5b 193d dd00 763a 2388 de3c
00000320: fb2a 5a3c 740e 803c 5a98 d83b 5d19 c03b
00000330: 6724 bebc 133c 88bb 92d7 7abc 8bdf 283c
00000340: 9957 1e3d d395 2b3b 9f68 bcbc b8d9 933b
00000350: edae f03b 3fc6 bdbb 8fc5 1a3c 537a 04bd
00000360: 5e1c 833b 3375 3dbc ff1e 203c 4de5 74bc
00000370: 22ab 2b3c 19e6 963c d6cf b5bc 381a 8d3c
00000380: b354 803c 2368 1c3c b009 ed3c a3d7 a23c
00000390: fa7f 5fbc 4d6f 6bbc 5d1e 87bc aaa7 fdbc
000003a0: 434e 85bc ef9e 05bb 00ce 76bb eb6c b7bb
000003b0: f7e2 4cbc 39de 083c 6961 b53a 0b08 81bc
000003c0: 80a2 cebc 435c a33c 7bf4 afbc a65e 853b
000003d0: 932b 133c 8505 e83b f264 f73c 5522 76bc
000003e0: 6c9a 45bc cc11 90bc 82a9 a43b c564 b3bc
000003f0: 4ba2 6fbc 9a35 b33c 54cc b53c 2e92 c43c
-0.01488954 0.0058657173 0.0038170018 0.04497285 0.021597952 -0.014013059 -0.0114803715 -0.014668959
0.017276907 0.0054826024 0.018548962 0.011936682 -0.01374498 0.00025796107 -0.022132808 -0.033967745
-0.005756933 0.018452212 -0.029023224 0.0092196865 0.0032639646 -0.018559244 0.011601129 -0.012131506
-0.01704959 -0.0064319493 0.00058091263 0.00650666 -0.018067256 -0.022400897 0.0064280494 0.004849305
0.01917423 -0.0007955337 0.010151877 -0.0010173874 0.020823257 -0.012987402 -0.0033808376 -0.002145508
0.008163517 0.022486001 -0.0016610225 -0.0092550265 -0.029834554 0.001802816 0.0066642514 -0.0072794827
0.003931325 -0.014872468 -0.0020881174 0.013303034 0.0071035284 0.008120664 0.015834523 0.010932896
-0.013516113 -0.009438714 0.018906869 0.021085765 -0.0013014261 0.017378075 0.012795354 0.0036245068
-0.044236045 0.008894173 -0.003894195 -0.009141243 0.01566588 -0.02420374 -0.008985425 0.0016288186
-0.01480456 -0.0109600965 -0.009780276 -0.018754525 -0.006530226 -0.0124421 -0.024509652 -0.0067052045
-0.020048194 0.00033371322 0.009456608 0.017296685 0.013486782 0.005616999 -0.024539577 -0.011380545
-0.008054741 0.021496873 0.013672106 0.027585035 -0.00922476 0.009456988 -0.009978299 0.0061515905
-0.0013263406 0.030737365 -0.01407225 -0.004325803 -0.0008099001 0.026943421 -0.007922597 0.009582214
-0.006750285 -0.017565751 -0.0110998405 0.01864641 0.0041159145 0.0027591456 -0.02017567 0.0041000275
-0.010503607 -0.017792374 0.0065231905 -0.004339042 -0.017379621 -0.024087181 0.02457267 0.019169545
-0.0011978883 -0.038358018 -0.011344214 -0.01291412 0.0050039315 -0.006756636 -0.010113284 0.0013376698
0.037343465 0.008788209 0.00518278 0.01051337 -0.016172307 0.019706726 0.0006413954 -0.00094808853
0.017254988 0.0040720007 0.037795883 -0.008075095 0.0043167165 0.009384065 0.026431385 -0.005063188
-0.028038258 0.0012211162 0.018434558 -0.014887688 -0.0061698575 -0.027156318 0.00013101785 -0.024512088
-0.006657952 -0.015159786 -0.008399271 0.0014965521 -0.038762316 0.013951266 -0.020810436 -0.010246989
0.008972536 0.0450928 -0.01544261 -0.018051425 -0.036051955 0.024841286 -0.0014046569 -0.009460468
0.025903214 0.004868986 -0.0025815854 0.007863961 0.012386124 -0.006460469 0.029246578 0.0049937456
0.011136145 0.007752164 0.00124697 0.011296301 -0.014599663 -0.008012584 -0.006784122 -0.015553802
-0.0011559108 0.0028614763 -0.011156178 -0.010630654 -0.0065850588 -0.023789624 -0.0016475715 0.017886544
-0.018945765 0.010497003 0.013586717 0.0601106 0.007725056 0.037440635 0.0009384284 0.027164524
0.013315911 0.015631892 0.0066099586 0.0058623985 -0.023210717 -0.004157552 -0.015310185 0.010307203
0.03865776 0.0026181831 -0.022999106 0.004512038 0.0073450715 -0.005791455 0.009446516 -0.03234322
0.0040011844 -0.011563587 0.009773015 -0.014947248 0.010477813 0.018420266 -0.02219383 0.017224416
0.015665388 0.0095463125 0.028935283 0.019878214 -0.013641352 -0.014369798 -0.01649397 -0.030963738
-0.01627267 -0.0020388921 -0.0037659407 -0.005597701 -0.0125052845 0.008353763 0.0013838235 -0.015750905
-0.02522397 0.019941455 -0.021478882 0.004070121 0.008982557 0.007080736 0.030199502 -0.015022834
-0.012060743 -0.017586611 0.0050250897 -0.021898637 -0.014626096 0.021876145 0.022192158 0.023995485

network_body._body_endoder.seq_layers.0.bias f4 [128]
00000000: 0000 0000 0000 0000 0000 0000 0000 0000
00000010: 0000 0000 0000 0000 0000 0000 0000 0000
00000020: 0000 0000 0000 0000 0000 0000 0000 0000
00000030: 0000 0000 0000 0000 0000 0000 0000 0000
00000040: 0000 0000 0000 0000 0000 0000 0000 0000
00000050: 0000 0000 0000 0000 0000 0000 0000 0000
00000060: 0000 0000 0000 0000 0000 0000 0000 0000
00000070: 0000 0000 0000 0000 0000 0000 0000 0000
00000080: 0000 0000 0000 0000 0000 0000 0000 0000
00000090: 0000 0000 0000 0000 0000 0000 0000 0000
000000a0: 0000 0000 0000 0000 0000 0000 0000 0000
000000b0: 0000 0000 0000 0000 0000 0000 0000 0000
000000c0: 0000 0000 0000 0000 0000 0000 0000 0000
000000d0: 0000 0000 0000 0000 0000 0000 0000 0000
000000e0: 0000 0000 0000 0000 0000 0000 0000 0000
000000f0: 0000 0000 0000 0000 0000 0000 0000 0000
00000100: 0000 0000 0000 0000 0000 0000 0000 0000
00000110: 0000 0000 0000 0000 0000 0000 0000 0000
00000120: 0000 0000 0000 0000 0000 0000 0000 0000
00000130: 0000 0000 0000 0000 0000 0000 0000 0000
00000140: 0000 0000 0000 0000 0000 0000 0000 0000
00000150: 0000 0000 0000 0000 0000 0000 0000 0000
00000160: 0000 0000 0000 0000 0000 0000 0000 0000
00000170: 0000 0000 0000 0000 0000 0000 0000 0000
00000180: 0000 0000 0000 0000 0000 0000 0000 0000
00000190: 0000 0000 0000 0000 0000 0000 0000 0000
000001a0: 0000 0000 0000 0000 0000 0000 0000 0000
000001b0: 0000 0000 0000 0000 0000 0000 0000 0000
000001c0: 0000 0000 0000 0000 0000 0000 0000 0000
000001d0: 0000 0000 0000 0000 0000 0000 0000 0000
000001e0: 0000 0000 0000 0000 0000 0000 0000 0000
000001f0: 0000 0000 0000 0000 0000 0000 0000 0000
0.0 0.0 0.0 0.0 0.0 0.0 0.0 0.0
0.0 0.0 0.0 0.0 0.0 0.0 0.0 0.0
0.0 0.0 0.0 0.0 0.0 0.0 0.0 0.0
0.0 0.0 0.0 0.0 0.0 0.0 0.0 0.0
0.0 0.0 0.0 0.0 0.0 0.0 0.0 0.0
0.0 0.0 0.0 0.0 0.0 0.0 0.0 0.0
0.0 0.0 0.0 0.0 0.0 0.0 0.0 0.0
0.0 0.0 0.0 0.0 0.0 0.0 0.0 0.0
0.0 0.0 0.0 0.0 0.0 0.0 0.0 0.0
0.0 0.0 0.0 0.0 0.0 0.0 0.0 0.0
0.0 0.0 0.0 0.0 0.0 0.0 0.0 0.0
0.0 0.0 0.0 0.0 0.0 0.0 0.0 0.0
0.0 0.0 0.0 0.0 0.0 0.0 0.0 0.0
0.0 0.0 0.0 0.0 0.0 0.0 0.0 0.0
0.0 0.0 0.0 0.0 0.0 0.0 0.0 0.0
0.0 0.0 0.0 0.0 0.0 0.0 0.0 0.0

network_body._body_endoder.seq_layers.0.weight f4 [128, 6]
00000000: 3837 10be fc5b 81be d005 f83d 98ef a9be
00000010: 6768 69be a45b 8c3e 3c13 cd3e 66ac babe
00000020: 4ba9 603c d09a cf3d e020 f3be 22fe 91be
00000030: 25a4 2ebe 2021 0c3f 59f1 67be 5ab2 dcbc
00000040: b148 fbbc 5179 0c3f f3f6 0fbf e4e5 51be
00000050: 5333 893e 76f7 09be 598f e13c 8b11 c93e
00000060: ad2b cfbe 9422 8fbd ac10 c2bc cd0b 3e3e
00000070: e7bf 953e b3b8 9c3e 6c9f 41be 2879 85bf
00000080: d74f 7cbe 1c6e 9f3e fba9 92be 5c78 b1be
00000090: 2b60 34be 6e19 58bf 7a7b d13d d853 823e
000000a0: bef9 bbbe 78a1 9ebe c5d6 3ebe d737 f03e
000000b0: f1f1 51bc b18e 76bd c6fb 36bd 86e9 3e3f
000000c0: 32de 47bc 59f6 58be 8b9b e9be 1297 353e
000000d0: e9ab b03e f16d d23e a05d b4be b410 4f3f
000000e0: f558 d0bd 65ed a5be fbd5 ef3e 646f 03be
000000f0: aeae 213f 19eb bbbe de04 efbe 2dd5 193e
00000100: e4eb 88be 8bb5 2b3e 7fb1 1cbe 2314 fe3e
00000110: f645 c63e 6c12 a13e a45e 043f b964 383f
00000120: c3e7 083f efca eebe 584c c73e aec7 6c3d
00000130: 5e90 bfbe 30b3 08bd 03bf c93e 4e32 313d
00000140: 34fa 133f 2e89 5dbd e8c2 263e 0112 57bd
00000150: e0aa fa3e ad86 453e efa3 18bd 4f90 de3e
00000160: 1682 8abd 16b8 9dbd 727a 3d3d 051b 443f
00000170: e540 ddbd efb5 783e 1d69 51bf c1ba 813e
00000180: 727d d33e 16bb c4bd 9b74 8d3e 59f8 2c3f
00000190: 7e23 783e 3a02 d2be f962 163d 468c 56bf
000001a0: 2491 b23c 2d33 cb3e 559a 64bf 3d0b fc3b
000001b0: fb65 513f 90f3 e33d eaf7 6dbe 3112 edbe
000001c0: 81e3 10be 6efb 83be 20f0 25be 2081 cdbd
000001d0: af24 2c3f 1c6a 85be 1888 e6be cf98 733f
000001e0: 61bb 3dbe 482d 1bbf 8376 213e 0fd7 6a3e
000001f0: ae14 50be 218d 9bbe e72f d83d 1f19 bfbe
00000200: 6a40 7dbe e35b 893f 32ad 943e df46 003f
00000210: be37 04bc eccb 98bd 2f4c 07bf f3fb 14bf
00000220: 9098 82bf f2ff 8a3d 68e9 1b3f 486e 60bd
00000230: 8394 fcbe 61ca 0d3f a749 bebe b252 15bd
00000240: e483 e83c f8a1 583e 6243 9ebb b76d b5bd
00000250: 0dcc 6f3f 5cdc f13e cb04 133f 5168 1d3e
00000260: 69a0 3bbc 05b8 33be e339 6b3d 01c2 0cbe
00000270: a2ca 66be a785 203f a350 463e 5e14 e7bd
00000280: 9e6c 12be 5af3 cebe ad8c 5a3b ee0f c2be
00000290: e893 043f 2882 bdbe 091c 77be 9176 cfbd
000002a0: 4e39 9bbe dec3 65be 1d35 b7be 3405 ba3d
000002b0: 8438 9bbe 8357 33bd 8291 8b3d 6c84 1dbe
000002c0: f0d6 abbe f9c9 963d 689a 653f 6772 203e
000002d0: fc01 31be 6652 42be 82df 4bbf fde1 b63e
000002e0: 5874 c93e 2d05 c53d 0d0c ebbe 9e16 32bf
000002f0: 5791 20be 1586 4cbe a069 263f 540f 863e
00000300: 5557 053f ed50 cf3d b339 7fbf 479e f03e
00000310: 33d1 c33e 522e 633f 332b 583e 1721 ff3e
00000320: 75bd 943e ac93 06be 6d8e 953e afa8 883c
00000330: 1094 b03e 6519 843f 9124 8d3e 9c1f 5abf
00000340: e506 33be b755 6dbe 1be8 b53e 0c2c 083e
00000350: 5794 2dbd 39f6 963e 3344 66bf d919 d63e
00000360: 06d4 07bf 88ff 953d 963c af3d ac2d 72be
00000370: bcdb 44be 5bf8 38bf a8a4 093e 593a f83e
00000380: c894 ce3c a823 00be ceb1 7b3e 55d1 b4bc
00000390: 0db1 883f 0edd 2f3f 3ef8 97bf 646b 84be
000003a0: 806f 9f3e a25f a9be bf80 80be f5d4 00bf
000003b0: ce2a b43e 021b 803e ac46 163e 52d7 1c3f
000003c0: ee5c 94be f55e 9ebe 6a92 563f 2c67 fbbe
000003d0: 629d a2be 574f 003f 99b8 0f3f e8f3 023d
000003e0: 225c e63e 7e98 e93e e418 6b3c 4bc2 133e
000003f0: d28b 8dbe b785 313e 102c 48bf 5e8b c3be
-0.14083564 -0.2526549 0.12110484 -0.33190608 -0.22793733 0.27413666 0.40053737 -0.36459655
0.013712238 0.1013695 -0.4748602 -0.285142 -0.17054804 0.54738045 -0.2265066 -0.026940513
-0.03067431 0.54872614 -0.5623619 -0.20497853 0.2679697 -0.13473305 0.027534174 0.39271197
-0.4046301 -0.06989017 -0.02368959 0.18559189 0.29247972 0.30609664 -0.18908471 -1.0427599
-0.24639831 0.31138694 -0.2864531 -0.3466214 -0.1761481 -0.844138 0.102286294 0.25454593
-0.36713976 -0.30982566 -0.18636616 0.46917602 -0.012814031 -0.060194675 -0.044673704 0.7457508
-0.012198972 -0.21187724 -0.45626482 0.1773341 0.34506157 0.41099504 -0.3522768 0.8088486
-0.10173217 -0.3240768 0.46842942 -0.12835461 0.63157165 -0.36702803 -0.466834 0.15022726
-0.2674247 0.16768472 -0.15302084 0.49624738 0.3872525 0.31459367 0.5170691 0.7202869
0.5347864 -0.466392 0.38925433 0.057807617 -0.3741483 -0.03337401 0.39403543 0.043260865
0.57803655 -0.054085903 0.16285288 -0.052507404 0.48958492 0.19289656 -0.037265714 0.43469474
-0.06763093 -0.07701127 0.04625935 0.7660373 -0.10803393 0.24288152 -0.81801015 0.25337794
0.41306645 -0.09605996 0.27628025 0.6756645 0.24232289 -0.41017324 0.03671548 -0.8380779
0.021797724 0.39687482 -0.8929799 0.0076917694 0.81796235 0.1113044 -0.23239103 -0.4630294
-0.14149286 -0.25777763 -0.16204882 -0.10034394 0.67243475 -0.26057518 -0.45025706 0.9515504
-0.1852851 -0.6061597 0.15767865 0.22933601 -0.20320389 -0.3038111 0.10556012 -0.37323853
-0.24731603 1.0731167 0.29038388 0.5010814 -0.008069931 -0.0746077 -0.5285062 -0.58196944
-1.0202808 0.06787099 0.60903025 -0.054792672 -0.49332055 0.5538693 -0.37165567 -0.036455818
0.028383203 0.21155536 -0.00482981 -0.08858817 0.9367073 0.47238433 0.5742919 0.15371825
-0.011451819 -0.17550667 0.057428252 -0.13745882 -0.22538236 0.6270394 0.19366698 -0.112831816
-0.14299247 -0.40420038 0.003334801 -0.37902778 0.5178819 -0.37013364 -0.24131788 -0.101300366
-0.30317158 -0.22437999 -0.3578271 0.09083024 -0.30316556 -0.04378463 0.06814863 -0.15382546
-0.33562422 0.07362742 0.8968873 0.15668641 -0.17285913 -0.18976745 -0.7963792 0.3571929
0.39346576 0.09620128 -0.45907632 -0.6956576 -0.15680443 -0.19973023 0.6500492 0.2618357
0.52086383 0.10122857 -0.9969742 0.46995756 0.38245544 0.88742554 0.21110229 0.49829933
0.29050794 -0.1314227 0.29210225 0.016681997 0.34487963 1.032025 0.2756696 -0.8520448
-0.17483099 -0.23177229 0.35528645 0.13298053 -0.042377796 0.29484728 -0.89947814 0.41816595
-0.530579 0.07324129 0.08556478 -0.23650235 -0.19224447 -0.7225396 0.13441718 0.48482016
0.025217429 -0.12513602 0.24579546 -0.022072474 1.0679032 0.6869668 -1.1872633 -0.25863183
0.31139755 -0.33080775 -0.25098225 -0.50324947 0.35188907 0.25020605 0.14675397 0.6126605
-0.2897715 -0.3093182 0.8381716 -0.4910215 -0.317607 0.50121063 0.5614105 0.03197089
0.44992167 0.45624155 0.014349196 0.14429586 -0.27645737 0.17336164 -0.78192234 -0.38192266

network_body._body_endoder.seq_layers.2.bias f4 [128]
00000000: 0000 0000 0000 0000 0000 0000 0000 0000
00000010: 0000 0000 0000 0000 0000 0000 0000 0000
00000020: 0000 0000 0000 0000 0000 0000 0000 0000
00000030: 0000 0000 0000 0000 0000 0000 0000 0000
00000040: 0000 0000 0000 0000 0000 0000 0000 0000
00000050: 0000 0000 0000 0000 0000 0000 0000 0000
00000060: 0000 0000 0000 0000 0000 0000 0000 0000
00000070: 0000 0000 0000 0000 0000 0000 0000 0000
00000080: 0000 0000 0000 0000 0000 0000 0000 0000
00000090: 0000 0000 0000 0000 0000 0000 0000 0000
000000a0: 0000 0000 0000 0000 0000 0000 0000 0000
000000b0: 0000 0000 0000 0000 0000 0000 0000 0000
000000c0: 0000 0000 0000 0000 0000 0000 0000 0000
000000d0: 0000 0000 0000 0000 0000 0000 0000 0000
000000e0: 0000 0000 0000 0000 0000 0000 0000 0000
000000f0: 0000 0000 0000 0000 0000 0000 0000 0000
00000100: 0000 0000 0000 0000 0000 0000 0000 0000
00000110: 0000 0000 0000 0000 0000 0000 0000 0000
00000120: 0000 0000 0000 0000 0000 0000 0000 0000
00000130: 0000 0000 0000 0000 0000 0000 0000 0000
00000140: 0000 0000 0000 0000 0000 0000 0000 0000
00000150: 0000 0000 0000 0000 0000 0000 0000 0000
00000160: 0000 0000 0000 0000 0000 0000 0000 0000
00000170: 0000 0000 0000 0000 0000 0000 0000 0000
00000180: 0000 0000 0000 0000 0000 0000 0000 0000
00000190: 0000 0000 0000 0000 0000 0000 0000 0000
000001a0: 0000 0000 0000 0000 0000 0000 0000 0000
000001b0: 0000 0000 0000 0000 0000 0000 0000 0000
000001c0: 0000 0000 0000 0000 0000 0000 0000 0000
000001d0: 0000 0000 0000 0000 0000 0000 0000 0000
000001e0: 0000 0000 0000 0000 0000 0000 0000 0000
000001f0: 0000 0000 0000 0000 0000 0000 0000 0000
0.0 0.0 0.0 0.0 0.0 0.0 0.0 0.0
0.0 0.0 0.0 0.0 0.0 0.0 0.0 0.0
0.0 0.0 0.0 0.0 0.0 0.0 0.0 0.0
0.0 0.0 0.0 0.0 0.0 0.0 0.0 0.0
0.0 0.0 0.0 0.0 0.0 0.0 0.0 0.0
0.0 0.0 0.0 0.0 0.0 0.0 0.0 0.0
0.0 0.0 0.0 0.0 0.0 0.0 0.0 0.0
0.0 0.0 0.0 0.0 0.0 0.0 0.0 0.0
0.0 0.0 0.0 0.0 0.0 0.0 0.0 0.0
0.0 0.0 0.0 0.0 0.0 0.0 0.0 0.0
0.0 0.0 0.0 0.0 0.0 0.0 0.0 0.0
0.0 0.0 0.0 0.0 0.0 0.0 0.0 0.0
0.0 0.0 0.0 0.0 0.0 0.0 0.0 0.0
0.0 0.0 0.0 0.0 0.0 0.0 0.0 0.0
0.0 0.0 0.0 0.0 0.0 0.0 0.0 0.0
0.0 0.0 0.0 0.0 0.0 0.0 0.0 0.0

network_body._body_endoder.seq_layers.2.weight f4 [128, 128]
00000000: 582d 2bbe 44ab 78be 7f01 473d c102 d4bd
00000010: 2c50 8cbd 3859 79bd 8dbd 38be 208c aebc
00000020: c430 a0bd 9bec bf3d d471 63bc e110 3a3e
00000030: a2cc d63d b2c5 0cbe 725f 88bd 6734 04be
00000040: d5e0 1bbe ca3c 373d 8d1c 1fbe 8836 423e
00000050: 36b3 2bbd c82e be3d 37fa 583d c2c6 a3bb
00000060: b63d 173e 3c08 8fbd 6e96 a0bd ec0c d13d
00000070: c18b 98bd d891 bb3c 094a 0f3d 6848 f63d
00000080: 1aa4 c4bc 1c5e 1a3d c892 ab3d 3620 b0bc
00000090: 948c 9d3c 3485 9c3d f3ab bc3b 2956 713c
000000a0: 3705 953d 706a 1f3d 5f6a cd3b c68f ff3c
000000b0: 40aa 673c 09f8 69bd 2f38 a53c df3d 6fbd
000000c0: da61 7bbd 7b13 fcbc 19c4 b2bd 9d73 693d
000000d0: 033d b7bd 4fd9 f93d b884 d53c d8e2 b13d
000000e0: 11c5 ce3d 846e 2dbd 94f5 433d 626d 283b
000000f0: 1dac 063c f075 a9bd 067d 723d 91f0 2a3c
00000100: 07c2 9cbd ae8e 44bb 6573 00bd a429 c43c
00000110: df2c 84bc c72d fdbb 98df c83d 5487 a63c
00000120: 28d8 c73d 99c8 263c a269 a7bd 871a 02be
00000130: 4c63 683a 73df 55be be6e c7bc c98b d83d
00000140: e464 2c3d 7b2c b03d aebc 6a3c 84d7 56bd
00000150: 6c2f e2bd 7f84 ecbd 0222 db3d 04fb 08be
00000160: d35a 183e bb0c 8cbd 9f66 913d ecae d63c
00000170: 8492 cf3d 97eb 80be cb12 633d 3ffb 1f3d
00000180: 071c 333d ca72 3a3d 02e8 16bd c364 0d3e
00000190: 8f5e ca3d fcfc 133d 2288 23bd 754b 033e
000001a0: a875 d2bd 903d 1ebd c521 6dbb 9c54 113d
000001b0: 323e 183d e76d 9eba 1faa 653d 4999 9f3d
000001c0: c073 1fbe e6ca 033e 9a23 9ebc e8c4 42bd
000001d0: f936 69bc dac1 12be 0c47 90b6 c6a1 e43d
000001e0: c014 51bd 604d 86bd fda6 67bc da5f 22bd
000001f0: 369b 523d 5afc d3bc 0c6a 8d3d c160 be3c
00000200: f97c 7d3d 2c22 883d b7cd 3d3e 7cf9 083e
00000210: eabf 533d 4aa4 293e 0696 31bd e9ae ae3d
00000220: 731c 17bc cbcf f13c 7377 523d bd69 2cbd
00000230: 6765 f0bc 50c2 1dbd 1423 063d 30f9 85bd
00000240: 9d4f 0fbe 241e f7bd e542 e83d 86b7 3d3c
00000250: 63fd 00bd a684 0a3e e2fc 44bd c3f7 02be
00000260: 9bdd 813d e190 923c 9b6d a03d 884e 203d
00000270: 9d6b 76bd 12d8 6f3d 333e e4bc bc50 d2bc
00000280: be77 16bd 3794 8f3d eb11 63bc ba93 4e3d
00000290: 189d b63c 2809 25bd 225f 853d 5ff9 95bc
000002a0: db23 7a3a 5dad e33d c441 debd a82e 99bc
000002b0: 675b 0d3c 23ca a43b 4564 2cbd 9409 05be
000002c0: 2344 ad3d a7da cf3d df9d ccbd a55c 68bc
000002d0: 93ad 1a3e 3f3a 113e 5ef2 b9bc 44a3 e9bc
000002e0: e9f5 573d 12e7 f83c c64d 9c3c 8448 173d
000002f0: 05b9 693d f652 a93d aefc 85bc e648 bd3d
00000300: c60e 4abb f768 983d 69c7 52bd 1f1b 7f3c
00000310: 8b7d 4cbd 4559 3e3e cf64 eabc c5a5 00be
00000320: 68d4 b33c 46b4 5c3d e720 273e 89e9 17be
00000330: 38a5 acbd b606 143e 12ae bc3d 15ae 353e
00000340: 470c 343d 7566 33be 2808 1dbe e9ed 7d3d
00000350: 57ea f63c 9b48 e1bd ccdc b13d 7202 dfbb
00000360: b893 c6bd 3f69 8c3c 6cd7 92bc 5a89 fb3d
00000370: 423f b0bc 15a4 263d 5f1c 363e b6c3 3bbe
00000380: 695d 253e 0f74 90bd 25fb 46be e345 e2bc
00000390: 2ffc 8a3d caa0 b03d db21 9fbd 995f b33c
000003a0: 5518 59bd d71d b0bd 6033 9bbc 0b71 49bd
000003b0: 2832 08bd 3910 823b f6d1 a23d ba1a b5bb
000003c0: 6267 373e 66b9 cabc 9fc7 0bbe 2157 39bd
000003d0: c056 d33d 948f be3d 5be7 453c fb94 7fba
000003e0: adec 2abc 940b cdbc 1b6c 783d 9196 423d
000003f0: d959 36bd e8c0 e93d 6dac ed3d 9776 b4bd
-0.16716516 -0.24284083 0.04858541 -0.10352088 -0.06851229 -0.0608761 -0.18041058 -0.021307051
-0.07821801 0.09371301 -0.013882119 0.18170501 0.10488249 -0.1374729 -0.0665883 -0.12910615
-0.15222485 0.044735707 -0.15538235 0.18966115 -0.041918956 0.092862666 0.052973 -0.004998059
0.14769635 -0.069839925 -0.07841192 0.10207543 -0.07448531 0.022896692 0.034982715 0.12025529
-0.024004031 0.037687406 0.08377606 -0.021499734 0.019232072 0.07642594 0.0057578026 0.014730015
0.07276385 0.038919866 0.006268784 0.031196486 0.014139712 -0.05712131 0.020168392 -0.058408614
-0.061372615 -0.030771008 -0.08728809 0.056995023 -0.08947184 0.121996514 0.026064262 0.08685845
0.10096181 -0.042341724 0.047841623 0.0025699963 0.008219746 -0.08274448 0.059201263 0.010433332
-0.07654195 -0.002999227 -0.03136005 0.023945637 -0.016134677 -0.0077264044 0.09808272 0.020328201
0.097580254 0.010179662 -0.08174445 -0.12705432 0.0008864894 -0.2088602 -0.024344798 0.10573537
0.042088404 0.08602234 0.014327211 -0.052451625 -0.11044201 -0.11548709 0.10699846 -0.13377005
0.14878397 -0.06838366 0.070996515 0.026206456 0.101353675 -0.2517974 0.055437844 0.039057966
0.0437279 0.045519628 -0.036842354 0.13807969 0.09881317 0.036129937 -0.03992475 0.12821753
-0.102763474 -0.03863293 -0.0036183458 0.03548108 0.03716869 -0.0012087197 0.056070443 0.07792909
-0.15571499 0.12870368 -0.019304086 -0.047551066 -0.014234298 -0.14331761 -4.2998054e-06 0.11163668
-0.05104518 -0.06557727 -0.014138934 -0.039642192 0.051417552 -0.025877167 0.069049925 0.023239495
0.06188676 0.06647143 0.18535505 0.1337642 0.051696695 0.16566578 -0.043355964 0.08529455
-0.009223091 0.029518029 0.051383447 -0.042093027 -0.029345227 -0.03851539 0.032748297 -0.06541669
-0.13995214 -0.12066296 0.11340884 0.0115794 -0.03149165 0.13527164 -0.04809273 -0.12789826
0.06341096 0.01789135 0.078334056 0.039137393 -0.06016122 0.05855567 -0.02786169 -0.025673263
-0.03673529 0.070106916 -0.013859252 0.05043385 0.022291705 -0.040291935 0.06512286 -0.018307386
0.0009542086 0.11117051 -0.108523875 -0.018699005 0.008627749 0.0050289794 -0.042087812 -0.12991935
0.08460262 0.101491265 -0.09991049 -0.014182244 0.15105276 0.14182375 -0.022698577 -0.028520234
0.052724753 0.03038362 0.019080054 0.03693439 0.057061214 0.08267777 -0.016355839 0.0924242
-0.003083156 0.074418955 -0.051459704 0.015570431 -0.049924415 0.18588741 -0.028612522 -0.12563236
0.02195187 0.05388286 0.16321145 -0.1483518 -0.084299505 0.14455685 0.09212889 0.17742188
0.04395702 -0.17519553 -0.15335143 0.061994467 0.030141039 -0.110001765 0.08684692 -0.0068057114
-0.09696144 0.017140029 -0.017924987 0.12282057 -0.021514539 0.040683825 0.1778426 -0.18336377
0.16148914 -0.070533864 -0.19431742 -0.027621215 0.067863815 0.08624418 -0.07770129 0.02189617
-0.05300172 -0.085994415 -0.018945396 -0.04918007 -0.033250958 0.003969219 0.07950203 -0.0055268677
0.17910531 -0.024746608 -0.13650368 -0.04524911 0.103192806 0.09304729 0.012079085 -0.0009749678
-0.0104324045 -0.025029935 0.060649972 0.047506873 -0.04451928 0.11413747 0.11605153 -0.08811682
