results/ppo/Avoid Obstacle/Avoid Obstacle-76917.pt (torch, 436959 bytes, 30 tensors)

network_body._body_endoder.seq_layers.0.weight f4 [128, 6]
00000000: c517 a53c 7be4 d4bb e360 59bf a855 4a3e
00000010: 5b7f 16bf 4b67 b03c 7ff1 a2be 54e3 a9be
00000020: 8dfd 0fbf 64d7 923e 6345 aabd a0fe 2ebf
00000030: 276c d03e fc86 22bf 2b03 28bf b9b5 fa3e
00000040: de79 3d3f a39f 3b3e 01b1 473f 5722 c73e
00000050: 5574 b9bd e7a4 eabd 9375 21bd 1116 a6bf
00000060: a014 763e 2b5a 1e3f 46ee 983e 2922 563f
00000070: e3a6 a53e b643 243f 7c66 b23d 3520 09be
00000080: 4db4 973e 27c6 053f fdc4 613e 4687 e93d
00000090: bfde aabe bfcc 0b3f a413 9d3e 2289 d93e
000000a0: 6172 1cbf b682 093e 3ba2 1bbf a151 1e3f
000000b0: e209 efbe 0cd7 f1be a205 0c3c 3a7c e5be
000000c0: 3880 01bf 8180 043f 4635 a53e 0b96 0bbf
000000d0: 8131 3f3e abfe e3bd 3643 d1bc fb2e d03e
000000e0: 6290 653e 2d0c 4cbc 9f3d f23d b772 0f3f
000000f0: 668c ec3d da53 20be 1dad 163e d6a8 33be
00000100: be5b e6be 5b60 4b3d d646 843e 0a20 1cbf
00000110: d158 1ebe c5c5 c4be d66a 57be 0f7c bb3e
00000120: 5934 da3e db88 463f e47c c13e 4249 f13d
00000130: 6542 b6be b133 8ebe 68c5 82bd b529 973c
00000140: 8e49 ae3e d5b7 0e3e cd42 9cbc dec6 a53e
00000150: 6c95 c6be 0b8d 4cbf 4dc3 163d 395f cdbd
00000160: 212d 77be 3ce3 4b3e 31e2 ed3e a5fa 073f
00000170: fced cdbd 4449 f0be 3399 3a3f 135e 26be
00000180: 4657 ee3e 5042 90bf 4a02 c03d 25ca e7bb
00000190: 394c 043f ac17 78bf 9694 443f 9723 1bbf
000001a0: de61 7dbe 1f13 9abf a9a6 a43e 79cd 97bd
000001b0: 7439 d7be 4680 3dbc 97a1 383e 7a7c 05be
000001c0: ef72 1e3f 8d0d 9bbf d226 a4be 8b03 3ebd
000001d0: 19c7 05bf 4131 ec3e 40bb 0f3e 8218 ed3e
000001e0: e4c8 723f a944 183f e6dd c13d 6c78 7abd
000001f0: f855 8e3d d7b9 a53e 73cc 30bf a503 8cbe
00000200: d0db fa3d 99fd 4f3f 5723 3b3f 9b18 483e
00000210: ceea 8dbe 4775 0dbe 60f4 19bd 02af 03be
00000220: 4e98 d53d 0479 453e c7ac 1b3e ad19 d63d
00000230: 7314 563f 2334 cfbc 6841 9ebe 2943 1cbe
00000240: 4fa4 063e 510a 3abe af04 d13d 1b4e 20bf
00000250: 3324 533e 3441 283f 125e d53e 3ab2 983e
00000260: 68e9 5c3f 2355 c7bd e7cd c13e 1c68 d6be
00000270: 19a9 22bf 53e2 4ebc 3899 323e 1745 6dbe
00000280: f1fc a33c cd5c afbe 7b32 acbe 6f73 1c3f
00000290: 3da9 a53e ec0d bdbd f25f 5fbd 0ab1 993e
000002a0: 7dd9 ea3e 68bc 6d3f d877 363e 355a 863e
000002b0: ca35 b4bd 40bf 3b3f ee65 613e ec0e 2bbe
000002c0: 20c0 6ebe 0d76 bf3e 9816 243f 9e3a a83d
000002d0: 6bdb 9abe ef21 63bf 75e0 1c3e daf6 4a3e
000002e0: 2c66 47be 79d4 6a3f 2d47 dfbd 6449 33bf
000002f0: 3d33 a1be f876 7abe d20e 02be 9bca cbbe
00000300: e9b1 af3b 3d8f a6bd b110 6a3e 8a5e 93be
00000310: 360a 5e3d 9062 73bf f757 b63e 9e3c b93e
00000320: 8268 0b3b 719b 34bf 7bd8 253f 3b56 e33e
00000330: d1e6 00be 5eab b2be e80f 243e df66 a73e
00000340: 925b f13e fc1f 2c3f 1139 0b3f 3f0d 303d
00000350: f526 073f 9cfe f7be 6eed 48bf 3cd5 823f
00000360: 860c e3bc bd7b babe 8a0b 4c3e c804 1f3f
00000370: 7d98 8f3d e4a1 cebe bdf5 f5bd 5319 22bd
00000380: dd54 b33d 41b7 243f 0aaa 263e 66cf 34be
00000390: 189b 243e afd8 80be 1836 973e 3b79 183a
000003a0: edf7 bf3e abfb 463e d66e 0bbf 2c2a 4c3e
000003b0: 427c 90bf d1f6 4cbe 6476 913e fd12 4a3e
000003c0: bb9f 0d3d 0c67 3c3f f048 5abe 8b77 6cbd
000003d0: 7c5b 34bf 1665 82be 6e8a 14bf 1b67 d5bd
000003e0: 612f f93e 984a 50be 806b 74be d7cb 01be
000003f0: 59fc ff3e 7252 bebe 5ce7 4ebe f160 dabd
0.020152936 -0.0064969636 -0.8491346 0.19759238 -0.5878808 0.021533629 -0.31824872 -0.3318125
-0.5624626 0.28679955 -0.08314016 -0.68357277 0.40707514 -0.6348722 -0.65629834 0.48966768
0.7401408 0.18322615 0.7800446 0.38893387 -0.09055392 -0.11457234 -0.03941877 -1.2975484
0.24031305 0.61856335 0.29869288 0.83645874 0.32353887 0.6416582 0.087109536 -0.13391192
0.29629746 0.5225548 0.22047801 0.114027545 -0.33373067 0.5460929 0.30679047 0.42487437
-0.6111203 0.13428769 -0.6079442 0.61843306 -0.46687227 -0.4723438 0.008546265 -0.4482134
-0.5058627 0.5175858 0.32267207 -0.5452582 0.18671228 -0.111325584 -0.025544744 0.40660843
0.22418359 -0.012454075 0.118281595 0.56034416 0.115502164 -0.15656987 0.14714475 -0.17544875
-0.4499187 0.04965244 0.25835294 -0.6098639 -0.15463568 -0.38432136 -0.21036848 0.36618087
0.42618063 0.77552575 0.37790596 0.11781551 -0.3559753 -0.27773812 -0.063853085 0.018452505
0.34040493 0.13937314 -0.019074822 0.32378286 -0.38785875 -0.79902714 0.036807347 -0.10027928
-0.24138309 0.19910902 0.46461633 0.5311683 -0.100551575 -0.46930897 0.72890013 -0.16246824
0.4655096 -1.1270237 0.093754366 -0.007073658 0.51678807 -0.9691112 0.76789224 -0.6060118
-0.24744365 -1.2037085 0.32158402 -0.07412238 -0.4203602 -0.011566227 0.18030392 -0.13035765
0.61894125 -1.211351 -0.32060868 -0.046390098 -0.52256924 0.46131328 0.14036274 0.4630776
0.94837785 0.5947977 0.09466152 -0.06115 0.06949991 0.32368347 -0.69061965 -0.2734653
0.12248957 0.81246334 0.731008 0.19540636 -0.27718204 -0.13814269 -0.03758657 -0.12859729
0.104294404 0.19284445 0.15202628 0.10454116 0.83624953 -0.025293415 -0.30909276 -0.15259995
0.13148616 -0.18167998 0.102059714 -0.6261918 0.20619278 0.6572449 0.41673332 0.29823476
0.8629365 -0.097330354 0.37852404 -0.41876304 -0.6353927 -0.012627202 0.17441261 -0.23170887
0.020018073 -0.3425049 -0.33632264 0.6111364 0.3235568 -0.09231171 -0.05453486 0.30017883
0.45869055 0.9286561 0.17819154 0.26240698 -0.08799322 0.733387 0.2201154 -0.16704911
-0.23315477 0.37394753 0.64096975 0.08214305 -0.30245528 -0.88723654 0.15319999 0.19820729
-0.19472569 0.9173046 -0.109022476 -0.7003386 -0.31484404 -0.24459445 -0.12700966 -0.39803013
0.0053617847 -0.08132789 0.2285793 -0.28783065 0.054208957 -0.9507227 0.35613987 0.3617906
0.0021272008 -0.70549685 0.6478345 0.44401726 -0.1258805 -0.34896368 0.16021693 0.32695672
0.47140175 0.67236304 0.5438395 0.042981382 0.5279382 -0.4843644 -0.7848729 1.0221324
-0.027715933 -0.3642253 0.19926277 0.6211667 0.07011507 -0.40357888 -0.120097615 -0.039574932
0.08756421 0.64342123 0.16275802 -0.17657241 0.16074789 -0.25165316 0.29533458 0.00058164046
0.3749384 0.19431941 -0.54466 0.19937962 -1.128792 -0.20016028 0.28410637 0.19733806
0.03457616 0.7359474 -0.21316886 -0.057731193 -0.70452094 -0.25467747 -0.58023727 -0.104200564
0.4866896 -0.20340955 -0.23869133 -0.12675415 0.49997213 -0.37172276 -0.20205444 -0.10663021

network_body._body_endoder.seq_layers.0.bias f4 [128]
00000000: 0042 f83b 7fbc e7bb dbb4 403c 7028 eb3b
00000010: b177 6a3a 7f4f 2d3c 693c e53b 11a0 9cbb
00000020: f4d5 b6bb 74de 3e38 ae38 813c 8cac 5abb
00000030: 6973 9fbb fc30 393c 1c6b 48ba df1f 95bb
00000040: 5788 f1bb f7e5 1d3c bca6 993b 07cd efbb
00000050: c785 383c 5504 68bc c257 143c 31c6 bfbb
00000060: 5a62 333b 7efd 423c bc8d c4bb ef85 783c
00000070: 6895 1abc acbb ee3b 7b63 863c 332c 26bc
00000080: a248 6cb8 1c7c 243c 7b0b e13b 8aa3 19bc
00000090: e778 003c 9fc9 08bc f99d 313b 6ebd a03c
000000a0: efc3 113b 5ecd 0ebb 17e2 2e3b f307 463c
000000b0: c233 aebc c0f2 c33b 7a4a 5a3c a85d eaba
000000c0: 784e eabb 2648 a3bb 0084 a6bc 87cb 733c
000000d0: 8441 c5bb 72ae 8f3c f7fa 89bb 9098 09bc
000000e0: 16f5 3e3c 2d47 0bbc 0896 683c bdd1 12bb
000000f0: cd8e aabb c963 ed3b f0cc 99bc 1571 8c3b
00000100: 88e7 6ebc 2a5e ffbb 656e 003b 30ab 123c
00000110: e87e d53a 3a0c 0dbc c360 2cbb c5e0 b93b
00000120: b112 faba ff42 46bc 4ab2 67bc 74bc 673c
00000130: 7c62 1dbb 0ddb 1abc 2646 9a3b 47a6 5fba
00000140: 1848 283b bb92 8e3c c12e 913c 98eb 5cbc
00000150: ef11 783c fe1e 413c 278f 07bc 6ab8 db3b
00000160: b151 dc3b cf13 b63c ea20 77bb 5303 813b
00000170: 8882 c638 30a7 1a3a 6bf3 80bc 6e94 9e3b
00000180: 177e 1bbb 3bb3 51ba a70f 65bc 19ff ce3b
00000190: 18a8 6abc cd52 303c 964f 8abc 45f5 74bb
000001a0: c390 ff3a 76ba 43bc 3d38 533c 996c 653a
000001b0: 58d5 46bc a18a b83b 5c83 6a3c 507e 2abc
000001c0: 73ac 333c de8e 823b 4753 9dbb 131b b53b
000001d0: 20c5 1bbc ffcb 9bbc b9f2 7d3c 6722 68bc
000001e0: 97ce 4fbc 710e fabb 4efc 17bc 2464 a4bc
000001f0: 02e9 443c d24d 133c 31c5 27bb 1b58 263c
0.007576227 -0.007072031 0.011761869 0.0071764514 0.0008944227 0.010578035 0.006995727 -0.0047798236
-0.0055797044 4.5506706e-05 0.015774097 -0.0033367006 -0.004866053 0.011303183 -0.0007645355 -0.0045509185
-0.0073709893 0.009637347 0.0046890657 -0.0073181423 0.011262364 -0.014161189 0.009054126 -0.0058524837
0.0027371855 0.011901258 -0.0059983414 0.015168651 -0.009435035 0.007285556 0.016404858 -0.010142374
-5.633443e-05 0.010039356 0.0068678237 -0.00937737 0.007841325 -0.008348851 0.0027102216 0.019621577
0.002224203 -0.002178989 0.0026685053 0.012086856 -0.021264914 0.005979866 0.013323421 -0.0017880695
-0.0071504675 -0.004982966 -0.020326614 0.014880068 -0.006019773 0.017539237 -0.0042108255 -0.00839819
0.011655113 -0.008500856 0.0141959265 -0.0022402846 -0.0052050115 0.0072445613 -0.01877448 0.0042859414
-0.014581569 -0.0077932077 0.001959705 0.008951947 0.0016288431 -0.008608872 -0.0026302792 0.0056725466
-0.0019079057 -0.012100934 -0.0141416285 0.014144052 -0.0024015 -0.00945164 0.0047080694 -0.0008531552
0.0025677737 0.01740395 0.01772249 -0.013483904 0.015140994 0.011787174 -0.008273876 0.0067053335
0.0067236056 0.022226242 -0.0037708827 0.003937164 9.465689e-05 0.00058995467 -0.01574107 0.0048394715
-0.0023726278 -0.00079994247 -0.013980783 0.006317031 -0.014322303 0.010761929 -0.016883653 -0.0037377637
0.0019498098 -0.011946311 0.012891826 0.0008751839 -0.012135826 0.00563176 0.014313545 -0.010406092
0.010966408 0.0039843163 -0.004801187 0.005526909 -0.0095074475 -0.019018171 0.015499764 -0.014168358
-0.012683532 -0.007631116 -0.009276463 -0.020067282 0.012018444 0.008990722 -0.0025599713 0.010152842

network_body._body_endoder.seq_layers.2.weight f4 [128, 128]
00000000: 3c2a 103d ef12 8cbd d8e1 cb3c 0bb3 85bd
00000010: 290a 9039 7705 21be 08ca 703d 300d d8bd
00000020: 5d27 64be 127f 78bd 7fbe 34bd 6740 1abd
00000030: c94a ee3c aecd 803c cd7e e9bc 4dea 8fbd
00000040: 54e8 463d 5957 803d ce51 6cbc 6bf2 863c
00000050: b5e4 b9bd 2b43 66bc c88f 4a3b 6894 03be
00000060: b230 9abd 5ba8 a83b fd58 8a3d 533b b23d
00000070: 9962 753d 12bf d4bd 2cb4 61bc 3d32 debd
00000080: 3a3d 3f3b 1e8f 40ba 7f1f 41bd b1ce 8dbc
00000090: 7e6c b93d 8ecd 59bd 2f1e 8bbd 40ba 153d
000000a0: 2652 cbbd bb29 f13c 7763 ae3d ba70 ba3c
000000b0: f7fe d93d 88b8 0a3e 4e19 f33d 078f fb3b
000000c0: d4e0 35bd 1c46 2dbc 4e2e 8b3d f3b7 913d
000000d0: 45bc 7cbd 10ed c13b de78 82bc ef5a c2bc
000000e0: f2a5 483d bd24 e13c 6d38 45bb 4729 dc3c
000000f0: d766 53bd adb8 103d 84f3 03bc 8a3d c6bd
00000100: f027 cabd e286 8fbb d0d7 12be 65f2 5abe
00000110: 3e52 be3d f637 c1bd 046f d33d 4314 93bb
00000120: 7549 09be 2efb d83b 45bd bfbc 8eae 813d
00000130: f810 38bd ac91 4cbc bcfb d7bd d793 55bd
00000140: 0d14 eebc 32c8 e0bc 15a8 173e e16f ff3d
00000150: 1eb8 003c 2b0a 903d 2ac7 353b acd9 d13c
00000160: 616f a03d ef7d 643d 51ef a73d 7350 27bd
00000170: 6fbb 263d 8972 a2bd b40e b6bd 653b 9fbd
00000180: 8780 b73d c2a3 a7bd a009 cc3d f8c1 0c3d
00000190: 6945 e33d 188b c73d 8e82 183e 8825 41be
000001a0: 6720 51bd 7801 debd cdf8 0ebe 2277 29bd
000001b0: 2260 06bc a483 013e 924b 03be 0f17 aabd
000001c0: 0302 b53d e3c9 543d 62c3 cc3b 0bc8 8ebd
000001d0: 6738 743c 9473 293e c1d8 f83d ad20 8d3d
000001e0: 033a fd3d 9c3f bbbd 4f49 9bbd c621 353e
000001f0: b5b4 44be ad92 24bd 6d7c 133d 7e13 30bd
00000200: b46c 033e 376a 403e 7262 56bd 0022 5cbd
00000210: 26ad edbd e047 c23c bedb d03d 16bf 0c3e
00000220: f34d 173e 7e9d 04be ce67 3ebc d1fd 7dbd
00000230: ed9f b13c 1dc7 063e 27d1 9c3d 377d 5d3d
00000240: f582 68bd c8db ddbc f6a1 50be b0fc 3abd
00000250: 18b4 0dbe 86df 1b3d 9e90 9cbd d0c5 39be
00000260: 14d8 003e 0d11 2dbe 6266 ea3d 96bf 9f3b
00000270: f332 f13c 1382 723d e025 62bc 392b 8b3d
00000280: 11d7 05be df58 053e 384a 66bc 5d0d 9a3c
00000290: 9373 2d3e 323b 803d 0927 a4bd 0370 8d3d
000002a0: 9edb 67bd 5f0c 0cbe 689d 5e3c bd44 59bd
000002b0: 7996 81be f8d7 203d 56e8 12bd e121 88bd
000002c0: fae4 293c 4f68 bb3d b36f 673d bbce 333d
000002d0: 1213 8a3c 7a2e 333e acc5 49be 6802 14bd
000002e0: 6644 50bd 2da5 ae3c 52ab 613d a6ef 86bc
000002f0: 9a34 f23d 23c3 9fbc 10c0 05be a779 7fbc
00000300: f16f 0a3c 6e71 ecbc 3d7d 6c3c 6b00 f93b
00000310: cd3d 26bd 1060 e6bd 6a34 eebc 456b 453e
00000320: 024b b6bc 7fa5 203d b0a8 833c 97f1 943c
00000330: 0768 ecbc 4014 83bd 7166 8ebb f7f9 5f3d
00000340: 6022 b8bd eba9 423e a74e 33bd b8ea 6ebd
00000350: 34ca 853c 05bd 5b3d 864b afbb 2c42 b83c
00000360: c13b 2fbd 11ab 46bd ef8c 6a3d 2f75 1abd
00000370: 7643 cfbc 7b94 773d dee3 17be 7c68 85bc
00000380: 00eb 323d f584 283e 5f30 35bd 354c 323e
00000390: 9e74 3e3d 95f0 cc3d 012c bc3c bc7d 443d
000003a0: fbc5 c8bd fc22 f939 1c6d 5cbd ab04 093c
000003b0: 39b1 773d fa0d 7e3e da47 f6bc 2b72 443e
000003c0: 6f05 f1bd fc86 7cbd 55f3 743d 4527 f33d
000003d0: 94af 4f3b 8a06 213d 1f81 033e d880 19be
000003e0: 7844 6dbc 8c03 953c c6ef 12bd ed8e e9bd
000003f0: 4a7c fdbc 5ed3 05bd f16e 01bd a22c aebd
0.035196528 -0.06839549 0.024887964 -0.0652829 0.0002747339 -0.15724741 0.058786422 -0.1054939
-0.22280641 -0.06066806 -0.044126984 -0.037659075 0.029088395 0.015723076 -0.028502846 -0.07027111
0.04856141 0.0626666 -0.014423801 0.016473016 -0.090768255 -0.0140541 0.0030908454 -0.12849581
-0.07528819 0.0051470227 0.067552544 0.087027214 0.059908483 -0.10388006 -0.0137758665 -0.10849426
0.002918078 -0.0007345545 -0.047149178 -0.017310472 0.09053896 -0.053174548 -0.067928664 0.036554575
-0.09927778 0.029438844 0.08515065 0.02275883 0.10644334 0.13546956 0.11870061 0.0076769623
-0.044403866 -0.010575797 0.06795941 0.07115164 -0.061702985 0.0059181526 -0.015926775 -0.023725001
0.048986383 0.027483338 -0.0030093447 0.026875151 -0.051611748 0.03533237 -0.008053664 -0.096797064
-0.09870899 -0.004380093 -0.14340138 -0.21381529 0.0929303 -0.09434502 0.10323909 -0.0044884994
-0.13406928 0.00662174 -0.02340568 0.06332122 -0.044938058 -0.012485903 -0.105460614 -0.052142944
-0.029062295 -0.02743921 0.14810212 0.12472511 0.007856397 0.070331894 0.002773712 0.02561649
0.07833744 0.055784162 0.08199943 -0.040848207 0.040706094 -0.07932002 -0.08889523 -0.077750005
0.089600615 -0.08185531 0.09962773 0.03436467 0.11097223 0.09743327 0.14893553 -0.18861973
-0.051056292 -0.10840124 -0.13962097 -0.04137338 -0.008201631 0.12647873 -0.12821797 -0.08305179
0.08838274 0.051950347 0.0062488774 -0.06971749 0.0149060255 0.16547996 0.121507175 0.06890998
0.123645805 -0.09142992 -0.07582342 0.17688665 -0.1920956 -0.040178943 0.036007334 -0.04298734
0.12834436 0.18790518 -0.05233998 -0.053743362 -0.11605291 0.023715913 0.101981625 0.13744769
0.14775829 -0.12950704 -0.011621429 -0.062009636 0.021682704 0.13161893 0.0765708 0.054074492
-0.056765515 -0.027082339 -0.20374283 -0.045651138 -0.13838232 0.038054965 -0.07644771 -0.18141866
0.12582427 -0.16901036 0.11445309 0.0048751337 0.02944324 0.05920608 -0.013802975 0.067953534
-0.13070323 0.13022183 -0.014055781 0.0188052 0.1693862 0.062612906 -0.08015258 0.0690613
-0.056605928 -0.13676594 0.013587333 -0.05304407 -0.25310114 0.039268464 -0.035866104 -0.06647087
0.010369534 0.09150755 0.05650301 0.043898325 0.016854797 0.17498198 -0.19704312 -0.036135107
-0.05084648 0.021318996 0.055095024 -0.016471695 0.11826439 -0.019502228 -0.13061547 -0.015592969
0.0084495405 -0.028862681 0.014434156 0.007598927 -0.04058628 -0.11248791 -0.029077727 0.19279201
-0.022252563 0.03922033 0.016071647 0.018181605 -0.028858198 -0.06400347 -0.004345708 0.054681744
-0.089909315 0.19010131 -0.04377618 -0.058329314 0.01633177 0.05364706 -0.0053495793 0.02249249
-0.042781595 -0.048502985 0.05726331 -0.03770941 -0.025300723 0.060444336 -0.14833018 -0.016285174
0.043681145 0.16456969 -0.044235583 0.17411883 0.046497934 0.10006825 0.022970201 0.047971472
-0.09803387 0.00047519046 -0.053814992 0.008362929 0.060471747 0.24810019 -0.030063558 0.19184177
-0.117686145 -0.06165217 0.059802372 0.118727244 0.0031690346 0.039312877 0.12842225 -0.14990556
-0.014481656 0.018190168 -0.035873197 -0.11404214 -0.030943055 -0.03267228 -0.031599943 -0.08504607

network_body._body_endoder.seq_layers.2.bias f4 [128]
00000000: 5647 76bc d1f8 53bc 6000 e93b 2ddc f13b
00000010: 97f0 d13b de14 43bc c8f2 a23b 471c 30b9
00000020: 49f4 3b39 c4cc 5fbc 122d e83b 56ee 143c
00000030: 426b 1abc bbac 2fbc b6d8 dbbb c088 3abc
00000040: 3b9d 5f3b 1e2d 303c 5e2c ea3b 9e1b 64bc
00000050: 29af c3ba 984d ee3b c5e4 083c f44f 453c
00000060: f98d e9bb 44c7 de3b 1878 7c3c bc6e 0dbc
00000070: 441f a83b 501f a3bb eba8 d8bb 17bb 3fbc
00000080: 788d 14bc 05dc 5abc 1573 0d3c b7f9 733a
00000090: 5096 053c dd3a 773b 81ae ff3b 1298 56bb
000000a0: c96f 3f3c 8fef 8b3c 4c6c cf3b 5a52 6c3c
000000b0: 36d4 813c 4f92 1dbc 3e60 e93b 6b34 663b
000000c0: 60dd c5bb fd2b 61bb 935d a3bb 83d6 d7bb
000000d0: f4dc dd3a 7c25 abbb a6de fbbb d466 62bb
000000e0: a4f3 11bc 915c 8dbb ce06 e1bb c464 db3b
000000f0: 4fdc 053c 22fa 3f3c 09f9 47bc 1fc4 0fbc
00000100: 926d 83bc 92d2 ee3a 735c 44bc 9aa7 39bc
00000110: 011e cfbb 016f 0fbb 9df7 ab3b 63b4 6d3c
00000120: 8363 54bc 092e ac3b 4d1b c8bb 1c37 17bc
00000130: 7736 bebb 7c36 1fbc 36ad 103c ff90 ad3b
00000140: e662 233c d122 823b 477e 1abc f5c4 643a
00000150: 032a 15bc ab56 deba ae0f bb3b 3101 e5bb
00000160: 4a49 0a3c 5140 413c b936 23bc 0097 f93b
00000170: bc3b 9f3c dd92 113c 555c f9bb b809 31bc
00000180: 8d7e 073c 0f57 283c f442 063c e401 9fbc
00000190: 394f 4e3c 9683 0e3c 6f32 c2bb a836 0d3c
000001a0: 931a 0b3c a364 bf3b 8d6c a3bb 6293 c83b
000001b0: 2433 cc3b b9f7 18bc ddb5 dd3b dbfd 9ebb
000001c0: 735b 7f3c 4c7f 053c 760f 61bc a242 4b3c
000001d0: ec8b d13b 7702 133c eaf4 2b3b 5d4b 5ebc
000001e0: fd15 1fbc 6087 ac3b 7a53 793c 7b98 8fbc
000001f0: 17c1 c93b d953 c6bb ae5f 32bc 81ae 823b
-0.015031656 -0.01293774 0.0071106404 0.0073809833 0.0064068544 -0.011906831 0.0049727894 -0.00016795202
0.00017924713 -0.01365966 0.007085451 0.009090027 -0.009424986 -0.0107223345 -0.0067091836 -0.011385143
0.0034120816 0.010752944 0.0071464023 -0.0139226 -0.0014929521 0.0072724335 0.008355324 0.012042988
-0.00712752 0.0067986567 0.015409492 -0.008632358 0.0051306803 -0.004978098 -0.0066119335 -0.011702321
-0.009066932 -0.013358121 0.008633395 0.0009306925 0.008153513 0.0037724294 0.007802785 -0.003274445
0.0116843665 0.017082004 0.0063300487 0.014423931 0.01584826 -0.009617402 0.0071220687 0.0035126458
-0.006038353 -0.0034358494 -0.00498552 -0.006586851 0.0016926811 -0.0052229743 -0.007686454 -0.0034546154
-0.008908186 -0.0043140133 -0.0068672663 0.006695362 0.008170201 0.011717351 -0.012205371 -0.008774786
-0.016043458 0.0018220714 -0.011984932 -0.011331463 -0.0063207154 -0.0021886232 0.0052480237 0.01450834
-0.012963179 0.0052545113 -0.00610677 -0.009229448 -0.0058048326 -0.00971758 0.008830359 0.005296826
0.00997231 0.0039714356 -0.009429521 0.00087268587 -0.009104255 -0.0016963085 0.0057086563 -0.0069886674
0.008440325 0.011795119 -0.009961777 0.0076168776 0.019437663 0.008885113 -0.007609884 -0.01080554
0.008269918 0.010274663 0.008194674 -0.019410081 0.01259213 0.008698365 -0.0059264223 0.008618988
0.0084902225 0.0058408543 -0.0049873055 0.006121085 0.0062316824 -0.009336405 0.0067660646 -0.0048520393
0.015585768 0.008148026 -0.013736596 0.012406023 0.006394854 0.008972756 0.002623851 -0.013567773
-0.009709832 0.0052651614 0.015217656 -0.017528763 0.0061570513 -0.006052476 -0.01088707 0.0039880876

action_model._continuous_distribution.mu.weight f4 [1, 128]
00000000: 706e 03bd cf6b f7bc 4239 533d fe12 ee3c
00000010: 3409 47bc 5dd2 91bc 148e b83b e99c 29bd
00000020: 0732 92bc 46f2 a7bb 2c52 dd3b c0d3 863c
00000030: 33f4 333c a12b ceba 9420 aebc b1d8 dbba
00000040: 0f07 403c 4c8a 4f3c 1233 a03c 2ff7 4bbd
00000050: 042e 2fbd 969c 253c d715 833c 8824 8bbc
00000060: 9d7e a3bc bd68 9d3c e738 bb3c 0d81 94bc
00000070: 5957 363c 0b69 27bd 8c22 f6bb 60ab 22bc
00000080: 2c39 c5bb 3ec5 3dbd c5a2 973c 7ba1 81bc
00000090: 400e 0b3d 0671 473b 7e66 2fba 70d0 5dbc
000000a0: 3fb9 8f3c 3413 3a3c 9d21 7d3c 4275 473d
000000b0: de9c 663d f293 6bb9 293f 1b3d e644 743b
000000c0: 179c 79bc 668e 21bd df9c 29bd c4eb 2bbc
000000d0: d88c 8c3c 6b1a 82bc 5754 6abb 9cfa bbbc
000000e0: 34c2 f9bb 2ddd 52bb 8a4d 50bc 5fe6 fc3c
000000f0: 8e03 063a 3294 413c dcf3 29bc 1c72 37bc
00000100: 275d 9bbc 6ecb aa3b 3501 0abc 83f7 4dbc
00000110: 31e1 c8bc 4e95 323c 7f92 db3b 4fff 653d
00000120: 0649 60bb ac2e ee3c bcd7 fcbc c913 2a3b
00000130: 6969 62bc 86d7 e2bb 85e4 583c 11ee ac3b
00000140: 0c4f 583c a55a 503a 8238 e7bb 04b5 8bbc
00000150: 6452 4cbb a997 40bd 695a 683c 5124 9fbc
00000160: 25d1 853b e662 c23c f633 0dbb d855 db3c
00000170: cb85 003d 86a5 603c be60 98bc ec8e 0ebd
00000180: 6c40 1b3d 94f0 cc3c a17b 613b ad40 d8bb
00000190: a7ab ab3c c172 0c3d d954 acbc ce01 a83c
000001a0: 84f5 89bc 8980 723a d32f a1bc 04d2 313a
000001b0: 3b34 ef3b e48f 3539 6a52 673b a92c f2bc
000001c0: d903 b63b e8f8 a83c 2fd6 ccbc 286e 233d
000001d0: bac0 e73c 2c88 f23c cf67 e63b 5760 dcbc
000001e0: 8348 9fbb da9d 5fbb 1c71 623c 5a1b 42bc
000001f0: 5087 1d3c 0f76 40bc a379 a73a 0eed 9d3c
-0.032087743 -0.030202774 0.051568277 0.02906179 -0.01214819 -0.017800504 0.0056321714 -0.041409407
-0.01784612 -0.005125317 0.0067541804 0.016458392 0.010983515 -0.0015729555 -0.021255769 -0.0016772953
0.011720433 0.01266725 0.019555602 -0.04979628 -0.042768493 0.010108134 0.016001625 -0.016985193
-0.019957835 0.019214982 0.022854282 -0.018127942 0.011129224 -0.04087166 -0.0075114425 -0.009928554
-0.0060187783 -0.046330683 0.018510232 -0.01582407 0.033949137 0.0030432357 -0.0006690993 -0.013538465
0.017544387 0.011357117 0.015449909 0.04869581 0.056301944 -0.0002246646 0.03790203 0.0037272512
-0.015234969 -0.039442442 -0.04140937 -0.010493223 0.017157003 -0.015881738 -0.0035755837 -0.022946648
-0.007622028 -0.0032175288 -0.012713799 0.030871568 0.0005112224 0.011815118 -0.010373082 -0.011196639
-0.018965317 0.005212239 -0.008423139 -0.012571218 -0.024521442 0.010899855 0.0067008133 0.056151684
-0.0034223213 0.02907499 -0.030864589 0.0025951734 -0.013819077 -0.006922665 0.013238077 0.005277403
0.01320244 0.00079480774 -0.007056297 -0.017054088 -0.0031177038 -0.047019634 0.014181712 -0.019426497
0.00408377 0.0237288 -0.0021545864 0.026774332 0.031377595 0.013711339 -0.018600818 -0.03480427
0.037903234 0.02501706 0.0034405964 -0.006599507 0.020955874 0.034289125 -0.021036552 0.020508673
-0.016840704 0.00092507206 -0.019676125 0.0006783309 0.0072999275 0.00017315109 0.0035296925 -0.029562311
0.005554658 0.0206265 -0.025004474 0.039899975 0.028290141 0.029605947 0.007031418 -0.026901407
-0.004860939 -0.0034121186 0.013820913 -0.011847341 0.009614781 -0.011746897 0.001277734 0.019278076

exp_avg f4 [128, 6]
00000000: 38a9 1639 0000 0000 6742 c838 0000 0000
00000010: 3b09 1327 6d70 ba37 0f43 4737 0000 0000
00000020: ecef 5f39 0000 0000 9723 b028 9c8e 09b9
00000030: cfb5 3eba 0000 0000 1798 1aba 0000 0000
00000040: f4cf a326 a0d2 08ba 3908 8db8 0000 0000
00000050: bd84 aab8 0000 0000 9164 b8a7 8e94 8eb8
00000060: b0b6 b638 0000 0000 ebe5 8fb8 0000 0000
00000070: 4ca4 4ba8 b6c7 0338 1a9a 3c38 0000 0000
00000080: 2967 16b8 0000 0000 a874 0f28 5a5e 7f39
00000090: 0141 213a 0000 0000 2990 9d39 0000 0000
000000a0: 3353 96a8 4845 a438 ce58 b138 0000 0000
000000b0: 464a fd38 0000 0000 d907 be27 a007 dab8
000000c0: ed24 1ab8 0000 0000 bc01 b2b7 0000 0000
000000d0: a898 76a7 4073 c7b7 d893 aa37 0000 0000
000000e0: 7a74 afb8 0000 0000 1af8 b3a7 1e67 d5b8
000000f0: b26c 8a39 0000 0000 28ae 3d39 0000 0000
00000100: 2927 b727 8292 6db8 f8e8 9eb9 0000 0000
00000110: f518 10b9 0000 0000 e07b 8427 f8ca 0db8
00000120: d2c0 37b9 0000 0000 a834 c4b8 0000 0000
00000130: 19ed e027 8bf2 e838 2536 9b3a 0000 0000
00000140: fef2 5a3a 0000 0000 bf3b d527 8d0e 8139
00000150: b437 3a38 0000 0000 f077 70b7 0000 0000
00000160: bc12 d7a7 1c26 2eb7 d191 eeba 0000 0000
00000170: 2423 afba 0000 0000 be1a b7a7 1173 eab9
00000180: 0022 1d36 0000 0000 9a5f 5f39 0000 0000
00000190: 958f 9527 c793 67b9 b79b dfba 0000 0000
000001a0: 9284 a7ba 0000 0000 0de7 88a7 9553 04ba
000001b0: ec1e 2a3a 0000 0000 dc61 ac39 0000 0000
000001c0: 37a7 97a6 10aa 2fb9 faea 2238 0000 0000
000001d0: 9e53 1a38 0000 0000 e865 4da7 5427 0838
000001e0: 4858 51b8 0000 0000 9aa2 a7b8 0000 0000
000001f0: ae3f 7c28 6894 c937 df82 4838 0000 0000
00000200: 7677 3f38 0000 0000 393e 4c27 ca25 5437
00000210: f7a9 a538 0000 0000 85b0 1338 0000 0000
00000220: c138 e727 51ac 2eb7 eee6 90b9 0000 0000
00000230: d549 03b9 0000 0000 2a85 a3a8 be5a b6b9
00000240: e213 963a 0000 0000 7078 433a 0000 0000
00000250: 057d 9d28 985e fa39 5359 8839 0000 0000
00000260: 1c7a 0a39 0000 0000 4972 1327 9454 cab8
00000270: af2c 8d37 0000 0000 08ab cd37 0000 0000
00000280: 5c4e 9226 b465 a1b8 6573 543a 0000 0000
00000290: b566 ed39 0000 0000 228c 6128 9208 aa39
000002a0: 4562 19ba 0000 0000 ca71 0fba 0000 0000
000002b0: ea75 5ca8 4d55 5138 aa27 21ba 0000 0000
000002c0: acda 02ba 0000 0000 f3e4 9f26 348a f3b8
000002d0: 0097 583a 0000 0000 2580 f939 0000 0000
000002e0: 2865 f927 d5a5 c139 89dd 4bb8 0000 0000
000002f0: 684a 57b6 0000 0000 1225 3d27 2425 0cb6
00000300: 638a 6a39 0000 0000 76af f338 0000 0000
00000310: 003b 5b27 70e7 f337 7bd9 b6b8 0000 0000
00000320: 0f80 8fb8 0000 0000 41c6 d428 8696 34b9
00000330: 579f e838 0000 0000 fc4c ae38 0000 0000
00000340: 5c65 7828 002c 2836 1ea6 e5b9 0000 0000
00000350: 3487 b4b9 0000 0000 a032 d3a8 165d 6b38
00000360: 8d09 5f39 0000 0000 b979 2639 0000 0000
00000370: 9aa1 b227 2a51 3238 30ad e139 0000 0000
00000380: 38f7 9d39 0000 0000 7206 d1a5 fc61 5db8
00000390: 341f 413a 0000 0000 b729 1a3a 0000 0000
000003a0: 245c 9826 c046 3637 0c12 2038 0000 0000
000003b0: 8506 4237 0000 0000 9107 24a6 5858 e0b5
000003c0: 17f5 0cb9 0000 0000 e91f d3b8 0000 0000
000003d0: dd0c 16a6 400c 7ab7 bcb1 3b39 0000 0000
000003e0: 120e 1238 0000 0000 1f8a 8ba8 1864 fb37
000003f0: efb9 c2ba 0000 0000 ae35 a2ba 0000 0000
0.00014368154 0.0 9.5491116e-05 0.0 2.0405352e-15 2.222528e-05 1.1876938e-05 0.0
0.00021356315 0.0 1.955536e-14 -0.00013118464 -0.00072750164 0.0 -0.0005897297 0.0
1.1366763e-15 -0.0005219374 -6.7249355e-05 0.0 -8.130956e-05 0.0 -5.1179293e-15 -6.798758e-05
8.7124645e-05 0.0 -6.861597e-05 0.0 -1.130439e-14 3.141883e-05 4.496621e-05 0.0
-3.5858862e-05 0.0 7.96339e-15 0.00024353844 0.0006151349 0.0 0.0003005278 0.0
-1.6689427e-14 7.833034e-05 8.456559e-05 0.0 0.000120778146 0.0 5.27441e-15 -0.0001039647
-3.675085e-05 0.0 -2.1220061e-05 0.0 -3.4222113e-15 -2.3776316e-05 2.0334424e-05 0.0
-8.366346e-05 0.0 -4.9951473e-15 -0.000101758385 0.00026402395 0.0 0.00018089323 0.0
5.083516e-15 -5.664165e-05 -0.00030309684 0.0 -0.00013742207 0.0 3.6771665e-15 -3.380605e-05
-0.00017524071 0.0 -9.355816e-05 0.0 6.242955e-15 0.00011107799 0.0011841698 0.0
0.00083522487 0.0 5.9184153e-15 0.00024615639 4.4397733e-05 0.0 -1.433304e-05 0.0
-5.96948e-15 -1.0380081e-05 -0.0018201416 0.0 -0.0013361913 0.0 -5.0821697e-15 -0.0004471769
2.3414614e-06 0.0 0.00021302552 0.0 4.151148e-15 -0.00022084928 -0.0017059956 0.0
-0.0012780598 0.0 -3.799809e-15 -0.0005047855 0.0006489593 0.0 0.00032879307 0.0
-1.0523053e-15 -0.00016752654 3.884265e-05 0.0 3.6794336e-05 0.0 -2.8504708e-15 3.2461554e-05
-4.99117e-05 0.0 -7.9934674e-05 0.0 1.40026184e-14 2.4030174e-05 4.78056e-05 0.0
4.5649205e-05 0.0 2.8344418e-15 1.2644983e-05 7.8994715e-05 0.0 3.5211928e-05 0.0
6.4176912e-15 -1.0411329e-05 -0.00027637876 0.0 -0.00012520638 0.0 -1.8154386e-14 -0.00034781353
0.0011450017 0.0 0.0007456606 0.0 1.748472e-14 0.00047754194 0.00026006493 0.0
0.00013206195 0.0 2.0462302e-15 -9.6478645e-05 1.6829317e-05 0.0 2.4517547e-05 0.0
1.0152024e-15 -7.696022e-05 0.00081043533 0.0 0.00045280685 0.0 1.25203955e-14 0.00032431312
-0.000585113 0.0 -0.0005471973 0.0 -1.2238022e-14 4.9908926e-05 -0.0006147573 0.0
-0.0004991691 0.0 1.1094898e-15 -0.00011612885 0.0008262247 0.0 0.00047588456 0.0
6.9221057e-15 0.00036935383 -4.8605292e-05 0.0 -3.2080807e-06 0.0 2.6249115e-15 -2.0883244e-06
0.00022367532 0.0 0.00011619825 0.0 3.042434e-15 2.9075629e-05 -8.718945e-05 0.0
-6.842624e-05 0.0 2.3622707e-14 -0.00017222212 0.000110923014 0.0 8.311306e-05 0.0
1.3788744e-14 2.5059562e-06 -0.0004380205 0.0 -0.0003443301 0.0 -2.3447661e-14 5.611506e-05
0.00021270495 0.0 0.00015876339 0.0 4.9580133e-15 4.2514097e-05 0.0004304438 0.0
0.00030129566 0.0 -3.6260088e-16 -5.278176e-05 0.00073670154 0.0 0.000588085 0.0
1.0572094e-15 1.0864518e-05 3.816378e-05 0.0 1.1564819e-05 0.0 -5.6909184e-16 -1.6715012e-06
-0.00013442744 0.0 -0.00010067208 0.0 -5.2059137e-16 -1.4904013e-05 0.00017899921 0.0
3.4822217e-05 0.0 -1.5492e-14 2.9968141e-05 -0.0014856438 0.0 -0.0012375617 0.0

exp_avg_sq f4 [128, 6]
00000000: 9b75 e732 0000 0000 48c2 7032 0000 0000
00000010: 5a81 7729 d7d6 8231 42c4 e332 0000 0000
00000020: 0485 c233 0000 0000 891c 962b 79af 0834
00000030: daee f735 0000 0000 4398 1535 0000 0000
00000040: 83a3 2c29 dcf4 1134 ba4f 0134 0000 0000
00000050: 007e 5933 0000 0000 0fbf 662a 0bb1 9432
00000060: 6700 8334 0000 0000 632d af33 0000 0000
00000070: 6749 fd2a 122c 8f32 a561 7533 0000 0000
00000080: 964e 8d33 0000 0000 4635 be2b bee5 6d33
00000090: ed7d cd33 0000 0000 b144 c533 0000 0000
000000a0: 6d94 0f2c a692 5533 0f1b 0032 0000 0000
000000b0: 91b2 3532 0000 0000 c1d2 b529 2131 5a32
000000c0: c914 d631 0000 0000 1d19 7f33 0000 0000
000000d0: 81ee 6b2c 85c1 1833 c9a1 0833 0000 0000
000000e0: 3ef9 e732 0000 0000 8241 1a2b c18a d632
000000f0: d31d 1e33 0000 0000 0c1e 7933 0000 0000
00000100: b38c 302b 1df0 9732 abd3 f832 0000 0000
00000110: 26e6 dd32 0000 0000 c428 bf29 d206 c132
00000120: ad27 a534 0000 0000 dcbc f433 0000 0000
00000130: 0009 252b 1c5a 6133 9a5b a035 0000 0000
00000140: a9bb 3935 0000 0000 4e33 ff2b 00b3 3f34
00000150: 9ac6 cc2f 0000 0000 9306 e531 0000 0000
00000160: c753 a629 558a 7531 ca72 2d36 0000 0000
00000170: 49a8 8535 0000 0000 14a3 212a cc10 2034
00000180: f6c1 9935 0000 0000 a3dd ae34 0000 0000
00000190: b857 8a29 19a3 6f33 448d 2336 0000 0000
000001a0: e2f2 7035 0000 0000 206c 7429 ee1d 2434
000001b0: 27e7 0d34 0000 0000 1644 c033 0000 0000
000001c0: 0d16 2a2a 7b5a ae33 aaf3 f231 0000 0000
000001d0: 26ec b731 0000 0000 89c0 3929 f7a6 cc31
000001e0: f068 9534 0000 0000 cb3b 8a34 0000 0000
000001f0: 5fb6 6b2c e427 9833 025b e130 0000 0000
00000200: 3157 e031 0000 0000 d9b5 042a 259e 8931
00000210: d113 1931 0000 0000 174e 0632 0000 0000
00000220: 5732 6f2b 0784 cd31 25a9 2935 0000 0000
00000230: 4f98 0235 0000 0000 b263 af2d 0f18 8a34
00000240: 9cb3 f135 0000 0000 4176 5735 0000 0000
00000250: 77cd e12c 13ce d034 0071 f934 0000 0000
00000260: 3539 1c35 0000 0000 1f64 7e2c 5b2c 7434
00000270: 0652 0531 0000 0000 2fba f031 0000 0000
00000280: 8f15 ae29 9d02 b631 4f37 3134 0000 0000
00000290: 504d 6e34 0000 0000 cb94 0c2c fc32 0a34
000002a0: e91a 1535 0000 0000 0441 8f34 0000 0000
000002b0: e680 7a2b 72d6 4033 8149 4935 0000 0000
000002c0: cdcd 8834 0000 0000 7b88 fe28 0c79 1633
000002d0: e097 1a34 0000 0000 d0f3 0634 0000 0000
000002e0: 8bd8 ac2a 63b7 ed33 da76 0532 0000 0000
000002f0: b25f 1632 0000 0000 ed5d 7a29 cab0 0b32
00000300: 260f 8d32 0000 0000 7296 b732 0000 0000
00000310: 44c0 0b29 748f 6d32 37d1 3334 0000 0000
00000320: 767d 2d34 0000 0000 f8ed 852c 32da 3833
00000330: 55c2 8a32 0000 0000 b9be 3333 0000 0000
00000340: c0d4 e22b ccdd de32 e4f3 1d34 0000 0000
00000350: e6f3 f633 0000 0000 fa04 992c ea34 1533
00000360: 9e68 a133 0000 0000 e42a 3533 0000 0000
00000370: 85d5 902a 5721 d532 0dc5 4334 0000 0000
00000380: 61b6 a633 0000 0000 bd05 4129 810b 7232
00000390: 5e21 9235 0000 0000 a6b0 f334 0000 0000
000003a0: 94d2 192b f073 c433 dc3c 0d30 0000 0000
000003b0: fb8f 5330 0000 0000 063b 7d27 d497 2230
000003c0: 182e 9d33 0000 0000 8929 0033 0000 0000
000003d0: 6d71 7b29 dc77 3832 252c ca31 0000 0000
000003e0: edcc f132 0000 0000 4b19 122c 6280 d332
000003f0: 2e2c ab36 0000 0000 d752 e235 0000 0000
2.694542e-08 0.0 1.4014013e-08 0.0 5.4957212e-14 3.8079224e-09 2.6515526e-08 0.0
9.0580244e-08 0.0 1.0666061e-12 1.2729824e-07 1.8472449e-06 0.0 5.5728395e-07 0.0
3.8333496e-14 1.3593257e-07 1.2043066e-07 0.0 5.0638846e-08 0.0 2.049439e-13 1.7309977e-08
2.4400944e-07 0.0 8.157328e-08 0.0 4.499276e-13 1.6667432e-08 5.7132315e-08 0.0
6.580119e-08 0.0 1.3515098e-12 5.5389812e-08 9.568962e-08 0.0 9.186022e-08 0.0
2.0403915e-12 4.9726303e-08 7.456733e-09 0.0 1.0576188e-08 0.0 8.074575e-14 1.2700441e-08
6.2305827e-09 0.0 5.9394655e-08 0.0 3.3527905e-12 3.5566263e-08 3.181211e-08 0.0
2.7005282e-08 0.0 5.48027e-13 2.4975977e-08 3.6814367e-08 0.0 5.8002158e-08 0.0
6.272302e-13 1.7687904e-08 2.8967255e-08 0.0 2.5832446e-08 0.0 8.4891756e-14 2.2471259e-08
3.0762513e-07 0.0 1.1396489e-07 0.0 5.8632266e-13 5.246885e-08 1.1947589e-06 0.0
6.919095e-07 0.0 1.813308e-12 1.7853381e-07 3.72485e-10 0.0 6.6655246e-09 0.0
7.386414e-14 3.5730825e-09 2.5845825e-06 0.0 9.95825e-07 0.0 1.4356252e-13 1.4907272e-07
1.1455838e-06 0.0 3.2571288e-07 0.0 6.143648e-14 5.579486e-08 2.437112e-06 0.0
8.976041e-07 0.0 5.4272667e-14 1.5284579e-07 1.3215741e-07 0.0 8.9530815e-08 0.0
1.5106684e-13 8.118965e-08 7.0708284e-09 0.0 5.352848e-09 0.0 4.124525e-14 5.956163e-09
2.7829765e-07 0.0 2.5748008e-07 0.0 3.3496745e-12 7.0853076e-08 1.6396771e-09 0.0
6.5291705e-09 0.0 1.1787046e-13 4.0052037e-09 2.2275695e-09 0.0 7.817582e-09 0.0
8.497972e-13 5.981295e-09 6.3203544e-07 0.0 4.865041e-07 0.0 1.993947e-11 2.5722008e-07
1.8008172e-06 0.0 8.0265823e-07 0.0 6.417696e-12 3.8892958e-07 4.6462083e-07 0.0
5.8197776e-07 0.0 3.615115e-12 2.2740407e-07 1.9400672e-09 0.0 7.006086e-09 0.0
7.730892e-14 5.2971942e-09 1.6504531e-07 0.0 2.2193603e-07 0.0 1.9977793e-12 1.28708e-07
5.5545985e-07 0.0 2.668313e-07 0.0 8.8996724e-13 4.489852e-08 7.49853e-07 0.0
2.5481714e-07 0.0 2.8258854e-14 3.5034688e-08 1.439762e-07 0.0 1.2568421e-07 0.0
3.0703595e-13 1.10695304e-07 7.768643e-09 0.0 8.752908e-09 0.0 5.559262e-14 8.131062e-09
1.6421449e-08 0.0 2.1372419e-08 0.0 3.1030964e-14 1.3827833e-08 1.6746786e-07 0.0
1.6157523e-07 0.0 3.806507e-12 4.3039286e-08 1.6153686e-08 0.0 4.1850146e-08 0.0
1.6117316e-12 2.5945063e-08 1.4710491e-07 0.0 1.14996325e-07 0.0 4.349074e-12 3.473989e-08
7.5161765e-08 0.0 4.2181355e-08 0.0 2.5727697e-13 2.4811625e-08 1.8232477e-07 0.0
7.763152e-08 0.0 4.2859586e-14 1.408887e-08 1.0887559e-06 0.0 4.5390806e-07 0.0
5.4648755e-13 9.14805e-08 5.138199e-10 0.0 7.696596e-10 0.0 3.51428e-15 5.915102e-10
7.3192666e-08 0.0 2.98401e-08 0.0 5.5831577e-14 1.07374625e-08 5.8839924e-09 0.0
2.8149282e-08 0.0 2.0761888e-12 2.4622015e-08 5.1013403e-06 0.0 1.6862422e-06 0.0

exp_avg f4 [128]
00000000: c7fe 2838 f8f9 bc38 8d75 82b9 bee5 0fb8
00000010: bcdd f2b7 48d8 7db7 f0f6 0439 37bf 5538
00000020: 8237 16b7 3a10 14b8 5611 a038 d233 73b8
00000030: 0f93 25b8 68c4 b839 56ed cab6 90cb 13ba
00000040: 3c80 bc38 805d 0dba 6378 1139 c53b 8237
00000050: dc76 0db8 4793 a137 ce43 7937 7c95 5db8
00000060: 33f4 a439 67b7 6938 448f 2d37 a156 4839
00000070: b419 72b9 d7d9 5cb9 828c 5239 16ae b5b5
00000080: 44a4 4d38 db31 f2b7 cf16 1338 2a58 18b9
00000090: 517c 8c38 eb4d 0539 6718 8239 0ebc a336
000000a0: 0c2a 32b8 8f81 7637 c3e2 08ba be31 79b8
000000b0: 06ad 42b7 a211 8737 5151 7039 15d9 f838
000000c0: a2e2 e737 8be8 92b9 62c4 85b7 1ec0 05b8
000000d0: 1c87 0438 109e 5d39 acb2 f4b9 8dc5 cab7
000000e0: 76fb 4a39 ad1e 8538 2d5d 1839 8008 8bb9
000000f0: 836c 1637 fbfc 3038 f319 05b6 0d0b 2b39
00000100: 4ec9 7038 b7c0 6fb9 32da e538 a3da 90b7
00000110: c386 b937 b1a0 b5b9 6db7 f1b9 52ae e837
00000120: 8719 b6b7 5f27 3a37 cb54 b738 d697 bcb7
00000130: f4b2 e837 73a3 62b7 9600 a2b9 089b 94b9
00000140: ba72 90b9 80e8 b238 08e6 cbb7 745e 3cb7
00000150: 96e7 4639 409e c835 d044 d4b7 5f02 5139
00000160: 52f0 99b9 63c8 deb7 b06d 8e38 e0c0 4fb8
00000170: b5bd 21b9 8bd9 d238 3226 8039 089a 90b9
00000180: 520f 8cb9 068d dbb6 f53e a737 a001 ef38
00000190: 2b3e 7f37 bd19 8639 880f e037 aca5 f6b8
000001a0: 380d de37 00ad ad36 f28c ca38 7c6b 9038
000001b0: 62cc 34b9 8091 19b4 43ca 1a3a 98e3 3a38
000001c0: 1f1f 6139 ec87 8ab7 ecc4 ec38 8868 e338
000001d0: 7006 b8b8 0df4 6f37 40dc 5737 69b8 0338
000001e0: 3177 58b8 83ce 5f38 a82f 02b6 1b42 0138
000001f0: 2639 9c39 91a4 cf39 0884 68b8 0ef5 0339
4.02916e-05 9.011099e-05 -0.00024883114 -3.430782e-05 -2.8951901e-05 -1.5130332e-05 0.00012680492 5.096124e-05
-8.953621e-06 -3.5301062e-05 7.6326236e-05 -5.7983976e-05 -3.9476025e-05 0.0003524155 -6.0476987e-06 -0.0005637938
8.988424e-05 -0.0005392656 0.00013873125 1.552504e-05 -3.3727716e-05 1.9261277e-05 1.4857344e-05 -5.2829724e-05
0.0003146246 5.5722336e-05 1.034496e-05 0.00019105758 -0.00023088494 -0.00021061987 0.00020079504 -1.3536217e-06
4.9028793e-05 -2.8871864e-05 3.5068773e-05 -0.00014528693 6.698876e-05 0.00012712895 0.00024813713 4.879671e-06
-4.2477666e-05 1.4692908e-05 -0.00052217784 -5.9412552e-05 -1.1603586e-05 1.6101465e-05 0.00022918476 0.00011865996
2.764288e-05 -0.00028020548 -1.5946283e-05 -3.1888594e-05 3.1597083e-05 0.00021135085 -0.00046672428 -2.4172268e-05
0.00019357898 6.347648e-05 0.0001453056 -0.0002651848 8.965962e-06 4.2197276e-05 -1.9833649e-06 0.00016311948
5.740794e-05 -0.00022864608 0.00010960213 -1.7267948e-05 2.2116472e-05 -0.00034642735 -0.00046103765 2.773773e-05
-2.1707978e-05 1.1095631e-05 8.741914e-05 -2.248205e-05 2.7739887e-05 -1.3508706e-05 -0.00030899484 -0.00028344267
-0.00027551298 8.531008e-05 -2.4306602e-05 -1.1227665e-05 0.00018969024 1.4947218e-06 -2.5304413e-05 0.00019932677
-0.00029361487 -2.6557775e-05 6.7915185e-05 -4.9532275e-05 -0.00015424828 0.00010054101 0.0002444252 -0.00027580583
-0.00026714295 -6.543126e-06 1.9937268e-05 0.00011396711 1.5213659e-05 0.00025577648 2.6710113e-05 -0.00011761053
2.6470618e-05 5.1759416e-06 9.658364e-05 6.8864756e-05 -0.00017242276 -1.4302168e-07 0.0005904773 4.455782e-05
0.00021469266 -1.6514176e-05 0.000112900365 0.00010843674 -8.775003e-05 1.4302333e-05 1.286628e-05 3.140458e-05
-5.160942e-05 5.3359672e-05 -1.939925e-06 3.0817562e-05 0.00029797218 0.00039604728 -5.5436074e-05 0.00012584424

exp_avg_sq f4 [128]
00000000: 0374 2b31 4286 8a32 5010 d533 5ae2 1a32
00000010: 1680 7932 7c42 4932 667b 8c32 b864 0131
00000020: 27aa 3532 6032 a531 d067 3132 b905 9e31
00000030: 6649 ae32 6f44 0434 f718 a330 545d 3e34
00000040: 780e 7933 a396 2b34 6ceb 8832 58fa 8230
00000050: d6e1 4433 d4c2 9f30 7a49 bf30 bc00 ba33
00000060: 3270 1934 3281 de33 3c6e ab30 1db4 2933
00000070: 5a08 4c33 97d8 4233 8935 c032 5a2c d630
00000080: 4bbd 8231 f018 f732 c200 0032 31dd af32
00000090: 1804 0132 a571 6d32 618a ad33 4ca9 162f
000000a0: bd89 b631 e031 ac31 5b2c a134 0dca a231
000000b0: cfef 1831 6d3c 8130 a21b b433 a583 0432
000000c0: db2b 2032 d445 b533 3b10 bd30 cd5f 2432
000000d0: 49ed 0e31 4dd0 9433 80c9 4f34 a6fb aa30
000000e0: dfc2 8833 20c5 1631 cb5f ee32 9af3 2134
000000f0: cb18 a02e 1732 de31 740b b42e 102c fa33
00000100: 25b6 ed31 2048 8c33 7e03 4d32 948e c832
00000110: cd17 1a30 b4cf 5733 de3b 0834 cca3 6831
00000120: 7493 d330 b9ad b530 e5f1 9332 0736 9e31
00000130: be10 7531 95ee 5531 1628 f333 e8b2 5233
00000140: 85d0 f733 6cac d933 c26d dd30 9adb 4b30
00000150: 768e 3b33 5030 9b31 3fd9 a731 3f77 5a33
00000160: e337 7f33 fe14 6a30 3f2e c131 c7cb 0932
00000170: f869 4233 367d fd32 3ff1 2733 7094 b233
00000180: 434c c233 406b 6b2f f802 7a33 e0af bf32
00000190: ded5 8430 10f7 3233 365d 8d31 8567 4332
000001a0: 92d7 0d32 ffa3 6b31 407d af32 b105 1a32
000001b0: 94b8 7a33 cdde 1e31 f346 1035 73cc cf31
000001c0: 9eab 3e33 fb10 6d31 0362 7e32 41e7 0633
000001d0: bf08 2932 f5e9 a830 d43b ec2f 3a75 3332
000001e0: a816 2332 6a39 c931 21c6 a231 ce69 d02f
000001f0: b7a7 1234 5121 8a34 03f8 a932 3988 d632
2.494972e-09 1.6126368e-08 9.921553e-08 9.015446e-09 1.4522831e-08 1.1714857e-08 1.635426e-08 1.8829223e-09
1.0574275e-08 4.807859e-09 1.032636e-08 4.599056e-09 2.0289644e-08 1.2318354e-07 1.1866906e-09 1.7729081e-07
5.798799e-08 1.5980417e-07 1.5939541e-08 9.529897e-10 4.5840203e-08 1.1624146e-09 1.3917962e-09 8.6614335e-08
1.4290052e-07 1.0361181e-07 1.2473218e-09 3.951219e-08 4.7505047e-08 4.5366132e-08 2.2376087e-08 1.5583155e-09
3.805018e-09 2.8765925e-08 7.450753e-09 2.0473268e-08 7.509719e-09 1.3821055e-08 8.081111e-08 1.3702567e-10
5.312556e-09 5.011529e-09 3.002086e-07 4.737791e-09 2.2255227e-09 9.403159e-10 8.3869296e-08 7.713344e-09
9.323197e-09 8.441171e-08 1.3756173e-09 9.567839e-09 2.07986e-09 6.929677e-08 1.9351683e-07 1.2440651e-09
6.36844e-08 2.1939925e-09 2.7750408e-08 1.5082915e-07 7.280362e-11 6.466745e-09 8.187487e-11 1.1649547e-07
6.9183153e-09 6.5323775e-08 1.19333645e-08 2.3347901e-08 5.6058697e-10 5.0247493e-08 1.2687767e-07 3.385355e-09
1.5394179e-09 1.3218858e-09 1.7223053e-08 4.6045474e-09 3.566171e-09 3.1131198e-09 1.1322861e-07 4.905715e-08
1.1539763e-07 1.0136213e-07 1.6111061e-09 7.416304e-10 4.3668898e-08 4.516586e-09 4.8850377e-09 5.0865534e-08
5.9422643e-08 8.5158536e-10 5.622297e-09 8.020783e-09 4.5265523e-08 2.9510016e-08 3.910213e-08 8.3157715e-08
9.047701e-08 2.1411228e-10 5.821036e-08 2.2315305e-08 9.665049e-10 4.1668557e-08 4.114237e-09 1.13740315e-08
8.256295e-09 3.4290222e-09 2.0429638e-08 8.965274e-09 5.8375534e-08 2.3118674e-09 5.3747425e-07 6.047736e-09
4.4393907e-08 3.4497691e-09 1.4807031e-08 3.140963e-08 9.839083e-09 1.2290103e-09 4.297066e-10 1.04458255e-08
9.493e-09 5.856397e-09 4.737345e-09 3.7910158e-10 1.3658324e-07 2.5728744e-07 1.9786972e-08 2.4974826e-08

exp_avg f4 [128, 128]
00000000: 0da7 02b7 894a fbb6 1c6d fdb6 60b4 9738
00000010: a5f0 0538 d7b0 af37 850b 7bb6 820a dfb6
00000020: 84fd 13b7 f0cb 7337 3465 6737 dcd1 d436
00000030: 9373 7d38 5faa 7037 3e17 18b7 11f8 c537
00000040: 1875 6a38 c387 1c38 77d0 a837 51dc e4b6
00000050: c60f a538 ab03 1db7 215c 09b7 b51e 9638
00000060: cfd1 9737 1bb3 d538 0482 2db7 52d7 c8b5
00000070: dff4 1d38 1e86 f4b4 7176 4337 cd07 bcb6
00000080: 2b38 2f38 e2a1 a737 16a1 4037 4c41 8e38
00000090: 2bef 8737 40e4 f3b2 fc1b da37 191a fdb5
000000a0: 4faf 19b6 16ed 03b7 1532 d537 f1ff 1137
000000b0: 5a3a e5b6 6fe1 dcb6 7886 2538 82da 94b5
000000c0: ee28 c4b6 5dc6 a636 15d9 14b7 f42a b4b6
000000d0: 742e 2638 761d c134 b094 1238 5969 e6b6
000000e0: a89a 1738 2a9c b136 da69 4e36 0424 8437
000000f0: ea6e aeb6 7f4c f037 76e1 a2b6 aca7 df37
00000100: 0c23 f2b6 eb93 3c37 7897 a635 4eea ea37
00000110: a4f1 0cb7 c825 4138 2c34 6338 8226 82b6
00000120: b2ec 72b5 fa3f 0eb7 a293 0eb7 e215 3eb7
00000130: e922 00b7 3758 e4b6 2345 36b6 6848 1538
00000140: 4b09 0036 55b4 9db6 c3c0 49b6 db0c 0bb7
00000150: 5ea8 b535 5000 08b7 fae9 f6b6 bce9 0e38
00000160: 0cec 5e36 08b6 2bb7 f483 dab6 7fe4 aab6
00000170: d99d 6636 1d79 4d38 a386 0838 188b 62b6
00000180: 13b2 c337 e26c 10b7 62a1 8036 aa7d 5b36
00000190: f3ee ffb6 84f2 0237 371a 18b7 7307 a138
000001a0: e255 fdb6 1cfd e9b6 d24b 4337 60c8 3b34
000001b0: 627e 0538 cbf7 18b7 d088 6737 666c 11b7
000001c0: 5c99 9b36 66e9 01b7 3813 a1b5 17d8 1e38
000001d0: e8e4 cc37 b01c 12b7 bdfa 94b6 e8a9 29b7
000001e0: 3008 0236 fade e8b6 8acf 7db6 1234 c6b6
000001f0: 2024 0e38 b205 4938 0af1 4a37 6379 0bb6
00000200: de19 38b7 52fc e6b6 6c0b dcb5 6e61 6438
00000210: 601c ea38 07fc 2f38 4e40 fab6 42cd 92b6
00000220: 89b2 d3b7 b288 7c38 1482 e037 8603 2a38
00000230: 781a a138 327d 3238 ddf8 60b7 485f 1438
00000240: 7c95 2838 d724 8f38 ec97 b636 e4ab f9b6
00000250: 9194 3e39 bbbd a3b7 caaa 2db7 2833 bf38
00000260: 2177 a738 538d fc38 3397 b3b7 0611 a436
00000270: 9654 1139 96b1 0037 a6ce 7438 394f 1ab7
00000280: a2bf c037 0240 a538 e4c0 6438 9ffc 5d39
00000290: 2dca 3a36 e395 11b7 36a2 7a38 44ba 08b6
000002a0: 1c41 03b7 bdc0 f7b7 70d2 be37 2a4c cb36
000002b0: 2068 3cb7 f0b8 3f35 68f5 c038 9d68 cab7
000002c0: 803d 0e36 9e54 0938 5c47 83b7 b13c 3bb7
000002d0: 7dd6 0338 4a91 5937 43d7 1b38 0068 08b5
000002e0: 35cf 1a38 2174 5938 fd66 ffb7 be09 a538
000002f0: be19 dab6 da12 c838 4ecb 00b7 62d6 9f38
00000300: cba8 35b7 daeb 6838 50f6 cd34 b497 2b38
00000310: 76e4 36b7 a2fd 4738 20f0 2639 d028 0636
00000320: 1c95 b1b6 fe78 3bb7 1240 59b7 8a06 f9b7
00000330: 34e5 21b8 9e61 fab5 a5f9 6037 ca34 0538
00000340: b033 0e38 1f18 bdb7 57c1 c3b6 9887 51b7
00000350: 8ece e6b6 078b 3ab7 ede3 48b7 9e40 dd38
00000360: 6de4 1d38 936e 37b7 472c 0cb7 8bbd dc36
00000370: 70c4 4038 e795 0138 102e f538 9b16 2d37
00000380: 4c9e 0939 669b 45b7 183c 46b7 f7f9 5eb6
00000390: 96c0 42b7 fe2f 3838 5efe 50b7 ba24 f438
000003a0: 123b bdb7 3e14 fdb6 1807 6cb6 09a1 b337
000003b0: 9bc0 8d37 27c4 71b7 006b 02b4 deaf 26b7
000003c0: 4941 bd36 e23c 06b7 586a c035 d582 6538
000003d0: b40b 7838 febf 63b7 8a28 6fb6 2f56 b5b7
000003e0: 407c c7b6 1b35 0ab7 8eb5 08b7 0826 04b7
000003f0: f272 9a38 5400 d938 58f9 6337 dae3 b036
-7.787498e-06 -7.48906e-06 -7.5526896e-06 7.2338386e-05 3.193379e-05 2.0943973e-05 -3.740862e-06 -6.647141e-06
-8.820909e-06 1.4531412e-05 1.3792236e-05 6.342523e-06 6.0427537e-05 1.4344782e-05 -9.0653175e-06 2.3599745e-05
5.5899e-05 3.7319736e-05 2.0124235e-05 -6.8205777e-06 7.870751e-05 -9.358783e-06 -8.187287e-06 7.158277e-05
1.8098302e-05 0.000101899925 -1.0341875e-05 -1.4963828e-06 3.765977e-05 -4.5546125e-07 1.16504825e-05 -5.6037447e-06
4.1775562e-05 1.9983334e-05 1.14815975e-05 6.78325e-05 1.6204625e-05 -2.839272e-08 2.6000656e-05 -1.8857564e-06
-2.290082e-06 -7.863409e-06 2.54149e-05 8.7022645e-06 -6.831525e-06 -6.582755e-06 3.94643e-05 -1.1090453e-06
-5.84602e-06 4.970278e-06 -8.872031e-06 -5.3694184e-06 3.9620747e-05 3.5970487e-07 3.494759e-05 -6.8667982e-06
3.614524e-05 5.293191e-06 3.0758006e-06 1.5752397e-05 -5.198516e-06 2.864585e-05 -4.8542233e-06 2.666175e-05
-7.216242e-06 1.1240113e-05 1.2412047e-06 2.800408e-05 -8.400912e-06 4.6049972e-05 5.4169606e-05 -3.878785e-06
-9.049646e-07 -8.478755e-06 -8.498233e-06 -1.13299775e-05 -7.637523e-06 -6.805199e-06 -2.7160356e-06 3.5591802e-05
1.9078896e-06 -4.699958e-06 -3.0063536e-06 -8.288039e-06 1.3534552e-06 -8.106304e-06 -7.3586098e-06 3.407312e-05
3.3217975e-06 -1.0234777e-05 -6.5122676e-06 -5.0929953e-06 3.436455e-06 4.8988604e-05 3.2550317e-05 -3.3757588e-06
2.3328734e-05 -8.60842e-06 3.8334847e-06 3.270669e-06 -7.6274096e-06 7.805069e-06 -9.06601e-06 7.678466e-05
-7.5499856e-06 -6.973407e-06 1.1640559e-05 1.7488628e-07 3.1827374e-05 -9.1176e-06 1.3800527e-05 -8.667912e-06
4.6372134e-06 -7.7433415e-06 -1.2001028e-06 3.7871385e-05 2.4425288e-05 -8.7089575e-06 -4.4399335e-06 -1.0112744e-05
1.9376275e-06 -6.9400967e-06 -3.7820741e-06 -5.9069216e-06 3.3889082e-05 4.792744e-05 1.20962595e-05 -2.078327e-06
-1.0973277e-05 -6.883908e-06 -1.6394602e-06 5.4450175e-05 0.00011163275 4.195797e-05 -7.4580666e-06 -4.375034e-06
-2.5236297e-05 6.020879e-05 2.6763453e-05 4.053444e-05 7.6820084e-05 4.2555104e-05 -1.3409383e-05 3.5374687e-05
4.019354e-05 6.825633e-05 5.4417087e-06 -7.440789e-06 0.00018175157 -1.9519464e-05 -1.03513685e-05 9.117118e-05
7.98537e-05 0.0001204262 -2.140887e-05 4.8895627e-06 0.00013859788 7.670742e-06 5.836659e-05 -9.197561e-06
2.297742e-05 7.8797355e-05 5.453908e-05 0.00021170311 2.7833842e-06 -8.677572e-06 5.9755715e-05 -2.0374e-06
-7.823368e-06 -2.9534445e-05 2.2747758e-05 6.058738e-06 -1.1229917e-05 7.1422164e-07 9.200984e-05 -2.412899e-05
2.1195447e-06 3.274215e-05 -1.5649646e-05 -1.1160199e-05 3.143259e-05 1.2968036e-05 3.7155358e-05 -5.081529e-07
3.6909438e-05 5.1844985e-05 -3.0446326e-05 7.869628e-05 -6.499903e-06 9.5402545e-05 -7.67673e-06 7.621643e-05
-1.0827741e-05 5.5532764e-05 3.8363441e-07 4.091086e-05 -1.0901238e-05 4.768151e-05 0.00015920447 1.9991312e-06
-5.2923697e-06 -1.1174239e-05 -1.2949125e-05 -2.9686158e-05 -3.8598853e-05 -1.8654862e-06 1.3409565e-05 3.1758835e-05
3.3903576e-05 -2.2541788e-05 -5.8339606e-06 -1.2488941e-05 -6.8785803e-06 -1.1118834e-05 -1.1973997e-05 0.00010550137
3.7644455e-05 -1.0933395e-05 -8.354959e-06 6.5785766e-06 4.5959314e-05 3.0895604e-05 0.0001169109 1.0316867e-05
0.00013124308 -1.17782965e-05 -1.1815711e-05 -3.3226077e-06 -1.1608141e-05 4.3913715e-05 -1.2456991e-05 0.000116416675
-2.2558062e-05 -7.542344e-06 -3.517087e-06 2.141345e-05 1.6898199e-05 -1.441039e-05 -1.214612e-07 -9.935318e-06
5.640239e-06 -8.001198e-06 1.4336065e-06 5.47197e-05 5.9138707e-05 -1.3574956e-05 -3.5637372e-06 -2.1617014e-05
-5.9451268e-06 -8.237806e-06 -8.148503e-06 -7.876668e-06 7.3647025e-05 0.000103474275 1.3588309e-05 5.271734e-06
