results/ppo/Avoid Obstacle/Avoid Obstacle-71805.pt (torch, 436959 bytes, 30 tensors)

network_body._body_endoder.seq_layers.0.weight f4 [128, 6]
00000000: 6485 4b3e 3f9a 823d 0b16 d13d d1ac 6f3e
00000010: 5ed7 90be 4273 9bbd 3eaa b9be 12a9 87be
00000020: 85ad 29be a6f6 6d3d b80e 55be 81be 60bc
00000030: 949e 6c3e 8de7 453d 8698 c3be b61b df3e
00000040: 458b 0b3f 374a f4be 3725 02bf dad9 2ebe
00000050: e329 19bd 64c9 ca3d ba06 163f 7c39 8d3e
00000060: b1e0 093e fcb3 8fbd c9b6 00bf 724a f13e
00000070: 45c6 22be 2bb8 2cbe abc7 89be 9275 56bf
00000080: e682 3c3e bc42 d0be 7692 99be 72f7 253f
00000090: 6892 99bd 8f06 af3d c06e 6abe c55a a1be
000000a0: 98c5 f73d 073b 583e 52a8 ed3d 1e63 443f
000000b0: 7f1c a53e e4de 363d 08fa 68be 7220 ad3e
000000c0: 1d32 443e 86ac bfbe b04f ab3e da3d dfbe
000000d0: 15de 683d 474f 3f3d 45cb 213f f42e 01bf
000000e0: 29db 04bf ffd8 173f 5133 d7be 3838 ad3e
000000f0: e23e 133f cf70 8a3f 0490 dabd acc2 a93e
00000100: 9619 84bf 7c91 13be 8594 b5be acda 32bf
00000110: 2ff3 a7bd 6b48 373e 42da 953c 68f7 b1bd
00000120: d825 35be ca81 96be bfbe 033f 673a 37be
00000130: 49c9 183e 8061 15bf 8ab8 df3e 090d 23bf
00000140: 0b5d adbd fb36 bb3e aa1d 48bb 5f9d a13e
00000150: 6708 d53b 1464 cfbc f51c 98be 612f 68be
00000160: 67b3 9a3e ddd7 b23d c55c 6bbd 4ec4 843d
00000170: ce92 aa3e 9a58 183f 0d8e f53c 9a56 f73e
00000180: 0957 a13e 3255 e6be 6176 6ebe 5f78 8dbc
00000190: 10d5 733d b8b0 073e b0ce 96bd f5c4 fa3e
000001a0: 065c 21bf a043 d03e b8ef 0c3f b90c 0fbf
000001b0: 6dd4 6f3e 9d65 f23e c70d 8b3e 25c4 0f3f
000001c0: 7a1a 473e c6d3 043f e278 923d 07d0 a1be
000001d0: b132 afbe 7cf4 3a3e cc1f d3be 5cf2 b4be
000001e0: e383 ca3e b49b d0bd fa43 a03e 4b9d 44be
000001f0: d5dc 01be bebe 59bc 0e83 ccbd 424e efbd
00000200: 1ccd 0c3f f801 d13e 3902 aabd 0407 aa3e
00000210: 5fa4 0c3f f02b cfbe e935 843f b233 b6be
00000220: d93c 0b3f 258d 87be 9ee7 d4bd 242f 1b3f
00000230: 034e 9bbe 2623 a33e 5447 e73d c612 7c3f
00000240: c23c a63e ac0e 813e b3a5 a3be f1d7 3a3d
00000250: 7751 41bd 54d4 c83d c042 30bf 2903 15bf
00000260: 3f48 1e3f ca3d ddbe a81e 42bf ac8e 85bd
00000270: a6af d7bc 5be6 15be 0300 a4be abaf 083f
00000280: 53d2 86be 7c94 92be 3837 0a3f 97ee fb3e
00000290: e246 0a3e 5c9c a4bd 8a1d 40bf fdc5 433e
000002a0: df9d 20be 2a7b c83e 1cfe e3be 0fd9 ba3e
000002b0: d477 c2bc 0886 b4bb aa0c 5d3e c2a7 90be
000002c0: 59db 9dbe 09bb 473f 081e 203f d605 803e
000002d0: f25a c0be b6dd bd3e 0403 203e 9315 5d3e
000002e0: 0609 fcbe 59d0 003f 7748 1d3d c243 04be
000002f0: affb 0d3f 8518 893c 1b02 d83e b3dc 3c3f
00000300: f455 d9be 75b1 463d d9d5 833d 6b63 3dbf
00000310: 7ea5 763e c657 7ebe 029c c43e 8355 ad3e
00000320: 1dd4 da3d 6d88 d73e 5338 8bbe 39b1 4fbe
00000330: dbd2 70be 9952 c3be eecd fc3c 66c5 1cbe
00000340: 1634 fb3d ee9f 783e 1180 27bf 14ed 1bbd
00000350: fec5 073e 9403 fc3d 83b6 2e3c e6cd 823e
00000360: d190 37bf 720e f1bd 00c6 1b3f f41b 943e
00000370: b727 0b3e 418e 353d caf2 86bd 8820 183e
00000380: 46b7 9d3d cd5c d9ba 0bc9 843e 719d 2fbf
00000390: f7fb 283f c245 02be 1a75 fe3e d03d bebe
000003a0: 02dc dcbe 3c76 edbe a68d 083e 3f2b 69be
000003b0: 0d0f ccbd ce91 f53c dbcd 28bf dbca 0a3e
000003c0: 0de6 143d 0ed6 d3be 47cc b53e f9d0 e43e
000003d0: d41b 0cbf a993 b5bd aab9 31be 6262 d33d
000003e0: 37e7 2fbe bd93 f4be cd8b d7be a43f 043d
000003f0: 3ab1 e1be 7699 b5be c0cb 6ebf 7272 04bd
0.19875103 0.06377076 0.102092825 0.23405768 -0.28289312 -0.07590343 -0.36262697 -0.26496178
-0.16570099 0.05809655 -0.20806396 -0.013717295 0.23107368 0.048316527 -0.38202304 0.4357583
0.54509383 -0.4771287 -0.50838035 -0.17075291 -0.037393462 0.099016935 0.58604014 0.2758292
0.13464619 -0.07016751 -0.5027891 0.4712711 -0.15895946 -0.1686713 -0.26910147 -0.8377315
0.18409309 -0.40675914 -0.29994553 0.64830697 -0.07498628 0.08546173 -0.2289381 -0.31514564
0.12098235 0.21116267 0.1160437 0.7671374 0.32248303 0.04464616 -0.2275163 0.33813816
0.19159742 -0.37436312 0.33459234 -0.43601876 0.05685242 0.046706464 0.6320079 -0.5046227
-0.5189691 0.59315485 -0.4203134 0.33831954 0.57517827 1.0815676 -0.10672 0.33156335
-1.0320308 -0.14410967 -0.35464874 -0.69864917 -0.082006805 0.17898719 0.01829255 -0.08689767
-0.17690217 -0.29395896 0.5146293 -0.17893372 0.14920534 -0.583519 0.4369548 -0.63691765
-0.08465012 0.36565384 -0.003053526 0.31565377 0.006501246 -0.025316276 -0.29709592 -0.22674324
0.30214998 0.08732579 -0.05746152 0.06482755 0.33315128 0.59510195 0.029974962 0.4830826
0.31511715 -0.44986874 -0.23287345 -0.017269311 0.059529364 0.13251007 -0.07363641 0.4897839
-0.6303104 0.40676594 0.5505328 -0.5587879 0.23420878 0.4734315 0.2715895 0.5615867
0.19443694 0.5188564 0.07151963 -0.31604025 -0.34218362 0.18257326 -0.41235197 -0.35341156
0.39553747 -0.10185948 0.31301862 -0.19200628 -0.12681897 -0.013290105 -0.09985934 -0.11684848
0.5500047 0.40821815 -0.08301205 0.33208477 0.5493831 -0.4046321 1.0328952 -0.35586315
0.5438972 -0.26474872 -0.1039574 0.60618806 -0.30332956 0.31862754 0.11292902 0.98466146
0.3246823 0.25206506 -0.31962356 0.045616094 -0.04719683 0.098061234 -0.6885185 -0.58207947
0.6182899 -0.43211204 -0.7582803 -0.06521353 -0.026328873 -0.14638655 -0.3203126 0.5339305
-0.2633234 -0.2862891 0.5399051 0.49205467 0.13503602 -0.08037636 -0.75045073 0.19118495
-0.15685223 0.39156467 -0.44529808 0.36493728 -0.02373878 -0.005509142 0.21586862 -0.2825299
-0.3083141 0.7801977 0.62545824 0.25004452 -0.37569386 0.37083215 0.1562615 0.21590261
-0.49225634 0.50317913 0.038399186 -0.12916473 0.55462164 0.016735325 0.42189106 0.7377426
-0.4244839 0.04850908 0.064372726 -0.73979825 0.24086568 -0.2483817 0.38400275 0.33854303
0.10684989 0.42096272 -0.2719141 -0.20282449 -0.23517935 -0.38148955 0.030859914 -0.15309677
0.12265794 0.24279758 -0.6542979 -0.038067892 0.13259122 0.1230537 0.010663631 0.25547713
-0.7170535 -0.11770333 0.60849 0.28927577 0.13589369 0.044325117 -0.06589277 0.1485616
0.07700972 -0.0016583443 0.25934634 -0.6859961 0.6600947 -0.12721923 0.49698716 -0.37156534
-0.43136603 -0.46379268 0.13335285 -0.22770403 -0.09963808 0.029976752 -0.6593911 0.13553946
0.036352206 -0.41374248 0.35507414 0.44690683 -0.5472996 -0.088660546 -0.17355981 0.103214994
-0.17178045 -0.47768965 -0.42098847 0.032287255 -0.44080526 -0.35468644 -0.9327965 -0.032335706

network_body._body_endoder.seq_layers.0.bias f4 [128]
00000000: 8900 d3b9 df64 823b 6a94 8dbb a89b 23ba
00000010: 8a7a 973a b962 05bc 9af1 e43b 2146 16bc
00000020: bf11 903b 0617 d83b c7e9 113c a27f a2bb
00000030: 3f6c a53b da79 17bc 034f 62bb 2e7f 0b3b
00000040: a4ca 02bc 0269 bfbb 43e2 de3b a609 3b3b
00000050: 8954 90bb 5e95 babb 0c30 51bc 2c8e df3b
00000060: da86 79bc e72f 4ebb ae0d debb ccfc 22bb
00000070: 9e72 3fba 36b3 113c 9145 aabb 7ab9 f7bb
00000080: e286 c139 4ae7 f5bb 8cbb 10bc d671 85bb
00000090: e4f5 15bb 2d1d afb9 2e40 973b 8c6d 1138
000000a0: cd06 a63b ba11 923b a188 f0bb fd4b a1bb
000000b0: e835 fabb 26d1 be38 0c3f c4bb 49df b13b
000000c0: 93e6 b33a f2ec 68bb 1850 31ba 22e5 6bbb
000000d0: 10af 183b d01b fd3b b962 c43b 09f8 68bc
000000e0: d394 8bbb 9581 e7bb 5c6c 0abc d220 2a3c
000000f0: 8704 003c d8af 493b e069 9b3b 8f2c 37bb
00000100: d956 e2ba 1106 9cbb d151 383a 1330 53b8
00000110: 8cea 78ba 7201 1cbb eae3 e738 4998 1ebb
00000120: a550 d7ba bcf7 16bc 1952 173c d676 47bc
00000130: 0b78 67bb a554 a63b 9022 993b 1f14 263c
00000140: 1023 783a 8643 c1bb 6d0d eeba bf41 333c
00000150: 4c8e 6c3a 1fe9 79bb 8b86 1bbc c5e3 c5bb
00000160: e079 edbb 8e03 893b 6105 97bb 95bc 0cbc
00000170: f634 bcb9 e8f9 27bb 6650 233c d20c 823a
00000180: c043 753b e676 81ba 291a fcbb d078 cbbb
00000190: 344e 2dbb 564b 46bc 00d4 d6bb 8dbf 323b
000001a0: f722 99ba 4a57 a93a a076 35bc 4192 1a39
000001b0: 2c09 d23b f0e4 fe3b 99e4 d73a f38d 53bc
000001c0: f951 b2bb b794 183c 4242 33bb 58be 0bbc
000001d0: 299d 2b3c c96e cbbb 33d9 453a 0b4b d4ba
000001e0: 3859 23bc e360 403a e747 8abb fdb7 aabb
000001f0: cffb cabb 4959 9aba 89d9 113b b0d5 da3b
-0.00040245455 0.00397931 -0.004320671 -0.0006241151 0.0011556905 -0.008141213 0.006986809 -0.0091719935
0.0043966467 0.0065945415 0.0089058345 -0.0049590627 0.0050483043 -0.00924536 -0.0034531958 0.0021285522
-0.007982884 -0.0058413753 0.006801875 0.0028539686 -0.0044046086 -0.0056940755 -0.012767803 0.006822368
-0.015229905 -0.0031461657 -0.006776533 -0.0024869917 -0.0007303151 0.008892825 -0.0051962812 -0.0075599523
0.00036912324 -0.0075043784 -0.008833777 -0.004072408 -0.0022882158 -0.0003340034 0.004615805 3.4672717e-05
0.0050667287 0.0044576796 -0.007340506 -0.0049223886 -0.0076358207 9.098863e-05 -0.005988961 0.005428229
0.0013725333 -0.003554162 -0.0006763949 -0.0035994728 0.0023297705 0.007724263 0.005993214 -0.014219292
-0.0042596846 -0.007065008 -0.008448686 0.010383802 0.007813579 0.0030774977 0.004742846 -0.0027950143
-0.0017268314 -0.0047614654 0.00070312346 -5.0351093e-05 -0.00094953994 -0.0023804572 0.00011057391 -0.0024199656
-0.0016427232 -0.009214338 0.009235882 -0.012174329 -0.0035319354 0.0050760084 0.0046733096 0.010136633
0.0009465674 -0.005897942 -0.001816196 0.010940968 0.00090238894 -0.0038133336 -0.009492527 -0.006039115
-0.0072471946 0.004181332 -0.0046087955 -0.008589883 -0.00035897613 -0.0025631133 0.009967899 0.0009922034
0.0037424415 -0.0009877353 -0.007693548 -0.0062094703 -0.0026444318 -0.012102922 -0.006556034 0.0027274818
-0.0011683394 0.0012919691 -0.011075646 0.00014741068 0.006409785 0.0077787563 0.0016471326 -0.012912261
-0.005441901 0.0093128 -0.0027352725 -0.008529268 0.010474482 -0.006208275 0.0007547319 -0.0016196681
-0.009970002 0.0007338656 -0.004219997 -0.0052099214 -0.0061945687 -0.0011775877 0.0022254905 0.0066783056

network_body._body_endoder.seq_layers.2.weight f4 [128, 128]
00000000: 5eb6 233d ae85 a6bb b9da aebd d0e3 ecbb
00000010: bfb2 22be 4f4c 4fbd 7570 b33c 1d66 c3ba
00000020: f146 7a3d e062 083e e6c2 c6bc 3473 02bd
00000030: 35bd 25bd 8c0e 56be 46e3 bebd 63e5 8dbd
00000040: 97ce 15be d61e c0bc f51f 1e3e 5bda e5bd
00000050: bef1 57bd b5f0 90bd 7880 043e cfbb 01be
00000060: c5db 953c 616d 253d 8baa d63c 1dff 5c3d
00000070: 628a 2a3e dbc6 1fbe 683b e9bd 3042 53bd
00000080: fc43 9a3d c6b2 11be cdf4 993d 7737 b8bd
00000090: c9f3 2b3d 1f2a 29bd 49b6 43bd ff9a 17bd
000000a0: 8ca0 373d ea88 34bc 05e0 eebd 1313 b03d
000000b0: f832 43bc d797 a83d cc3f 3f3e 2516 0cbc
000000c0: 1c4e b6bd ac23 0fbe f9ca a33d 8bec 4d3d
000000d0: 2f07 8f3d 691d 94bd 2a14 ecbc 5665 f2bd
000000e0: bf54 963d 6a15 04be d701 14bd 893d e5bc
000000f0: 907a a6bd 887c 13bd fcf0 bdbd c4c9 a23d
00000100: 5de2 8b3d 3e37 963d 5f15 11bc 1461 d43d
00000110: b932 3cbd 3091 24be fc5a 683b 4310 d73d
00000120: 4197 7a3d fdce 7b3d 0fce 46bd a170 2c3d
00000130: 8495 69bd 62f7 113d 94e2 48be fb53 953d
00000140: 0d8b b3bc 8883 e9bd 4790 353d 6387 53bd
00000150: 7b5f cabd 8777 db3c d94b 6ebc e42f 6cba
00000160: 4d86 b33c aca4 a13b 7f16 143e fe1c 5a3e
00000170: c216 f4bd ff70 023b bd55 ae3c 47c4 b4bd
00000180: 35b9 01bd 3a6b c1bc 3664 db3b f7b4 e23c
00000190: 2008 bdbd 8e7b 0f3e d41a e6bb 791b 073e
000001a0: a1b5 b8bd 2422 313d 6941 85bb 0fd0 fdbd
000001b0: 4a2c 173e 22a3 503d 6a2e 2cbe 2199 27bc
000001c0: 4e0a 74bb 4bb3 833d 40c3 45bc f7ea f33d
000001d0: 1ad9 24be ca05 0dbe aa91 443d 647d 86bd
000001e0: 8965 153d b4d8 e03c a700 0ebe e3ad 143d
000001f0: f2f4 9cbd 5539 a53b b0f9 c93c ba80 8bbd
00000200: a1d1 963d 564a b73d 48b4 66be 8e67 52be
00000210: eda5 bdba c1a9 d0bd 3b18 093e 30d8 febc
00000220: 15a0 2d3e 8e2b debd 4038 bf3d c920 d1bd
00000230: 7d1e e53d 0815 a03c 7ce6 a7bd 193e a03b
00000240: 5f49 cabb b860 95bd 0bfd 633d 74ff c2bd
00000250: 88bf 11bd 0e01 693c 5f90 e1bd 5ac9 9b3a
00000260: f727 bf3d 904a 313d 5cc5 903d d7be 84bd
00000270: 4483 053d b15f 053d e92a 0a3e 6f39 2abe
00000280: 2092 773d 83e2 883d d2dd 12bd 4f45 0c3d
00000290: e2e2 a03d 2f8e 8bbd 555d 343c 3f00 adbd
000002a0: 2ed5 3abd 2ef8 193e 4508 a2bd 8fbf ac3d
000002b0: 10c4 173e 7c72 7dbd 5cf1 ee3d 0034 9ebd
000002c0: 032e 62bd 6b60 c83d 4f0f 083e 9a7a a0bc
000002d0: b96d e43d e69f 32bc 10f4 32be b9aa ee3d
000002e0: ba5f 96bd 06ff 493d 49a5 22bc 154a aebd
000002f0: df93 023e d8c5 15bc 5f3f 16be 6314 ac3c
00000300: 566c 933d 02c6 37bc ee5c da3d 5fb7 1f3a
00000310: dbe2 28bd e241 7c3c 9bcf 883d aaf1 583d
00000320: 0006 e63b 572e 363d d749 583c 635d 94bd
00000330: 5f13 89bd 4b31 e93d 81b1 2cbe 5564 883d
00000340: 19e8 b7bd 9a3b 083e 7303 5e3d f0e0 a2bc
00000350: 9334 673c bc64 a2bd eb04 85bc ac55 833d
00000360: 87d2 323d 132d 2c3e 9c4e 1fbe e11e 2d3e
00000370: 5802 813d 5f5c ef3c 2b2f d83d 96e2 a23d
00000380: d20f 28bd 9ca4 8fbd 6c3c 70bd a38f 71bd
00000390: d460 01be 564f 3fbd 9283 513e 05d0 d3bd
000003a0: c240 e1bd e656 dfbb e9fc 9fbd b748 8cbd
000003b0: e51e 9e3b bc4c 10bc ec7a 873d 5a9f ac3d
000003c0: 5174 003e baba 09be 2636 a0bd 51fc a33c
000003d0: 1485 22bd 6cd9 dcbd c21f 58bd 3607 5a3c
000003e0: d60a 273e d7af cdbd 2599 ce3c edc2 91bd
000003f0: f02f 093d 53c2 abbd 5059 df3c bd17 a0bd
0.03996884 -0.005081854 -0.08537812 -0.007229306 -0.15888499 -0.050609883 0.02190421 -0.0014907751
0.06110281 0.13318968 -0.024262857 -0.031848148 -0.040463645 -0.20903987 -0.09320693 -0.06928518
-0.14629589 -0.023452204 0.15441878 -0.112232886 -0.052720778 -0.07077161 0.12939632 -0.126693
0.01829327 0.040387515 0.026204368 0.053954232 0.16654351 -0.15603201 -0.11388284 -0.051576793
0.07532498 -0.14228353 0.07517395 -0.08994954 0.04198054 -0.041299935 -0.047781263 -0.03701305
0.044830844 -0.011018971 -0.11663822 0.08597388 -0.011914007 0.08232086 0.1867668 -0.008550202
-0.08901617 -0.13978451 0.07997698 0.050274413 0.06983792 -0.07232172 -0.028818209 -0.118357345
0.07340383 -0.12898794 -0.036134567 -0.027983444 -0.08128846 -0.036007434 -0.0927448 0.0794864
0.06830285 0.07334755 -0.008855193 0.10370079 -0.04594681 -0.1607101 0.0035454622 0.105011486
0.061179403 0.061476696 -0.048536357 0.0420996 -0.057027355 0.035636313 -0.19617683 0.07291409
-0.02191689 -0.11402041 0.044327047 -0.051642787 -0.09881493 0.026790394 -0.014544451 -0.0009009822
0.021914626 0.0049329605 0.14461707 0.21300122 -0.11918403 0.0019903777 0.021281118 -0.088264994
-0.031670768 -0.0236107 0.0066952957 0.027674181 -0.09230065 0.14011976 -0.007022241 0.13194074
-0.09019018 0.04324545 -0.0040666354 -0.123932 0.14762989 0.050936826 -0.1681458 -0.01022938
-0.0037237587 0.06430682 -0.012070477 0.1191005 -0.16098443 -0.1377174 0.04799048 -0.06566885
0.036473785 0.027447082 -0.13867436 0.036298644 -0.07663907 0.005042235 0.024655193 -0.06811662
0.07364202 0.08949725 -0.2252971 -0.20547315 -0.0014469005 -0.10188628 0.1338815 -0.031108946
0.16955598 -0.10848151 0.09336901 -0.102113314 0.11187456 0.019541278 -0.08198258 0.004890215
-0.0061732973 -0.07293838 0.055661242 -0.0952138 -0.03558305 0.014221443 -0.11013865 0.0011885569
0.093337946 0.043284 0.07068893 -0.06481712 0.032595888 0.03256196 0.13492931 -0.16623472
0.06044209 0.06683829 -0.035856076 0.034245785 0.078557745 -0.06814229 0.01100858 -0.084473126
-0.04561346 0.1503608 -0.079117335 0.084349744 0.14820886 -0.06187676 0.116671294 -0.07724762
-0.05521966 0.09784015 0.1328709 -0.019589711 0.111537404 -0.010902381 -0.17475915 0.116536565
-0.07342477 0.049315475 -0.009927102 -0.08510224 0.12751721 -0.009141408 -0.14672612 0.021005815
0.07198398 -0.011216642 0.10662256 0.0006092693 -0.04123197 0.015396567 0.066802226 0.052964844
0.007019758 0.044477787 0.013201199 -0.072443746 -0.06693148 0.11386355 -0.16864587 0.06659762
-0.08979816 0.13303986 0.05420251 -0.01988265 0.014111656 -0.0792937 -0.016237697 0.06412825
0.043657806 0.1681407 -0.15557331 0.1690631 0.06299275 0.02921885 0.105558716 0.07953374
-0.041030712 -0.070138186 -0.058651373 -0.058974873 -0.12634593 -0.04670652 0.20460346 -0.10342411
-0.1099868 -0.006815779 -0.07811911 -0.06849807 0.0048254603 -0.008807357 0.06615242 0.084288314
0.12544371 -0.13450137 -0.07822828 0.020017775 -0.039677694 -0.107836574 -0.05276466 0.013307383
0.16312727 -0.100433044 0.02521951 -0.07117257 0.033492982 -0.08386674 0.027264267 -0.07817028

network_body._body_endoder.seq_layers.2.bias f4 [128]
00000000: d33c 83bb 64e0 0e3c fdfc 03bc 8f0a 4d3b
00000010: 6726 db3b 612a 04bc 3c87 06bc 12aa c9bb
00000020: 7d98 fd3b a3fd 2cbc 6536 ca3b 3672 c2bb
00000030: 6d3e ba3b 8a96 5bbc eec0 0dbc c524 123b
00000040: cd9b d93b c5ec 9f3a 05f5 d23b 7605 a23b
00000050: e526 c63b eea0 08bc 7c67 613b 6037 b335
00000060: 4fc9 24bc a885 09bc df7a 1dbc d02d bdbb
00000070: 5ed5 25bc 3860 173c aa62 1ebc 457b fabb
00000080: dc51 883b 40c4 1cbc a6c0 cf3b 0be5 e9bb
00000090: 253b fe39 0080 eabb 1810 c5bb b5cd 153c
000000a0: 9d50 44bb 8aae 22bc b38c 683b edc6 08bc
000000b0: 70a6 983a a184 fbbb 6b34 9dbb da98 143c
000000c0: 3901 9abb cc2a b63b d64d 3bbc 2c6e 2fbc
000000d0: daea e8bb 198f c73b 853a fcbb 7142 ca3b
000000e0: c8c1 99bb 6d37 d3bb 68c9 9e39 0c96 d03b
000000f0: a140 f13b e002 ee3b 1f55 153b bdb3 ed3b
00000100: b2e2 de3b 7869 f93b f0d4 14bc 5a36 f9bb
00000110: 19d0 a43b c35b 22bb 0c1f 14bc d8ac 683b
00000120: eb88 923b d02b e83a 0a31 12bc c37b c13b
00000130: 17d9 a6bb d87e b63b 512d 09bc 96ea 68bb
00000140: ed9d 023c 94bc 5a3a 281d dd3b 2355 ccba
00000150: 92d9 e53b f1a5 e83b 5d7f b8bb 7aff cebb
00000160: 25be 5b3b 44d0 e13b 7b18 323b 2439 2fba
00000170: 3c2d fc3b a8dd 2c3c 626b eabb 275d ecbb
00000180: d412 8f3b a11a bb3b c502 a5bb 03e6 55bc
00000190: 82c1 14bb 5ab2 d6bb d067 ccbb 7819 afbb
000001a0: 17f4 a03b 3820 c7bb c26d 8bbb 1d70 1c3b
000001b0: cf73 f43b 3cac 913b 22e5 993b e29a 023b
000001c0: e3c9 bf3b 4a9c cdbb d5ed 8bbb fa82 f53b
000001d0: df45 0cbc 92cc faba 19b1 1c3c 60f3 b93b
000001e0: 1c44 e43b 3c17 e53b 9a84 fbbb 9cfa 8e3a
000001f0: b953 3cbc 5bd2 ddbb 5593 b23b d660 b23b
-0.0040050535 0.008720491 -0.008055923 0.003128681 0.0066879275 -0.008066745 -0.008210953 -0.006154307
0.0077391253 -0.010558519 0.006171035 -0.005934025 0.0056837113 -0.0134025905 -0.008651955 0.0022299748
0.0066408874 0.00122013 0.0064379 0.0049444987 0.006047117 -0.00833915 0.0034393957 1.3352656e-06
-0.010057761 -0.008393683 -0.009611814 -0.0057732835 -0.0101216715 0.009239249 -0.009667078 -0.0076440894
0.004160149 -0.009568274 0.006340104 -0.0071378998 0.0004849072 -0.007156372 -0.0060138814 0.009143283
-0.0029955276 -0.009929309 0.0035484254 -0.008348209 0.0011646282 -0.0076757227 -0.0047975085 0.009069646
-0.004699853 0.005559301 -0.011432132 -0.010707419 -0.0071080746 0.0060900566 -0.0076974058 0.006172471
-0.00469229 -0.0064458163 0.00030286168 0.006365543 0.0073624407 0.0072635263 0.0022786332 0.0072540925
0.0068019265 0.00761145 -0.009083971 -0.007605356 0.00502969 -0.0024773933 -0.009040605 0.0035503414
0.0044718883 0.0017713252 -0.008922825 0.005904646 -0.005091797 0.00556932 -0.008372621 -0.0035540215
0.007972223 0.00083441404 0.0067478605 -0.0015589338 0.007014462 0.00709986 -0.0056304173 -0.0063170763
0.0033530083 0.0068912823 0.0027175236 -0.0006684235 0.007695822 0.010550894 -0.0071539143 -0.007213253
0.004366258 0.0057099615 -0.0050357305 -0.013055327 -0.0022698347 -0.006552023 -0.0062379614 -0.0053436123
0.0049119103 -0.006076839 -0.0042550275 0.0023870536 0.0074600945 0.0044455808 0.004696504 0.0019928743
0.005852924 -0.0062747346 -0.004270295 0.0074924203 -0.00856158 -0.0019134453 0.009563708 0.0056747645
0.006966127 0.006991295 -0.0076757194 0.0010908428 -0.01149457 -0.006769461 0.0054496923 0.0054436726

action_model._continuous_distribution.mu.weight f4 [1, 128]
00000000: 8b49 c23c ee26 78bc 754d 923c d36b dbbb
00000010: 37ae bcbb a6d2 0c3c 91ff 143d e63f 9c3c
00000020: de77 0abc e8ec d839 417d 7dbc 5cb2 f53c
00000030: e9c0 4dbc 036f 433c bc81 e23c 2b46 d1ba
00000040: 7a65 f6bc acd7 f6bb 0c27 d6bb b79f 6fbb
00000050: 75cd eebc a5e4 793c 3c03 ecbb 0fbc 123d
00000060: 24fa 9d3c 553f 393c 828c c33c fd86 3f3d
00000070: 6e31 af3c 85b6 e0bc 5146 373c 1075 ad3c
00000080: 1d08 d7bc b832 8b3b cfd6 bebc 6ae4 313c
00000090: 99ad 153b db6e 373c 3e58 cb3b bdd4 69bc
000000a0: d45b a43b a404 863a c521 583a e9b0 933c
000000b0: d926 323d 181a b33b 1bee 433c 3532 edbc
000000c0: 9938 b13c 79fe 5cba 1e38 d938 9d4e 423c
000000d0: 7563 853b 1b90 0dbd 2801 d33b bdc2 d8bc
000000e0: abac 69ba f773 8c3b 430a a9b9 8322 d8bb
000000f0: df2f 11bc f408 00bd 4063 2fbc bb8c e6bc
00000100: 954d 2fbc 144b 8cbc c635 c03c 2853 df3a
00000110: 104f a3bc 8f41 fd3a bd41 4e3b 85d1 54bc
00000120: 6766 17bb 910f e73c 23f9 133d edd3 babc
00000130: 6544 98ba d781 3fbc 3d6b ab3c 5e0c 813c
00000140: a365 b8bc 9849 9aba 555a afbb b1e0 023c
00000150: 52c8 3abc 8949 1dbc 3e9b b93b a7f7 a53b
00000160: e999 babc 9267 3ebc fbae a0bb 97e3 1139
00000170: a90a 60bb 52d1 5fbc f9b6 9d3c ce43 8e3c
00000180: dd77 18bc f184 f5bc 9d9a 9c3c 2d22 553b
00000190: 356b c73c ea04 703b dd1e 843c 3ea4 1d3d
000001a0: bd05 e3bc 4b3c 8a3c 0f54 413c a9fb 20bc
000001b0: 66a0 e0bb dccf 8fbb 87a4 47bc b87d 6bba
000001c0: 4c64 09bd b88f a93c fa0f e83b d97f b9bb
000001d0: ea57 b439 57e4 de3a 8da5 d6bc 9130 2fbb
000001e0: 590c 38bd ccef 28bb 8eb6 013c f8b7 5e3a
000001f0: 1ddf 8c3c 79f7 913c 8dd8 bdbb f1d4 d9bc
0.023716709 -0.015146 0.0178592 -0.0066962033 -0.0057580727 0.008595144 0.03637654 0.019073438
-0.00845143 0.0004137524 -0.015471757 0.029992275 -0.0125582 0.011928323 0.027649753 -0.0015966346
-0.030077685 -0.0075330343 -0.0065354165 -0.0036563703 -0.029150704 0.015252267 -0.007202534 0.035823878
0.019284315 0.011306603 0.02387071 0.046759594 0.021385875 -0.027430782 0.011186198 0.021173984
-0.026248986 0.0042479895 -0.023295788 0.010857681 0.0022839068 0.011195864 0.0062055876 -0.014271912
0.0050158296 0.0010224772 0.0008244778 0.018028693 0.04349408 0.005465757 0.011958624 -0.028954605
0.021633433 -0.00084302534 0.00010357819 0.011859563 0.004070694 -0.034561258 0.006439347 -0.026460046
-0.0008913974 0.004286285 -0.00032241837 -0.006595911 -0.008861511 -0.03125854 -0.010704815 -0.028143277
-0.010699649 -0.017125644 0.023463141 0.0017038332 -0.01993516 0.0019321906 0.0031472289 -0.0129894065
-0.0023101808 0.028205665 0.036126267 -0.022806132 -0.0011617063 -0.011688671 0.020925159 0.015752967
-0.022509402 -0.00117712 -0.0053513446 0.007988141 -0.011400299 -0.009600052 0.0056642583 0.005064923
-0.022778468 -0.011621373 -0.004903672 0.00013913061 -0.0034186041 -0.013660746 0.019252287 0.017366316
-0.009305921 -0.029970618 0.019116694 0.003252159 0.024343112 0.0036624023 0.016127998 0.03848671
-0.027712697 0.016874453 0.011799826 -0.009825625 -0.0068550585 -0.0043887924 -0.0121852225 -0.0008983272
-0.033542916 0.020698413 0.0070819827 -0.0056609926 0.00034397776 0.0017005306 -0.026201988 -0.0026731829
-0.04493365 -0.0025777696 0.00791706 0.00084960414 0.017196232 0.0178182 -0.005793637 -0.026590796

exp_avg f4 [128, 6]
00000000: 305a e1b6 0000 0000 cccc cb37 fecd 78b7
00000010: 54d3 30a7 a992 2938 b041 80b9 0000 0000
00000020: 1509 3d38 2ebb 4eb9 90ab bb27 d29a fe37
00000030: 7781 2836 0000 0000 920c bdb7 e590 4235
00000040: b10f 99a7 f8e7 2eb7 b38c 0139 0000 0000
00000050: fb36 34b9 8014 ea37 a4fe 1d28 6be3 beb9
00000060: 6c0a 6537 0000 0000 5dae aeb7 3550 a736
00000070: c5af 1aa7 cd76 2cb7 845e b639 0000 0000
00000080: f282 e0b9 00e4 cd39 1ee0 dba8 4351 a3b9
00000090: f678 d0b9 0000 0000 c00f 6e3a e34f e8b9
000000a0: 1235 4427 2e5c 6e3a ad99 e939 0000 0000
000000b0: 0214 68ba 2a41 223a 5f46 8ba8 4e4e 33ba
000000c0: 5c51 9637 0000 0000 7078 4639 bafe 7eb8
000000d0: be22 8126 49e6 8c39 1a1b b736 0000 0000
000000e0: 9bbb 83b6 b617 a234 e1cc d326 58e1 0635
000000f0: 4003 ec34 0000 0000 4cb7 fd34 61aa 63b4
00000100: 3364 ad27 f812 b2b7 402a 3bb8 0000 0000
00000110: 08cf 8f38 5d6c 9db8 50e8 0e27 2458 21b9
00000120: 09e5 34ba 0000 0000 12c3 ea3a 5d30 49ba
00000130: 1fe6 4828 1460 d83a 16a8 ddb7 0000 0000
00000140: 2621 c638 89d6 9a37 4d10 eea7 8a1d e438
00000150: 1064 af39 0000 0000 228d dfb8 fa98 3d39
00000160: 1a95 00a5 669c 1db9 8a70 24b8 0000 0000
00000170: 6707 3339 3266 6bb8 8acb 4ea7 86cd 1839
00000180: eeef 92b7 0000 0000 a7b9 ca38 8689 5437
00000190: 14a4 73a6 7dff 9538 b216 15b8 0000 0000
000001a0: 7fa1 9f37 08fd 8cb6 3268 85a8 4aa6 5b38
000001b0: 80a1 b0b9 0000 0000 1b69 9f3a 4266 24ba
000001c0: ea04 b128 d2f6 5e3a 2c39 9b38 0000 0000
000001d0: 98fe b9b7 5b02 ad37 960f e827 a83d ffb8
000001e0: 8133 7b39 0000 0000 30f9 57ba 1414 b539
000001f0: e0f7 c4a7 45c4 39ba e9a9 9639 0000 0000
00000200: afc0 28ba 7bd3 ce39 b728 35a7 4c70 e6b9
00000210: 4e09 7039 0000 0000 86b2 37ba b4bb 9f39
00000220: 91bc dfa8 b6fb 5cba 5b64 e7b9 0000 0000
00000230: 059d 983a c717 2bba bb3e 4628 4701 743a
00000240: 2a1f 6fb7 0000 0000 24da c938 8a14 23b7
00000250: fa03 5ba7 7a43 9d38 f67b b8b8 0000 0000
00000260: d004 8db9 a403 8fb6 59dc 61a8 7e2a 85b9
00000270: 1d24 8636 0000 0000 581f 2e35 f68c 73b5
00000280: 153e 96a6 f34b a3b7 00ac d738 0000 0000
00000290: 7cce 4cb9 2dab ff38 17c1 d8a7 1c29 32b9
000002a0: 9036 1b39 0000 0000 1ece 6bb8 7b40 1c38
000002b0: ed15 2e27 125b 19b8 7442 7838 0000 0000
000002c0: 7f04 c0b8 6e08 1cb6 b40d 1e28 6a14 a9b8
000002d0: fe6f 6f39 0000 0000 7365 2fba d0b1 af39
000002e0: fc07 efa7 1fb5 0aba 5b52 243a 0000 0000
000002f0: a76c 73ba 7885 543a ea7b 08a9 ae5b 0fba
00000300: 26e8 a2b9 0000 0000 4c3c 1b3a 68bc b0b9
00000310: db57 ada6 e907 013a 3d9b b2b7 0000 0000
00000320: 0cf2 8039 3bf2 62b7 5446 01a9 248c 5538
00000330: 93af 8838 0000 0000 f810 f7b9 083a 5f39
00000340: 1749 f6a7 d1c9 afb9 2092 a639 0000 0000
00000350: 5ce3 57ba 10c7 d039 ebc1 a7a7 f37e 24ba
00000360: 9050 6139 0000 0000 4c7c deb9 3005 8939
00000370: 7c99 46a7 88e4 bab9 90c3 7f39 0000 0000
00000380: aab7 f4b7 e458 e438 c771 3da7 6f89 d1b8
00000390: 58fc 60b8 0000 0000 1213 c038 529b 88b8
000003a0: cd4c 2b28 bc98 0738 908c 0a37 0000 0000
000003b0: e852 d1b7 b87c 8e36 eea8 8e26 9286 61b8
000003c0: 2279 3db9 0000 0000 8aae f139 7e8b 6fb9
000003d0: d099 c927 6e30 d839 6666 e3b9 0000 0000
000003e0: 06b9 4e3a b4da d0b9 b800 6727 0ada 563a
000003f0: bbea a1b8 0000 0000 72b1 7039 d6bd dcb8
-6.7160217e-06 0.0 2.4294852e-05 -1.4829913e-05 -2.4539468e-15 4.0429328e-05 -0.00024463004 0.0
4.506957e-05 -0.00019715421 5.2088935e-15 3.0351253e-05 2.510931e-06 0.0 -2.253641e-05 7.248148e-07
-4.2483043e-15 -1.0425218e-05 0.00012354813 0.0 -0.0001718662 2.790452e-05 8.770467e-15 -0.00036409064
1.365189e-05 0.0 -2.082361e-05 4.986325e-06 -2.1467078e-15 -1.0279659e-05 0.00034784165 0.0
-0.0004282217 0.0003927052 -2.441108e-14 -0.00031150327 -0.00039762974 0.0 0.00090813264 -0.00044310009
2.7229234e-15 0.00090927153 0.0004455572 0.0 -0.0008853079 0.000618952 -1.5462619e-14 -0.00068399764
1.791928e-05 0.0 0.00018927618 -6.079555e-05 8.96059e-16 0.00026874457 5.45698e-06 0.0
-3.9259444e-06 3.0192103e-07 1.4696599e-15 5.024681e-07 4.396079e-07 0.0 4.7258288e-07 -2.1203006e-07
4.812578e-15 -2.1228087e-05 -4.4623623e-05 0.0 6.857334e-05 -7.5065276e-05 1.9832396e-15 -0.00015386991
-0.0006900584 0.0 0.0017910919 -0.0007674748 1.115213e-14 0.0016508126 -2.6423524e-05 0.0
9.44755e-05 1.8458131e-05 -6.6075943e-15 0.00010877389 0.00033453153 0.0 -0.00010659757 0.00018081433
-1.1152748e-16 -0.0001503095 -3.9205457e-05 0.0 0.00017073528 -5.6123543e-05 -2.8698582e-15 0.00014572413
-1.7516282e-05 0.0 9.666691e-05 1.2668204e-05 -8.452993e-16 7.152462e-05 -3.5545505e-05 0.0
1.902948e-05 -4.201782e-06 -1.4811154e-14 5.2368538e-05 -0.00033689663 0.0 0.0012162061 -0.0006271341
1.9653079e-14 0.0008505407 7.401625e-05 0.0 -2.2172273e-05 2.0624304e-05 6.4409834e-15 -0.00012170832
0.00023956412 0.0 -0.0008238731 0.0003453797 -5.4669675e-15 -0.00070864364 0.00028736822 0.0
-0.00064374035 0.00039448947 -2.5140867e-15 -0.00043952686 0.0002289165 0.0 -0.0007007498 0.00030466693
-2.4839751e-14 -0.0008429842 -0.00044134524 0.0 0.0011643475 -0.00065266754 1.10048104e-14 0.00093080517
-1.4252766e-05 0.0 9.625059e-05 -9.720339e-06 -3.039451e-15 7.498912e-05 -8.796893e-05 0.0
-0.000268972 -4.262156e-06 -1.2537789e-14 -0.00025399396 3.9977153e-06 0.0 6.486566e-07 -9.072968e-07
-1.0425168e-15 -1.946648e-05 0.000102840364 0.0 -0.00019531877 0.000121912315 -6.016139e-15 -0.00016990717
0.00014802278 0.0 -5.6220328e-05 3.725335e-05 2.4159237e-15 -3.656286e-05 5.9189697e-05 0.0
-9.156111e-05 -2.3250718e-06 8.773733e-15 -8.0623504e-05 0.00022834537 0.0 -0.00066908373 0.00033511082
-6.6344482e-15 -0.00052912714 0.00062683754 0.0 -0.0009285905 0.00081070466 -3.0305545e-14 -0.00054686784
-0.00031072012 0.0 0.00059217657 -0.0003370971 -1.20281e-15 0.0004922138 -2.1291542e-05 0.0
0.00024594401 -1.3527048e-05 -2.8704754e-14 5.0913673e-05 6.5176886e-05 0.0 -0.00047124154 0.00021288556
-6.835796e-15 -0.00033528966 0.0003177086 0.0 -0.00082354783 0.00039821165 -4.6562058e-15 -0.00062750204
0.00021487684 0.0 -0.00042435748 0.0002613454 -2.7561224e-15 -0.00035646954 0.00024391548 0.0
-2.9172592e-05 0.000108884444 -2.6290698e-15 -9.9914956e-05 -5.3640775e-05 0.0 9.1588256e-05 -6.513916e-05
9.50906e-15 3.2328753e-05 8.258168e-06 0.0 -2.4953348e-05 4.246449e-06 9.899018e-16 -5.376951e-05
-0.0001806957 0.0 0.00046097144 -0.00022844781 5.595547e-15 0.00041234813 -0.00043373107 0.0
0.0007885847 -0.00039835798 3.205808e-15 0.00081959425 -7.7208e-05 0.0 0.00022954287 -0.00010525777

exp_avg_sq f4 [128, 6]
00000000: e233 a431 0000 0000 2b39 c933 3301 dc2f
00000010: 4c21 292b 5b9f ae33 86c7 3b36 0000 0000
00000020: 6d25 3e34 c6d0 6635 296e c42a af18 0134
00000030: 3d55 b72e 0000 0000 cd4a 7830 8690 a32d
00000040: 8cc0 492a 3ad4 be30 0874 6937 0000 0000
00000050: 402d 2135 6291 8136 38ad 382c 688f d434
00000060: 6f42 f12e 0000 0000 177b de2f 5e73 f12d
00000070: a7b5 b529 24e7 1830 dbf9 a336 0000 0000
00000080: 5cd4 7736 1605 f435 fe74 172d 922b 3636
00000090: 8b9f d936 0000 0000 d36c a536 5b0c 5b36
000000a0: 5af4 182c f995 7336 ac68 e435 0000 0000
000000b0: 0e6a 9f36 38ce b935 427a 1f2d ab14 7236
000000c0: de91 1736 0000 0000 1651 e234 39f8 3435
000000d0: eff5 632a 10ab b134 93a4 2632 0000 0000
000000e0: 6ce7 2e33 27e7 282c aafd 3c2a da39 1a33
000000f0: 62b5 dc31 0000 0000 24b7 8a32 9bee ea2c
00000100: 012a f629 f91a 7032 8f1e a136 0000 0000
00000110: b1fe b733 a9bf a135 51df a22a 4349 7a33
00000120: f26f b336 0000 0000 660e 2837 088f 7d36
00000130: edc9 002d 9a2c f936 bdf2 5f32 0000 0000
00000140: 3e38 8a34 c77e 8c31 c5b2 032c 054a 5b34
00000150: 2456 3736 0000 0000 55f3 7d33 2482 5e35
00000160: e8b5 a329 c469 2833 492b 0134 0000 0000
00000170: 26e0 6634 2016 4f33 b687 4a2a 6347 2c34
00000180: 9c25 e732 0000 0000 965d a733 98c8 6730
00000190: d0e4 ee29 178b 8433 ef3c 8732 0000 0000
000001a0: fd49 5932 adfa 7031 d6da a32b 434e 9932
000001b0: 20fb 8835 0000 0000 3363 4637 6e55 b635
000001c0: aca4 a02d f0fe 1a37 d135 2231 0000 0000
000001d0: 6db7 e232 d863 1030 4215 ee2b b6f5 1633
000001e0: c1bb bd34 0000 0000 b5e5 8636 7116 f634
000001f0: 1591 512c 3c09 5436 ec26 7235 0000 0000
00000200: d6d0 e935 5f5e 1035 01c4 182c 05ba b135
00000210: f7c7 2636 0000 0000 0b4d ca36 f44d 0336
00000220: e3e6 7f2d b13f 9836 729e 9635 0000 0000
00000230: ccce ec36 ef17 a235 4f7a 222d 7b75 b636
00000240: 9b8f c531 0000 0000 f400 4132 e5ff 8330
00000250: 0fd0 1f2a dd99 2332 8b8c 7e34 0000 0000
00000260: 952f 8b35 1805 dd33 c723 6c2c 5c0d 5e35
00000270: 2fba 6330 0000 0000 0f03 aa2f f66d 9e2f
00000280: 154b d228 80e5 d12f 24e1 d533 0000 0000
00000290: 3318 f734 f2cd f933 7204 212c 0652 c234
000002a0: fcdf b334 0000 0000 54af 2731 551b 3933
000002b0: 76ef 232a a03d f430 ec61 0833 0000 0000
000002c0: a35b cb33 c6dc 2a2e 3c74 db2b 7583 b033
000002d0: 6047 8636 0000 0000 c631 0836 8e75 e835
000002e0: d617 4b2c 9faf bd35 2680 c236 0000 0000
000002f0: 2098 1137 c73f 6536 dc57 872d 05d5 de36
00000300: 57f5 2936 0000 0000 76a7 da35 72c0 a035
00000310: c1ca 0c2b 9fa7 a135 8efd 2a35 0000 0000
00000320: 7b87 4936 18ad 3a30 0f72 632d 1fb2 1c36
00000330: 1696 8a35 0000 0000 8645 a635 af85 aa34
00000340: 5025 c62b d2a3 7f35 cdd9 e835 0000 0000
00000350: f8f7 0336 8bbc 4635 9306 222c f493 cd35
00000360: 9551 9e35 0000 0000 bf64 9935 492c 0f35
00000370: 0dd9 e32a cc40 7335 66f7 5136 0000 0000
00000380: ab2a 2133 e842 5435 20a5 8f2a 038e c132
00000390: edcc c132 0000 0000 a245 2034 0417 d431
000003a0: 0d35 ae2a f36b f033 5b8c 8932 0000 0000
000003b0: fbcb 7233 310b 3531 4e62 b029 65c1 3e33
000003c0: 854f 1f33 0000 0000 4ec0 bc34 a45d 5133
000003d0: 9611 932b 3dd8 9134 5e74 9d37 0000 0000
000003e0: b5dd 0a36 aa88 c136 eebe 922b c123 bf35
000003f0: 431b 5134 0000 0000 cc80 a433 8144 ab33
4.7789266e-09 0.0 9.370191e-08 4.001862e-10 6.008707e-13 8.131493e-08 2.798131e-06 0.0
1.7708744e-07 8.598548e-07 3.4893033e-13 1.2023041e-07 8.337018e-11 0.0 9.032817e-10 1.8595136e-11
1.791919e-13 1.3884638e-09 1.3914898e-05 0.0 6.004302e-07 3.8614244e-06 2.6244128e-12 3.959242e-07
1.0971212e-10 0.0 4.0469025e-10 2.7449761e-11 8.0695264e-14 5.562575e-10 4.8868656e-06 0.0
3.6929478e-06 1.8180897e-06 8.609334e-12 2.7145475e-06 6.485677e-06 0.0 4.930052e-06 3.2640735e-06
2.1736142e-12 3.6297117e-06 1.7017787e-06 0.0 4.7509157e-06 1.3843592e-06 9.06525e-12 3.607284e-06
2.258566e-06 0.0 4.2154778e-07 6.7416437e-07 2.0246975e-13 3.3093283e-07 9.699892e-09 0.0
4.072301e-08 2.4002551e-12 1.6785762e-13 3.5908535e-08 6.4234635e-09 0.0 1.6148597e-08 6.6771705e-12
1.0931881e-13 1.39759715e-08 4.8017314e-06 0.0 8.56793e-08 1.2051215e-06 2.8931938e-13 5.8274292e-08
5.347648e-06 0.0 1.0016933e-05 3.7783193e-06 7.320794e-12 7.4259706e-06 1.3035501e-08 0.0
2.5745425e-07 4.088949e-09 1.8715457e-12 2.0422893e-07 2.7319265e-06 0.0 5.9127462e-08 8.2890824e-07
7.27021e-14 3.921174e-08 1.2029808e-07 0.0 2.1501964e-07 4.8216066e-08 1.7988288e-13 1.6044719e-07
2.6909042e-08 0.0 7.793567e-08 8.432237e-10 1.0609016e-13 6.172029e-08 1.5743778e-08 0.0
1.2647885e-08 3.506709e-09 1.1642586e-12 1.7847134e-08 1.0205877e-06 0.0 1.1824816e-05 1.358492e-06
1.8263023e-11 9.238473e-06 2.3604694e-09 0.0 2.6393275e-08 5.252878e-10 1.6916817e-12 3.514807e-08
3.5340602e-07 0.0 4.0202526e-06 4.58374e-07 2.9781223e-12 3.1595837e-06 9.0208664e-07 0.0
1.7420632e-06 5.378151e-07 2.1709303e-12 1.3241666e-06 2.4852322e-06 0.0 6.029038e-06 1.9565896e-06
1.4546339e-11 4.5373677e-06 1.1221985e-06 0.0 7.0574224e-06 1.2076906e-06 9.235792e-12 5.437699e-06
5.7497807e-09 0.0 1.1234295e-08 9.604234e-10 1.4194222e-13 9.522833e-09 2.3706723e-07 0.0
1.0370155e-06 1.0292041e-07 3.3557478e-12 8.2720885e-07 8.28467e-10 0.0 3.0924993e-10 2.8818165e-10
2.3347245e-14 3.8179948e-10 9.959538e-08 0.0 4.6024942e-07 1.1632427e-07 2.2881944e-12 3.6194996e-07
3.3504318e-07 0.0 2.440136e-09 4.3098527e-08 1.4560388e-13 1.7770851e-09 3.1754027e-08 0.0
9.469593e-08 3.884961e-11 1.5593147e-12 8.2195506e-08 4.0018203e-06 0.0 2.0294551e-06 1.731956e-06
2.8861267e-12 1.413271e-06 5.796569e-06 0.0 8.678093e-06 3.4160782e-06 1.538674e-11 6.6409143e-06
2.532577e-06 0.0 1.6291003e-06 1.1976938e-06 5.001937e-13 1.2044219e-06 6.3698906e-07 0.0
3.0030194e-06 6.7912387e-10 1.2928782e-11 2.3349492e-06 1.0325482e-06 0.0 1.2388198e-06 3.1762235e-07
1.4079102e-12 9.523329e-07 1.7348735e-06 0.0 1.9664858e-06 7.4035114e-07 2.3025234e-12 1.531675e-06
1.1795661e-06 0.0 1.1428709e-06 5.3336095e-07 4.047391e-13 9.0618846e-07 3.1287432e-06 0.0
3.752454e-08 7.9073516e-07 2.551648e-13 2.2532737e-08 2.2561347e-08 0.0 1.4926493e-07 6.1726286e-09
3.094542e-13 1.1195507e-07 1.6012725e-08 0.0 5.6530535e-08 2.6345328e-09 7.833023e-14 4.4413714e-08
3.7092395e-08 0.0 3.515765e-07 4.874677e-08 1.0449859e-12 2.716569e-07 1.8770046e-05 0.0
2.0692653e-06 5.767758e-06 1.0426918e-12 1.4241015e-06 1.947456e-07 0.0 7.660273e-08 7.975269e-08

exp_avg f4 [128]
00000000: 6ea4 b7b7 1fce 32b8 68c6 1eb7 5762 80b8
00000010: 5f3e 12b7 8200 0c39 7ff0 63b8 3a5b 0239
00000020: 3315 15b8 509e 5ab5 f010 67b6 46c0 1638
00000030: 48ff 2cb8 129e ad38 6172 e5b6 e0eb 06b7
00000040: 4f68 3638 39b4 0637 0a36 4fb9 dafe 19b7
00000050: 56f3 fb37 1bdd 4038 c389 2039 5c08 0cb9
00000060: ff19 2138 1bc0 02b7 7840 dd34 e879 2f38
00000070: ecb3 c8b7 9bbe 7cb8 028b 7038 a5b0 3439
00000080: 3813 71b6 b31f 1a39 5a14 2538 120f 5a38
00000090: 0f1e 5637 cd18 5bb7 6fd9 a2b6 f684 ffb5
000000a0: 273e fdb7 4e21 9cb7 aa40 0d38 8c8a 7038
000000b0: 528b 5d36 ce87 2537 e94e e237 f4bb d7b8
000000c0: 3c16 14b6 e314 8b36 3112 5736 3a40 0637
000000d0: 92b3 bbb7 9f1b 0d38 ac4f 2cb6 3e72 ee37
000000e0: 8035 a936 4a65 2737 593b de38 1550 89b7
000000f0: fcb6 30b9 e59a 4db7 b8d1 45b8 95e0 52b6
00000100: 96e5 2738 2a0f c137 a3f6 e7b7 048c b136
00000110: 73dc 0bb8 967f 4337 b2e2 ee36 e903 c936
00000120: 885f 93b6 9806 e5b7 686b dab8 0fef 5638
00000130: 4edf d1b6 009f aeb8 1e11 beb7 834e 0137
00000140: 50a1 b237 c2b8 8938 e309 2a37 d53f f5b8
00000150: 46ee 29b8 dd9a 0738 e213 0e38 36a8 ca38
00000160: f408 e738 2e6d dbb7 6df9 f9b6 63b4 ed35
00000170: 983f 5338 71d8 b3b7 8ff0 44b8 720c c4b7
00000180: eb59 87b7 968e 2238 a936 ee37 f259 5a37
00000190: c8d5 cc36 1f34 b038 c475 b936 c11c ff36
000001a0: 024d 6ab7 dd8c 2d38 d15d 0138 8e77 d137
000001b0: a9ae 2bb8 737f 6db8 122a d1b6 0489 04b8
000001c0: 99a3 2738 c71b 29b9 c5a0 37b8 e9f0 0f37
000001d0: 90f6 85b8 735e 7e38 52c2 20b8 86cc 2437
000001e0: 124d 8338 1234 e437 2eec 9db7 7e31 0538
000001f0: 8ed5 ed38 1f2b 9437 6787 57b7 8d14 e1b7
-2.1891869e-05 -4.2630472e-05 -9.463729e-06 -6.121833e-05 -8.7168e-06 0.0001335163 -5.4344997e-05 0.0001243175
-3.554411e-05 -8.1441704e-07 -3.4431541e-06 3.5941855e-05 -4.1245745e-05 8.278726e-05 -6.8380473e-06 -8.041941e-06
4.3489326e-05 8.028984e-06 -0.0001976119 -9.178848e-06 3.0034844e-05 4.5982288e-05 0.0001531011 -0.00013354555
3.8409602e-05 -7.793332e-06 4.1211365e-07 4.1836785e-05 -2.392564e-05 -6.0258997e-05 5.734992e-05 0.00017231943
-3.5922985e-06 0.00014698393 3.935802e-05 5.1989286e-05 1.27623925e-05 -1.3059192e-05 -4.853289e-06 -1.9037677e-06
-3.0188892e-05 -1.8612158e-05 3.3677243e-05 5.734949e-05 3.3012661e-06 9.866386e-06 2.6978045e-05 -0.00010287008
-2.206666e-06 4.1449543e-06 3.2048085e-06 8.001976e-06 -2.2375756e-05 3.3642744e-05 -2.5676372e-06 2.8425009e-05
5.0428207e-06 9.977559e-06 0.00010596839 -1.6368964e-05 -0.00016852835 -1.2255016e-05 -4.7163776e-05 -3.1423162e-06
4.002972e-05 2.3014454e-05 -2.7652195e-05 5.291311e-06 -3.3345492e-05 1.1652612e-05 7.1193435e-06 5.990722e-06
-4.3920627e-06 -2.7301998e-05 -0.00010415056 5.1244217e-05 -6.2546815e-06 -8.3265826e-05 -2.2657736e-05 7.707279e-06
2.129437e-05 6.567083e-05 1.01350915e-05 -0.000116944 -4.051465e-05 3.2330736e-05 3.3873956e-05 9.663442e-05
0.00011016606 -2.6157675e-05 -7.4498153e-06 1.7710375e-06 5.0365546e-05 -2.1439251e-05 -4.695408e-05 -2.3370816e-05
-1.6135125e-05 3.8756603e-05 2.8397264e-05 1.3014755e-05 6.104561e-06 8.402042e-05 5.5271394e-06 7.6029396e-06
-1.3965417e-05 4.1377603e-05 3.084337e-05 2.4970414e-05 -4.0932242e-05 -5.66239e-05 -6.233583e-06 -3.159886e-05
3.9968265e-05 -0.00016127444 -4.378033e-05 8.5795555e-06 -6.38786e-05 6.064628e-05 -3.8327948e-05 9.822781e-06
6.260922e-05 2.7203965e-05 -1.8825838e-05 3.1755764e-05 0.00011340818 1.7663055e-05 -1.2846524e-05 -2.683166e-05

exp_avg_sq f4 [128]
00000000: 3171 9d30 ad8a ef31 3acd 302f cbaf 1833
00000010: ab6d 9e2e 4a79 f432 019c e732 0e36 c032
00000020: ed4d ba31 194a 302f a33c 382f fed6 2e32
00000030: 7c1e 3533 2cb2 6731 194d d731 61ad 3c30
00000040: 5c51 4430 30bd 1a31 d844 3e33 c776 a131
00000050: bba6 3232 8229 0b32 dc54 2d33 c9b8 d032
00000060: 41e6 2430 71b4 8431 864f 712e b339 5431
00000070: 6fe9 ec2f 2b02 1c31 e462 8a32 4dc7 5c33
00000080: b9dc 1a32 1da5 d032 aa2f d631 883f 0232
00000090: 982f 9531 8f90 e731 64d8 6b30 5edd 4c2f
000000a0: e6d3 0c31 e82a 5833 9f8d 9e30 8222 f632
000000b0: 35ff f42d f122 0232 b7cd ee2f aa12 8133
000000c0: aa0b 0c31 a68f 532e c04e 672e baa5 1132
000000d0: c863 8831 fc34 3031 cbfb 052f 3bf8 a12f
000000e0: ab64 9230 ed3c fc2f 3104 a432 1209 1b30
000000f0: 51ef 1633 382f 1d30 f5c6 c632 72e2 1c2f
00000100: 704e f231 bf23 0731 f15d 0431 c0e0 5b32
00000110: 045a 3e31 84a1 8a31 3fd7 cf2f aa46 622f
00000120: bc84 c732 30c6 0a32 b62c a532 f17d 9f30
00000130: cd8d c530 3568 9f32 daa3 0e33 709b 4430
00000140: f02b 0d31 2597 9531 0008 5831 d716 0f32
00000150: d69a 4b32 1153 a831 6f31 f730 ec2a b033
00000160: 2a0a 3932 1629 1632 d4dd 3331 a327 b32d
00000170: 173d a331 98ac 1230 ad19 2b30 21a5 3533
00000180: de9a 8b32 7709 b632 ca45 2e31 31b1 5a30
00000190: 4e31 412f 9d9f 8631 6f3c f030 3f6a 2931
000001a0: 3007 c130 d93f 9931 dd0e b72f 3bdb f82f
000001b0: 9249 1633 a115 a832 c726 ec31 00b6 9030
000001c0: c673 e531 eb25 5933 fc7b da30 f197 5730
000001d0: aaf9 3f31 e712 8433 3a1f 5232 f86f 1130
000001e0: 24bb 0931 3306 1532 c653 0631 80a6 c032
000001f0: 01de 0f33 6621 9a2f 0d0a c230 a747 b032
1.1455424e-09 6.971581e-09 1.6080018e-10 3.555014e-08 7.204489e-11 2.8460494e-08 2.6962882e-08 2.2376323e-08
5.4221716e-09 1.6033432e-10 1.6756245e-10 1.0177017e-08 4.2170072e-08 3.3716203e-09 6.2660885e-09 6.864039e-10
7.1420003e-10 2.251749e-09 4.4300435e-08 4.69922e-09 1.0398874e-08 8.100303e-09 4.035688e-08 2.4298418e-08
5.9990063e-10 3.8622194e-09 5.4867687e-11 3.0882858e-09 4.3094014e-10 2.270222e-09 1.6110285e-08 5.1404005e-08
9.014166e-09 2.4289472e-08 6.2336385e-09 7.581441e-09 4.3418815e-09 6.7394192e-09 8.580001e-10 1.8632337e-10
2.0493132e-09 5.0330442e-08 1.1536264e-09 2.8653862e-08 2.7852923e-11 7.574941e-09 4.3438117e-10 6.0104256e-08
2.0379312e-09 4.810343e-11 5.2593263e-11 8.477793e-09 3.9694648e-09 2.564149e-09 1.2185734e-10 2.9462108e-10
1.065151e-09 4.5881823e-10 1.9094019e-08 5.640156e-10 3.5142254e-08 5.718337e-10 2.3140709e-08 1.4268567e-10
7.0520443e-09 1.9665405e-09 1.9261928e-09 1.279858e-08 2.7699807e-09 4.034691e-09 3.7806022e-10 2.0579685e-10
2.322701e-08 8.07772e-09 1.922886e-08 1.1604567e-09 1.4373939e-09 1.8557424e-08 3.3210974e-08 7.1525275e-10
2.0543176e-09 4.353654e-09 3.1436684e-09 8.328889e-09 1.1851361e-08 4.898887e-09 1.7985665e-09 8.203446e-08
1.0770728e-08 8.740491e-09 2.6174023e-09 2.0367546e-11 4.7508695e-09 5.335976e-10 6.2245925e-10 4.229253e-08
1.6252155e-08 2.1191893e-08 2.5360003e-09 7.955974e-10 1.7570764e-10 3.918059e-09 1.7479475e-09 2.465313e-09
1.4044641e-09 4.4601447e-09 3.3298067e-10 4.526671e-10 3.499151e-08 1.956761e-08 6.8729125e-09 1.0529106e-09
6.677939e-09 5.0558736e-08 1.5896826e-09 7.8432466e-10 2.7936076e-09 6.150167e-08 1.2230709e-08 5.290981e-10
2.00425e-09 8.674351e-09 1.9547186e-09 2.2427457e-08 3.3496693e-08 2.8036168e-10 1.4118214e-09 2.052168e-08

exp_avg f4 [128, 128]
00000000: 5ccb e536 28ca b4b7 a657 a636 7f46 93b7
00000010: b087 dbb6 9342 4537 c187 3fb7 c780 ce37
00000020: 5052 7237 9def d5b6 9a6c 3e36 fc9d 93b7
00000030: 783f dab5 86b1 5b36 8444 11b7 d50e dd37
00000040: fcc6 65b6 d40d fb35 06f2 ef37 86b8 48b4
00000050: 0fe4 c437 031c 0438 c4f6 a538 d2f1 0937
00000060: da06 bdb6 8c80 0fb8 bc58 5bb6 5d3f 5337
00000070: f011 f6b6 6b6c 71b6 52dc 5937 e941 6938
00000080: 4cba 4cb8 885e 3b37 e022 11b7 50b3 c6b7
00000090: 70d8 69b7 7896 c135 134f 2838 c0c4 ae32
000000a0: de62 8d37 52dd dab7 a753 81b7 3671 ddb7
000000b0: 624e c5b6 c7b1 00b7 01b2 b8b6 9418 ab37
000000c0: 56ae 87b8 a232 f3b6 ca3b e5b6 c6d3 acb7
000000d0: c15c 72b7 e9e6 26b7 a552 ceb6 2eca 8fb6
000000e0: 6268 a035 34bc 8a35 425a 0c38 7c41 d7b6
000000f0: 8e69 8b36 30ef b434 e26c b2b7 c4f5 5f37
00000100: 6184 04b7 c5c2 a837 6372 a237 541d acb4
00000110: e68a 1537 f79c 1db8 78a6 1a34 dc21 89b6
00000120: dad7 66b6 905f 2538 1a8d 2c37 ea0d 74b6
00000130: b065 1838 28bf b337 5ab2 00b8 dd86 05b7
00000140: 6028 2035 a591 d437 3eac c937 58f9 ef37
00000150: 1839 9c38 3e80 b437 46f5 d936 96b7 b5b7
00000160: 27f5 9837 ef24 69b8 963e 6db7 d66f 33b6
00000170: 0070 0e36 087c cab7 12dd a737 d08d abb7
00000180: 1acb 53b8 70d7 edb4 f19b 0637 00c0 2337
00000190: 9eed afb6 ee24 53b5 b01f 8e34 a3f8 3fb8
000001a0: 8fd1 6237 8a06 0fb7 2a1b b4b6 e0b6 b5b5
000001b0: 00a2 4433 9375 61b7 513e 31b8 c069 6e38
000001c0: fb4a 6837 f583 ab37 9461 2038 5f90 3136
000001d0: d1f5 e635 6484 c434 602c d236 6c72 bb37
000001e0: f801 7fb6 19c9 07b8 16b5 9a36 e05b 08b3
000001f0: 4a96 63b5 1e63 d1b6 383e 8fb5 db24 a5b6
00000200: 6c4f a7b6 b5d7 6438 52fb 4137 be01 6238
00000210: 2167 a037 3dab 8cb8 ce7b 5238 57fa 07b9
00000220: 17cc f3b8 5097 8637 8a07 1e37 aefd 3438
00000230: 68b5 dbb8 1ae2 f9b7 6b23 2438 4745 2fb9
00000240: b05b 5437 34aa 9937 dcbf 1fb9 7329 cc37
00000250: 58cf 68b8 fac0 3db9 9e24 69b9 df89 09b9
00000260: 604d 9337 e2e8 d4b8 adda be37 7f8c 69b8
00000270: 5051 9637 382f 0137 5494 83b7 03bb 82b9
00000280: ae18 09b7 8eb0 74b6 f587 5d37 fea3 ca37
00000290: e52e afb8 200a c0b8 e054 30b8 33d5 1436
000002a0: 77be 31b8 47ca f437 0a95 4c39 35d3 ec37
000002b0: cb2c a737 1ac9 1fb8 4d3a 4937 4667 1cb9
000002c0: da76 9238 4ddd 6f37 9553 9437 fe86 b237
000002d0: 6e71 cab8 ba72 2336 1d57 ac37 43fb 9337
000002e0: 600f 68b7 db87 99b7 0b24 67b9 a4e0 b337
000002f0: a923 4db8 5081 9337 5a4b 6ab6 00ac f6b3
00000300: 6e0a e437 88b7 dab7 f574 78b8 5619 1f38
00000310: 6257 cdb7 fba2 e637 87cd 39b7 82fd 6b37
00000320: 6ed2 d738 8e6f 49b9 6808 b1b8 6252 0737
00000330: 7a75 fbb8 7571 d0b8 a5a9 0c38 47e6 90b7
00000340: b853 2a38 d022 09b9 24e7 fdb8 1cd2 1cb9
00000350: 894a b6b9 d995 edb8 a6a7 44b8 9a28 9d37
00000360: 3890 27b8 f62b 1338 2e4c 68b7 e33a be36
00000370: fe8c fab7 525e fc38 6646 6ab8 6e9a dab8
00000380: 0d4f 14b7 ec64 0db7 4755 95b7 8497 8cb7
00000390: 5014 7a37 858e 4cb7 3c75 c1b7 64f5 a938
000003a0: 9807 b7b7 f4df 1d36 92a1 8837 2d86 8f37
000003b0: 253c 8038 0862 ee36 682a d738 c472 9cb9
000003c0: 9057 30b8 c92d 12b9 c8a7 33b9 3ef4 18b5
000003d0: 3f81 c0b7 e4f8 79b7 308e 13b9 a70a 94b6
000003e0: e494 8b37 18fa d3b6 7d10 a9b8 b32b 36b7
000003f0: 241c aa37 89fd fa37 195e 9e37 bcae 6b38
6.848406e-06 -2.1551808e-05 4.957389e-06 -1.7556593e-05 -6.5425047e-06 1.17576155e-05 -1.1416095e-05 2.461708e-05
1.4443489e-05 -6.3757893e-06 2.837542e-06 -1.7597333e-05 -1.6260738e-06 3.2736875e-06 -8.658626e-06 2.635216e-05
-3.4239483e-06 1.8704982e-06 2.8603721e-05 -1.8693581e-07 2.3471219e-05 3.149734e-05 7.913777e-05 8.2221395e-06
-5.6334366e-06 -3.4213575e-05 -3.2685193e-06 1.2591333e-05 -7.3334595e-06 -3.5974906e-06 1.2985505e-05 5.5612913e-05
-4.8810893e-05 1.1168078e-05 -8.6507935e-06 -2.3686938e-05 -1.39382755e-05 1.4423413e-06 4.0127965e-05 2.0345738e-08
1.6854548e-05 -2.6090685e-05 -1.5416952e-05 -2.6397971e-05 -5.8801825e-06 -7.6707865e-06 -5.5043497e-06 2.0396234e-05
-6.469774e-05 -7.247859e-06 -6.831692e-06 -2.0602612e-05 -1.444592e-05 -9.948134e-06 -6.1488995e-06 -4.285269e-06
1.1951308e-06 1.0336576e-06 3.346266e-05 -6.4151227e-06 4.154811e-06 3.3701644e-07 -2.1269956e-05 1.3349058e-05
-7.898635e-06 2.0117857e-05 1.936517e-05 -3.2058836e-07 8.913432e-06 -3.7577902e-05 1.4402929e-07 -4.08686e-06
-3.4398313e-06 3.9428065e-05 1.0284852e-05 -3.6366932e-06 3.6334328e-05 2.1427477e-05 -3.068368e-05 -7.958818e-06
5.96634e-07 2.534019e-05 2.4041274e-05 2.860713e-05 7.449294e-05 2.151739e-05 6.4956575e-06 -2.166237e-05
1.823397e-05 -5.5585926e-05 -1.4140873e-05 -2.6738176e-06 2.1224841e-06 -2.4138033e-05 2.0010895e-05 -2.0450825e-05
-5.0495473e-05 -4.4301441e-07 8.02333e-06 9.760261e-06 -5.2430687e-06 -7.8657365e-07 2.6472617e-07 -4.576951e-05
1.3519441e-05 -8.524987e-06 -5.3675803e-06 -1.3538775e-06 4.5782144e-08 -1.343842e-05 -4.2258125e-05 5.684211e-05
1.3845735e-05 2.0446236e-05 3.823785e-05 2.645909e-06 1.7207877e-06 3.6604172e-07 6.2636536e-06 2.2345419e-05
-3.7999107e-06 -3.2373795e-05 4.610639e-06 -3.1748527e-08 -8.478279e-07 -6.240224e-06 -1.0672438e-06 -4.9216737e-06
-4.9862338e-06 5.456033e-05 1.15622115e-05 5.388422e-05 1.912151e-05 -6.707616e-05 5.0183204e-05 -0.00012967862
-0.00011625158 1.6044505e-05 9.419289e-06 4.3151602e-05 -0.00010476523 -2.97884e-05 3.9133633e-05 -0.00016715108
1.2657532e-05 1.8318278e-05 -0.00015234895 2.4337996e-05 -5.5506214e-05 -0.00018096334 -0.00022234253 -0.00013116699
1.7559796e-05 -0.000101523256 2.2751594e-05 -5.5682376e-05 1.7919258e-05 7.699993e-06 -1.5685488e-05 -0.00024934867
-8.1715825e-06 -3.6461602e-06 1.32042815e-05 2.4156641e-05 -8.353385e-05 -9.1571594e-05 -4.2040716e-05 2.2177817e-06
-4.2377473e-05 2.918126e-05 0.00019510477 2.8231743e-05 1.992881e-05 -3.8095845e-05 1.1994108e-05 -0.00014915792
6.98396e-05 1.4297036e-05 1.7681896e-05 2.1282114e-05 -9.6532385e-05 2.4355672e-06 2.0544563e-05 1.7640768e-05
-1.3831857e-05 -1.8302284e-05 -0.00022043304 2.144307e-05 -4.890902e-05 1.7583981e-05 -3.4912578e-06 -1.1486554e-07
2.7184575e-05 -2.6073089e-05 -5.9236732e-05 3.793215e-05 -2.4478595e-05 2.749403e-05 -1.1074712e-05 1.4066116e-05
0.000102911945 -0.00019210411 -8.4415835e-05 8.065808e-06 -0.000119904944 -9.939346e-05 3.3536595e-05 -1.7273369e-05
4.0609128e-05 -0.00013078307 -0.000121070334 -0.00014955591 -0.00034769278 -0.00011328952 -4.6886176e-05 1.8734765e-05
-3.9950217e-05 3.5088473e-05 -1.3846015e-05 5.6692966e-06 -2.9867977e-05 0.00012033865 -5.585551e-05 -0.00010423815
-8.839893e-06 -8.427753e-06 -1.7801895e-05 -1.6759855e-05 1.4905891e-05 -1.219253e-05 -2.3061984e-05 8.1042555e-05
-2.1818836e-05 2.352518e-06 1.62877e-05 1.7109409e-05 6.1147184e-05 7.104365e-06 0.00010259898 -0.00029840146
-4.204322e-05 -0.00013940701 -0.00017133274 -5.697983e-07 -2.2948368e-05 -1.4899506e-05 -0.00014071981 -4.411984e-06
1.6639424e-05 -6.3174048e-06 -8.061619e-05 -1.085822e-05 2.0278683e-05 2.9920384e-05 1.8878885e-05 5.61911e-05
